Assets/Python/maddpg/model/simple_twoagent1117/agent_1/critic_params.pkl (torch, 51915 bytes, 7 tensors)

fc1.weight f4 [64, 60]
00000000: 5a1b 81be 81e0 cabe bbd8 06bf 96c4 953a
00000010: 0196 6e3e 1c7a 143d a97b 513d 82f1 83bd
00000020: 463b a63c a9e4 16bc 4a83 23be 549d 823d
00000030: 8470 dcbd 2e52 9cbd 02f9 32bd 02cd 84bd
00000040: 843c 8f3e 2fed 393d b8b0 1e3d 3aae 823e
00000050: 8c8b 373e e249 603c eb77 13bc 01f8 213e
00000060: 6834 85bd c1c9 3ebe bf5e 363d 3703 3dbe
00000070: 3499 38bf ef84 e7be 8f70 4fbc f707 7ebd
00000080: 65b6 2bbe d998 6c3d a480 cbbd 7b2f 27be
00000090: ac7f d43c b7ed 15be 3b69 ebbd 7c79 4a3d
000000a0: fd1f 02bd 13e1 df3c 786d 3b3d 45c6 873d
000000b0: 6906 78bd dab2 003e 74d6 bb3d d131 5ebc
000000c0: 11c0 edbd 9b9e 193b e463 3b3d f6b1 b2be
000000d0: 4ec5 4ebe fddb d33c cab7 99bc ab23 b2bb
000000e0: 16fe 9bbc 65fd 743c 2ee4 92bc b6b6 8bbc
000000f0: 1140 fb3e 8c7e 3fbf 9eda 8fbe a9eb 32bd
00000100: 4e64 af3c c93d 9e3d 13e3 c93d 37d7 0f3f
00000110: f2ac 003e e962 963d 3a60 0e3e 3752 e2bd
00000120: 5b15 fbbd dce8 873e 9983 ad3c 60c4 06be
00000130: c01e 6c3e 08a4 1abe 290c b5bb db1a 863e
00000140: e318 183e 58d1 9bbd ab78 783d 16cb 11bd
00000150: edea 4cbd bcce 5b3e 8967 87bd e305 ab3e
00000160: e6ae cdbe cca3 1dbf b218 b83e f6b8 813e
00000170: da74 f2be d11a 67be ccf9 353d ea82 74bd
00000180: a2ad f3ba b893 2c3e b00b 203e 1741 bdbe
00000190: 927f 9dbd c117 ad3b b4b4 d4bd bae7 e0bd
000001a0: 8636 773e 0bb0 77bd 4937 a33d 9b6a 1e3e
000001b0: 6bfe eebd 0319 b13c b252 3d3e a1be 933e
000001c0: 8e39 f93e 6aa8 973d 41de 263c 4698 673c
000001d0: c43d b53b c479 31bc 0705 acbc addb 0b3d
000001e0: 4a12 6a3e 584b d7be d795 2abd 1bbc 14bd
000001f0: 115f df3d e7af bf3a bd3a fe3c 7b1c 1c38
00000200: 9232 c33d f123 54be ba5d 7cbd bfa9 0cbc
00000210: 54f6 353d de63 80be 8df4 84bd 76a4 863d
00000220: ccfe a7bd b675 cf3d 9d57 8fbd 5dda ab3c
00000230: e627 b53d 7dd9 31be 7107 6fbd 38a3 9a3c
00000240: 9caf e6bd 5d06 fe3d cf44 a8bd ae5b b63e
00000250: d415 e9be 76bd a1be a47d 86be 1bcc 163e
00000260: 79c8 823e 9e9b a9bd c978 22bd e86c bfbd
00000270: 09eb 35be 0123 41be 2ff2 ab3d 522e 663d
00000280: af8a f73e d7d8 493e 4d51 2e3d b7bd 2d3d
00000290: 3391 5bbe 13b5 ff3d cf55 a4bd 1d60 8c3d
000002a0: 5da2 da3d 98cf 9e3d d124 d43d fd8a 793d
000002b0: 379f 62bd 475e 113d dcd1 3b3a 4289 573c
000002c0: 08f4 fa3b f518 a63d 1ad6 0a3d 112b 0ebd
000002d0: be7e 7bbe a6fa aabc 7fa1 aebd 12f1 47bd
000002e0: b56a 903d 97cd 21bd c333 2a3e d664 a43e
000002f0: 7fd5 e1bb 77a6 a6bb 9810 6f3d cb42 a23d
00000300: ef4b 613c 52d9 dbbe d126 183e 91a4 f0bd
00000310: e02f fb3d 04ed 0cbe 7454 443e c080 0dbd
00000320: 0d0a ecbd 1c7f 8ebd 6461 183e 0267 07be
00000330: ea9d 3ebe 26eb 843d 9eb4 903e fe6e 143e
00000340: 65e6 3abf e1bf 983e 03ac 07bd 3112 eebd
00000350: 1819 ab3d 4015 a2bd 5c1b 6d3d ac81 5d3e
00000360: 014f 8f3d e2a5 843e 931b 213c f51c d9bd
00000370: 89a2 e7bd 1669 7d3e 73b6 95be 5b47 623d
00000380: 7c33 6d3c e0ff 093e 5633 333c 61c5 b73e
00000390: 8964 94bd 0f42 eabd ccfb 823e 9c86 893c
000003a0: 0d45 6abe ef34 543d 2770 c83c 46a7 00bd
000003b0: d1c5 a13b b386 0e3d 2274 31bd 9ec0 3abb
000003c0: f9bd 0abe 3bb8 d9be 6650 93be 819e 08bd
000003d0: 2061 063c 7d71 dbbc cdff 07be 2be5 25be
000003e0: 23c5 4b3d cdaa 6b3c a916 b23d 8449 7fbd
000003f0: fc67 8f3d 0b33 693e ea49 29be 5a3d 893d
-0.2521618 -0.39624408 -0.52674454 0.0011426385 0.2329941 0.036249265 0.051143322 -0.06442548
0.020291936 -0.00920979 -0.15968052 0.06377664 -0.10763648 -0.07632862 -0.043694504 -0.06484415
0.27975857 0.04539221 0.03874275 0.2552355 0.17924327 0.01368949 -0.009000759 0.15817262
-0.06504136 -0.1863165 0.04452395 -0.18458258 -0.7210877 -0.45218608 -0.012661113 -0.062019315
-0.16768797 0.057762954 -0.099366456 -0.16326706 0.025939785 -0.14641462 -0.114946805 0.049432263
-0.031768788 0.027329003 0.045758694 0.06629614 -0.06055299 0.12568226 0.09171763 -0.013561682
-0.116088994 0.0023440483 0.04574956 -0.34901398 -0.20192453 0.025861735 -0.018764395 -0.005436381
-0.019042056 0.014952992 -0.01793107 -0.017054897 0.49072316 -0.7480247 -0.2809648 -0.043681774
0.021410134 0.07726628 0.09857764 0.56187767 0.12565973 0.07343084 0.13903895 -0.110508375
-0.122599326 0.26544845 0.021180915 -0.13160849 0.23058605 -0.15101635 -0.0055251312 0.26192364
0.14853244 -0.076082885 0.060661953 -0.03559407 -0.05002873 0.21465582 -0.06611545 0.3340293
-0.401725 -0.6157806 0.3595634 0.25336426 -0.47354776 -0.22568823 0.044427678 -0.059695162
-0.0018591175 0.16853225 0.15629458 -0.36963722 -0.07690348 0.0052823727 -0.10386029 -0.10981698
0.24141893 -0.060470622 0.07969529 0.15470354 -0.1166962 0.021618372 0.18488577 0.28856376
0.48676723 0.07405169 0.010184825 0.014135426 0.0055310447 -0.010832254 -0.020998491 0.034145046
0.22858539 -0.4204967 -0.041646805 -0.036312204 0.10906804 0.0014624567 0.031033868 3.7219823e-05
0.0953113 -0.20716836 -0.061612822 -0.0085853925 0.04442437 -0.25076193 -0.06491957 0.06574337
-0.082028955 0.101298735 -0.06999133 0.020978147 0.08845501 -0.17368121 -0.058356706 0.018876657
-0.112639636 0.124035574 -0.08216249 0.3561682 -0.45524466 -0.3158986 -0.2626773 0.14726298
0.25543573 -0.08281635 -0.03966597 -0.09346944 -0.1776544 -0.18861009 0.08395802 0.05619652
0.48347995 0.19711624 0.042558003 0.042417254 -0.21442108 0.12485709 -0.08024179 0.0685427
0.106754996 0.07754439 0.10358585 0.060923565 -0.05532762 0.0354903 0.00071647554 0.013155283
0.0076584853 0.08110229 0.03389559 -0.03470904 -0.24560067 -0.020871472 -0.08526897 -0.048813887
0.07051603 -0.039502706 0.16621308 0.32108182 -0.006891906 -0.005085762 0.058365434 0.07922896
0.013751014 -0.4293924 0.14858557 -0.117501386 0.12264991 -0.1376229 0.19172841 -0.034546614
-0.115253545 -0.06957838 0.14880902 -0.13222888 -0.18614927 0.064901635 0.282628 0.14495465
-0.73007804 0.29833892 -0.033123028 -0.116245635 0.08354396 -0.07914209 0.05788742 0.21631497
0.06997491 0.2590781 0.009833234 -0.10601226 -0.11310298 0.24747118 -0.2924076 0.05524383
0.014477607 0.13476515 0.010937532 0.35892776 -0.07245738 -0.11438381 0.2558273 0.01678782
-0.22877903 0.051808294 0.02446754 -0.031409524 0.0049369116 0.034796428 -0.043323644 -0.0028496156
-0.13549031 -0.4252337 -0.28772277 -0.033354286 0.008201867 -0.026787514 -0.13281174 -0.16200702
0.04974855 0.014383984 0.08695728 -0.06232597 0.07002255 0.22773378 -0.16532102 0.06701155

fc1.bias f4 [64]
00000000: 9a53 bebd 42c3 5e3d bf71 d0bc 4562 4c3e
00000010: 54e8 1f3e 8e21 35be 691e e7bd 6ddb 18be
00000020: 3345 23bd ce5c bfbd fddc 823d 809d 6d3b
00000030: 7a57 35bd 315b 91bd 04e5 b33d 1e64 fbbd
00000040: 6aa4 f03c ead1 383d c1ed 1b3e a962 d5bd
00000050: b0a2 bf3c 4394 97be 0e1a 173e 74cb 883d
00000060: 3631 093d b4f6 81be d203 d3bd 3458 89bd
00000070: 157f 6dbe b5b4 dfbd fc4d 373d 1c77 f2bd
00000080: 61af c63d 3d61 a5bd 47f8 0b3d e3ab 24be
00000090: d197 3b3e 1392 1bbd d9db 7ebe 7cce 59bc
000000a0: 68cb 1a3d 8536 d2bd 46b9 193e 9d1c 6f3d
000000b0: 48f0 e2bd 31a7 c23d b74f 4a3d f52c 293b
000000c0: f747 20bd 463e 373d 83ff 0bbe ee8e 03be
000000d0: 3c41 e03d 0c07 babd 6582 6d3d 5cff c2bb
000000e0: 103d 86bd b532 39bb 91b6 88bd 1d4f 78bd
000000f0: d0cb e83d 3620 8bbd 144d e83d 13cc 07bd
-0.092932895 0.05438543 -0.025444863 0.19959362 0.1561597 -0.17688581 -0.11285097 -0.14927454
-0.039860915 -0.09343873 0.063898064 0.0036257207 -0.044272877 -0.070974715 0.08783916 -0.12274955
0.029375274 0.045122065 0.15227415 -0.104192086 0.023393005 -0.29605302 0.14756033 0.066794306
0.033494197 -0.25383532 -0.10303463 -0.067062765 -0.23193009 -0.10923139 0.044752106 -0.118391246
0.097014196 -0.08075187 0.034172323 -0.16081195 0.18319632 -0.037981104 -0.24888553 -0.013293859
0.03779164 -0.10264305 0.15012082 0.058376897 -0.11080986 0.095045455 0.04939243 0.002581415
-0.03913113 0.044737123 -0.13671689 -0.12847492 0.109499425 -0.09083375 0.057985682 -0.0059508514
-0.065546155 -0.0028258984 -0.06675447 -0.060622323 0.11366999 -0.06793253 0.113428265 -0.033153605

fc2.weight f4 [64, 64]
00000000: a486 f03d 63d9 ed3d 6031 393d 8db7 94bd
00000010: 2594 cf3d 3272 af3d 942c 0e3d b8d5 e5be
00000020: bd4e 633e b782 d93b 1f2e c43d 0415 05bb
00000030: d685 2bbe 7afd 5f3e 32b8 993c 7bc5 49be
00000040: c8ae 8fbc 789c 86bd d042 783d 3d86 1dbe
00000050: dcb1 3abe 08f2 ab3c 1994 01be 0f96 b3bd
00000060: 89ca 453c 2064 4ebd 898d a63c 6e5b b33d
00000070: 7822 9a3e 4b72 0c3e f75b bb3d 3002 573e
00000080: 58f5 04bd 4461 0dbc 37f8 5bbb 6fae 1b3d
00000090: 06b9 09be 3e93 8b3d 1215 a43e 3547 8fbd
000000a0: 1cef 88bd dc43 843e c937 503d f13f a1bc
000000b0: 73f1 1ebe c4f2 e4bb 8c11 d83d 648f 113f
000000c0: a4d8 a1be 0ced 4f3e 8e70 24be 57cd c1be
000000d0: 1f53 e6bc 5cd5 b8bd cb0d 183d 60e9 c33e
000000e0: 1aa1 afbe 8809 cc3e d1f4 463d bc4b a03d
000000f0: a7a1 133f 34b9 2d3d 1ffc 66bd 8688 4a3e
00000100: 1f8d 9ebe 8e03 543d 41e9 60be aa71 38bd
00000110: dc7e 47bd ca26 5c3e 1ba3 9b3d 020e 26bd
00000120: f35e abbd dd43 e13c 4960 693e 8926 a8be
00000130: 19ec 443e 1d20 5c3d 37a7 c03e 8c6e 97be
00000140: 51eb fe3d 789d 973d 7963 eebd 809e 2ebf
00000150: dd61 143e 5d3d 29be e6e9 b83d e6ac 1cbe
00000160: 66ed a13e 2722 51be c016 57bd 5a2d e23e
00000170: 509d 06bf 03e3 0ebf db9b 5e3d b28f 233e
00000180: b171 353e 43fb b5bd 4d97 113c 9fe0 d83e
00000190: c44c b9bd 6a03 87bd 5cc4 babe beff 3c3e
000001a0: f477 ffbc ea08 17bd 777e b6be e5db 6a3e
000001b0: 97d8 a4be dc11 553d 8fbe 1f3c 6cd3 e13e
000001c0: 6433 02be 37d4 1bbd 0d16 8a3e 79c6 cf3e
000001d0: 03fc e5be 90a8 29be 5654 af3d 7a40 133e
000001e0: cedf 5b3e 6758 bfbc 4ef0 c2be 1088 5c3e
000001f0: 6a40 debe 17b9 2f3e abe8 a43d f458 b93b
00000200: 1199 3d3d 2045 8d3d c813 e83d 841c 1dbd
00000210: 58ea 173e 22a6 7fbc 20a2 fabd 02a2 063e
00000220: 3720 8c3c 230a 9abd ed8b 5a3e 2331 4f3e
00000230: 3f74 0e3e cda8 993d 5a20 1f3d 38fd 373e
00000240: a142 363e 7f7b 9b3d 29d0 a4bd 5989 133d
00000250: 6b67 df3d 473e 803d f847 bcbc 467e 18be
00000260: a0a6 bc3d 999d f73d e276 1bbe 93f2 823b
00000270: 2852 99bd 770b 813c 979c 08be 2faa 78bd
00000280: 93f3 fdbc 1766 5fbe 5e28 8f3d 4fe6 bdbb
00000290: 82fb 1f3d 8980 85bd ce6c 4d3d 3463 f3bb
000002a0: e5b0 7c3d 472f 743d d326 643e 114f 453d
000002b0: d335 ae3d 2c4a 8abb 5ede 4d3e 1a58 2bbe
000002c0: 4b85 d33d 5fad 00be b8fd 553e a9e8 863e
000002d0: 296b 1fbd 08ef 26be c2fc 4b3e a274 09be
000002e0: 962b 363e 5ad3 9b3c 65a2 313d 4a82 a63d
000002f0: 0e27 debd c1b5 533e dc30 23bd 3f2d c23d
00000300: 8034 a6bd 46fe 89bd 7225 cd3c bdc6 66bc
00000310: 34c1 d4bd 20de 62bd 004c d3b9 20f0 a53d
00000320: 9054 dabd 06a4 04be f8d3 d03c 2a89 7abd
00000330: 4631 cb3d 1705 edbd 863a 29bd a403 e2bd
00000340: 9ca9 2abd 202e 62bd 7e32 f8bd fd70 aabc
00000350: 6819 503d 785b b33c 0f5c f0bd 4b10 be3d
00000360: be3d a4bd 5852 e5bd 8e3c 3d3d a00e 53bd
00000370: 1ab8 8d3c 5af2 ddbd 9c9f 0fbe 00c4 aabd
00000380: 1eaf 043d 7fdf 493c 90b6 abbd fbfa d73d
00000390: f430 e5bd 7033 0cbe c33f f7bc 70d6 aebd
000003a0: e0bc 6c3c 6bb2 acbd ab2e acbd 50cd 08be
000003b0: e10d 543d 9386 f93c 12b1 bebd e932 7dbd
000003c0: ea4a 92bd f42f debd d89f c33d 6ea5 e6bd
000003d0: 98ad f0bd 37bd 21bd 6039 9dbd 6c35 d7bd
000003e0: 642e bbbd dc00 023d 64a1 333d 9ebf d7bb
000003f0: 9e1d 023d 4468 d93d 5a91 ef3d 90c4 c23d
0.11744431 0.11613729 0.045213103 -0.07261572 0.10135678 0.08566703 0.03471048 -0.44889617
0.22198005 0.006637897 0.095791094 -0.0020306716 -0.16750273 0.21874037 0.018764589 -0.19704239
-0.017539397 -0.06572813 0.060610592 -0.15383239 -0.1823191 0.020989433 -0.12654151 -0.08768856
0.012072214 -0.050388455 0.020331161 0.08757673 0.30104423 0.13715474 0.091484 0.20996928
-0.03246054 -0.008629147 -0.0033564696 0.03800815 -0.13449487 0.068151936 0.32047325 -0.069960035
-0.066862315 0.25833023 0.05083445 -0.01968381 -0.15521793 -0.0069869477 0.10550222 0.5685942
-0.31610596 0.2030527 -0.16058561 -0.37851974 -0.028115807 -0.0902507 0.03712253 0.38263988
-0.34302598 0.39851022 0.04857332 0.07826945 0.57668537 0.04241295 -0.056392785 0.19778642
-0.30967042 0.051761203 -0.2196398 -0.045030273 -0.048704967 0.21499172 0.07599469 -0.040540703
-0.083677195 0.02749818 0.22790636 -0.328419 0.19230689 0.053741563 0.37627575 -0.29576528
0.12447227 0.07403082 -0.11640067 -0.682106 0.14490457 -0.16527314 0.090289876 -0.1530033
0.31626433 -0.20423184 -0.05251193 0.44175225 -0.5258379 -0.5581514 0.054347854 0.15972784
0.17719151 -0.08885815 0.008886171 0.42358872 -0.09047845 -0.06592448 -0.36477935 0.18456933
-0.031185128 -0.036873735 -0.3564336 0.22935446 -0.32196495 0.052018985 0.009750023 0.44106615
-0.12714916 -0.03804418 0.26969948 0.4058111 -0.44918832 -0.16568208 0.08561008 0.14380065
0.21472093 -0.023357583 -0.38073963 0.21536279 -0.4340852 0.1716045 0.080521904 0.005656356
0.046288554 0.0689795 0.11331898 -0.038357273 0.14835489 -0.015603574 -0.12237954 0.13147739
0.017105205 -0.07521465 0.2134244 0.20233588 0.13911532 0.07502899 0.038849212 0.17967689
0.17798854 0.075919144 -0.08047516 0.036019657 0.10908397 0.062618785 -0.022983536 -0.1489192
0.09211469 0.12090606 -0.15182069 0.0039962023 -0.07486373 0.015752537 -0.13340984 -0.060709175
-0.030999934 -0.21816288 0.06990121 -0.005795277 0.039058216 -0.06518657 0.050152592 -0.0074275974
0.061692137 0.0596154 0.22280435 0.048171107 0.0850636 -0.0042202678 0.20104358 -0.16732827
0.10328158 -0.12566136 0.20897567 0.2634938 -0.038920555 -0.1630212 0.19920638 -0.13423398
0.17790064 0.019021679 0.043367762 0.081303194 -0.10847293 0.20674802 -0.039841518 0.09481286
-0.08115482 -0.06737952 0.02504227 -0.014085469 -0.10388413 -0.055387616 -0.0004030168 0.08102441
-0.1066066 -0.12953195 0.0254917 -0.061165966 0.099215075 -0.115732364 -0.041315578 -0.11035851
-0.04166566 -0.05521977 -0.121190056 -0.02080583 0.05080548 0.021894202 -0.11736309 0.092804514
-0.08019589 -0.111973464 0.046200328 -0.05152762 0.0172997 -0.108372405 -0.1402573 -0.08338165
0.032393567 0.012321352 -0.083844304 0.105459176 -0.11190978 -0.13691497 -0.030181771 -0.085369945
0.014449328 -0.08432468 -0.08407339 -0.1335957 0.05177105 0.030459678 -0.09311117 -0.06181613
-0.07143195 -0.1084899 0.09551972 -0.11262022 -0.117518604 -0.03948709 -0.07676959 -0.10508236
-0.09139708 0.0317391 0.043855086 -0.006584122 0.031766526 0.1061559 0.116976455 0.095101476

fc2.bias f4 [64]
00000000: 21c9 073e fe6e 1abe 837b 543e 3833 84bd
00000010: c825 de3d 2afc febb 8c22 28be 66e2 2cbe
00000020: f99f 593c 3a25 81bd 292f 6a3e 6a7a 15be
00000030: 1257 8abe 9443 d43d 79da 1dbe 123a 733b
00000040: 606b 833e cac5 d83c fed6 833e 3b9b f43d
00000050: 39ff 5d3d 3228 71bd f874 4a3d cf4a 463e
00000060: eaa2 2a3e cf73 46be ca18 433e db86 a4bd
00000070: 1f1e 7c3e 8cfd 12bc 1473 0a3b 03aa 2dbd
00000080: 8204 36be 16a9 943e 5ef1 c03d 6621 50bd
00000090: 28c8 e93d 0c59 933d 92c1 4dbe 7c63 1b3e
000000a0: d909 993e 3fca 563e 54b6 763e 14a4 303e
000000b0: be1f d13d a867 9d3d 2cbe fb3d faad 843e
000000c0: 6667 76bd 6a2a 8ebd 22c2 483e 3d16 16be
000000d0: 8b20 383e cc3e 213e 92a6 6e3c 4773 72be
000000e0: e351 a03d 7997 1d3d 31be 7c3d 224b d13d
000000f0: 1895 243c d65c a4bc 6033 e6bb 3ae7 31be
0.13260318 -0.15081403 0.20750241 -0.06455082 0.1084705 -0.007781525 -0.16419429 -0.16883239
0.013282769 -0.063059285 0.22869553 -0.14597479 -0.27019554 0.10364452 -0.15415372 0.003711347
0.25667858 0.0264615 0.25749964 0.1194367 0.054198477 -0.058876224 0.049427956 0.19364475
0.1666371 -0.19380115 0.19052425 -0.08033534 0.24620865 -0.008971583 0.002112572 -0.042398464
-0.17775157 0.29035252 0.09421037 -0.0508131 0.1141513 0.07194719 -0.20093372 0.15174669
0.29890326 0.20975588 0.2409299 0.17250091 0.102111325 0.076857865 0.12292132 0.25913984
-0.060157202 -0.069416836 0.19605306 -0.1465692 0.17981164 0.15746611 0.014566081 -0.23676787
0.07828119 0.038474534 0.06170482 0.102194086 0.010045312 -0.020063799 -0.0070251673 -0.17373362

fc3.weight f4 [64, 64]
00000000: 9974 963d 33a5 863c 7de1 823d 6a7b 723d
00000010: b123 f03d f39f 523d 595e cd3c 3526 d1b9
00000020: 57c6 a33d 2a57 c5bd e76c 3b3e ecaa 83bd
00000030: d383 31be cd38 2e3e 6885 3d3e 774c bd3c
00000040: 06b3 403e 63cd 37bd 92ea 793d ffd7 b43d
00000050: 2fa0 873d 933f 4fbe a993 083c 1e2b 263e
00000060: 4b45 c43d 5937 0abe 3bea 933d 153a 233d
00000070: 8210 4dbd 97d3 40be aadc 153e bfc4 d23d
00000080: b1ad 893d c3be 083e 26a0 803d 1b42 79be
00000090: e58b a73b 9980 603a 4acd 1cbe bd16 283e
000000a0: c1a1 863d 7c79 0b3e 1815 bc3d 153a 8c3d
000000b0: f120 43bd c873 8b3d 651a 62bd 5dd1 af3d
000000c0: 5496 263d b179 8fbe 4dad 0f3e 7121 0ebc
000000d0: 9aab 103e 52fa 423e dede 013e 7007 91bc
000000e0: b28b e53d 11a1 79bc 6c4a 053d 5014 153e
000000f0: 996a f73c 4717 dfbd 2fc9 0c3e f0e2 a23d
00000100: dc96 b73d 0dd3 aa3d 508b 2cbc 22b8 afbc
00000110: d2a0 a0bc 1d0e 41bd 1176 29be 3d0a 4cbc
00000120: e63a 113e 63a1 a13d 03c7 ab3d 2c1d 59be
00000130: 2ca2 82be cf3b c53d 527c 903e 312d 873d
00000140: cba4 74bd 3695 0bbe 8d4e a43d 6479 95bd
00000150: c776 623d 9fb5 1abe a011 e93d 61b2 193e
00000160: f187 0b3e c02c 61bc 7678 163e 7b8d 763d
00000170: 0aa6 b63d 1da9 9cbe 9381 f83d 414a 463e
00000180: 6599 7ebb 623c e83d 5f81 033e 71e7 54be
00000190: d42d 0e3e 7a6e 853d 984d a2bd 6aae 0a3c
000001a0: 2a76 d53d 1470 adbc b2b1 bf3d b44b c63d
000001b0: 471e 033e f875 533e 5951 263d 0eb9 683e
000001c0: dfce 5e3e ce0a 4abe 2353 d5bc 88f4 12be
000001d0: 76de 0f3c 8ce0 29ba e161 103e ed75 e6bd
000001e0: 51ad 1f3e 658f f8bc d7c3 d73d bffb 33bd
000001f0: 5523 5e3d 15fb ffbc 0941 a1bd 23a9 e13c
00000200: 6caa 0cb9 b903 59bd 9731 8ebd 60ce e0bd
00000210: 2765 3b3d 8094 65bb ab8d dbbd e8db 11bd
00000220: 4dd0 b0bd d1c6 c0bd ce01 2b3d cfa5 58bd
00000230: 8a55 d03c 352e 363c 29fd aa3d 2358 58bd
00000240: b9e2 983d d4a1 d5bd 5e6d 0dbd 5406 33bd
00000250: 02fc 673d eb7a 54bd c8b5 293b eb95 08be
00000260: 2a03 d9bc a7e7 a93d f7e6 0cbe f3a9 94bd
00000270: a37b 593d 0ea0 2038 1f49 24be d7e4 3f3d
00000280: 2218 a2bd 3088 3bbd 895f fcbd 4498 b23d
00000290: 7e5f e9bc e4bb 8ebd 05b2 dd3d 5934 50bd
000002a0: b228 27bd 2ec7 82bd 01ed a9bc 5c9d ccbd
000002b0: 2675 b0bd 60e3 0e3c f765 fabc 4fd8 dfbd
000002c0: 7723 a03d 2e80 8abd 3ffb 1abe aeef e8bc
000002d0: 08c1 00be 70af 6b3c 8005 c8bd c5aa fabd
000002e0: f29c cbbd dfaa 703c 2cee 19bd 559c 6b3d
000002f0: 066b 453d 473c 9dbd 639e e73b fce7 5f3d
00000300: cba0 08be 54f4 dc3d ce2e b9bd 3a12 9abd
00000310: 41e7 5b3d 3462 363d bc7d c2bd eac6 bd3d
00000320: 6afa 8fbd 4c56 793d 5b59 acbd 611e 9f3d
00000330: 340e 6cbd d03f a43c f4e3 173d 0f53 b43d
00000340: a167 61bc 3072 203d 241e d13a 7034 f8bd
00000350: 96db d4bd 14b4 b8bd 9886 c53d 3060 e0bd
00000360: 166f aabd 04d4 f4bd fc4c b03d f038 40bd
00000370: 6125 83bd b8e9 8fbd ed02 b23d 990b 863d
00000380: 484c e9bc 5c34 d0bc 4d6e 8ebb ea27 6d3c
00000390: 4604 c6bd a2c5 b43d 7066 b9bd 4313 5fbc
000003a0: 4ab7 dabc fe49 babd b0a5 bdbc 4092 1abb
000003b0: 64c9 92bd 5cbb 2ebd 28d4 693d 2419 d9bd
000003c0: d8d3 83bc ce57 813d f365 c13d d857 7abd
000003d0: b0d1 643c 4a4e c83d f803 c83c b09f 473d
000003e0: 249a 9bbd cc05 39bd 7ba1 2abc 2b0b 18be
000003f0: 9e9c 87bd c9fb 03be d732 0dbe 36f0 eabd
0.07346458 0.016436195 0.06390665 0.059199728 0.117255576 0.05142207 0.025069403 -0.00039892053
0.07996815 -0.09635766 0.18303262 -0.06429085 -0.17335443 0.17013855 0.18507922 0.02310775
0.18818292 -0.044873606 0.06101472 0.088302605 0.066223495 -0.20239095 0.008335986 0.16227385
0.09583529 -0.13497676 0.0722241 0.039850313 -0.05006457 -0.18830715 0.14634958 0.102914326
0.06722582 0.1335402 0.06280546 -0.24341623 0.0051131123 0.00085640844 -0.15312687 0.16414924
0.06573821 0.13620561 0.09183711 0.06847016 -0.047638837 0.06809193 -0.055200953 0.08584855
0.040670708 -0.2802253 0.14030953 -0.008674965 0.14127961 0.19040802 0.12682673 -0.017703742
0.112082854 -0.015236155 0.032541677 0.1455853 0.030202197 -0.10893112 0.1374862 0.07953441
0.08964321 0.08341036 -0.010531262 -0.021450106 -0.019607935 -0.0471326 -0.16548945 -0.012453613
0.14182624 0.0789211 0.08387568 -0.21202534 -0.25514352 0.09630548 0.2821985 0.066004165
-0.05972747 -0.13631138 0.08022795 -0.07298544 0.055289056 -0.15108345 0.11380315 0.15009452
0.13626076 -0.013743579 0.1469439 0.06019352 0.08918388 -0.30597773 0.12134089 0.19364263
-0.0038848754 0.11339642 0.1284232 -0.20791413 0.1388467 0.06515212 -0.07924956 0.008464435
0.10422929 -0.021171607 0.093600646 0.09682408 0.12804519 0.2065047 0.040604923 0.22726843
0.21758603 -0.19730684 -0.02604062 -0.14351094 0.008781066 -0.00064802985 0.14099838 -0.11252961
0.15593459 -0.030341813 0.105354 -0.043941256 0.054232914 -0.031247655 -0.078737326 0.027546471
-0.00013414928 -0.052982066 -0.06943052 -0.10976863 0.045750763 -0.003503114 -0.107203804 -0.03561011
-0.0863348 -0.09412921 0.041749768 -0.052892502 0.025431413 0.011119415 0.08349068 -0.05281843
0.07465119 -0.10431257 -0.03452813 -0.043707207 0.056636818 -0.051875036 0.0025895704 -0.13338439
-0.026490767 0.08296137 -0.13759981 -0.07258978 0.053096425 3.8296035e-05 -0.16043518 0.046849098
-0.07914759 -0.045784175 -0.123229094 0.087204486 -0.028487917 -0.06969431 0.1082497 -0.050831173
-0.040810294 -0.06385647 -0.020742895 -0.099909514 -0.08616094 0.008721203 -0.030566199 -0.109299295
0.078192644 -0.067627296 -0.15134905 -0.0284346 -0.12573636 0.014385089 -0.09766674 -0.12239603
-0.09942044 0.014689176 -0.037580654 0.057522137 0.04819777 -0.076775126 0.0070684417 0.054664597
-0.13342588 0.107887894 -0.090421304 -0.07523008 0.053687338 0.044527248 -0.09496638 0.092664555
-0.070301846 0.060873315 -0.08415481 0.07769466 -0.057630733 0.02004996 0.037082627 0.08804905
-0.013757617 0.039171398 0.0015954417 -0.12119377 -0.10393445 -0.09018722 0.09644812 -0.10955846
-0.08321969 -0.11954501 0.086084336 -0.0469293 -0.06403614 -0.07027 0.08691964 0.06545181
-0.028478757 -0.025415592 -0.004346645 0.014474848 -0.09668784 0.08826758 -0.090527415 -0.013615432
-0.026698727 -0.09096144 -0.023150295 -0.0023585707 -0.071673185 -0.04265915 0.057087094 -0.10600498
-0.016092226 0.063155755 0.094432734 -0.06111893 0.013966009 0.097805575 0.024415955 0.048736274
-0.07597759 -0.045171544 -0.0104144765 -0.1484801 -0.06621669 -0.12889017 -0.13788925 -0.11471598

fc3.bias f4 [64]
00000000: cb52 573e eb80 753e b7a6 17be db1d 8cbd
00000010: 6c6e 3abc 16bb 473e 2ee8 88bd c9eb b8bd
00000020: de02 1e3e 9eb6 d1bd fbbe 9c3e 0035 b2bd
00000030: 7cd7 3dbe 9a26 cabd 20c9 1fbe d4ae 973e
00000040: 9a06 c23a 59b7 55bd 8f71 c8bd 9453 243e
00000050: 1400 1dbe 43e3 a53d 0147 d1bd 6655 42bd
00000060: 4e95 02bd a0c1 a1bd 2aad 7a3e 97df debd
00000070: c67f 1bbe 33d1 1abd c391 a23e ff61 763e
00000080: 015d 0e3e 2d0a 03be 9ab9 0ebd 2287 a93e
00000090: 3b6e 8abd d14f 1c3e 8bdb aa3d f300 413e
000000a0: 1918 483e 3aa2 513e 0189 17be fb7b 2abc
000000b0: cf93 c0bd 4855 8d3e b892 9e3e 2384 313e
000000c0: 5f62 3c3d 1e24 423c 7f25 a13e 01ed 753e
000000d0: eb62 8f3e 7755 a6bd 9353 083c 829b 303e
000000e0: e99e 143c e46c bcbd 41fc 883e 73b5 df3d
000000f0: da33 84be 49f1 41bd 8a9a ad3e 29b7 9fbd
0.21027677 0.2397496 -0.1480969 -0.06841632 -0.011378866 0.19504961 -0.0668491 -0.090293474
0.15430781 -0.102399096 0.30614457 -0.08701515 -0.18539232 -0.09870644 -0.15604067 0.2962557
0.0014802993 -0.052176807 -0.097872846 0.16047508 -0.15332061 0.08099987 -0.10218621 -0.047444724
-0.03188067 -0.07898259 0.2448012 -0.1088249 -0.1518546 -0.037797164 0.31751832 0.2406082
0.13902666 -0.1279685 -0.034844972 0.3311091 -0.06759306 0.15264823 0.08342656 0.18848018
0.19540443 0.20472041 -0.14798357 -0.010405536 -0.09403192 0.27604127 0.30971313 0.17335562
0.04599225 0.011849431 0.3147392 0.24016191 0.28005156 -0.0812177 0.008320707 0.17246822
0.00907109 -0.09200457 0.26754954 0.109232806 -0.2582081 -0.047349248 0.33906966 -0.07798607

q_out.weight f4 [1, 64]
00000000: 8063 be3d 25e7 673d 94a8 603d d9bb 93bd
00000010: aba0 0ebf 2f28 3b3e 9047 6ebc ae9c 0f3c
00000020: 97a9 ee3e faad 5ebe 5c85 ec3d 8103 aebe
00000030: 2022 38bc 767f 6cbf b074 a83d 4bd0 c03d
00000040: d570 08bf 1b3e 843c 4e5f 14be 117d 833d
00000050: 125c f4be a367 b53e decb 70be baad 17bf
00000060: 7897 04bf 6817 77bc 8af4 163e 03ee df3d
00000070: 5a9c 39bd d74f 4abd 4611 1b3e a67a a83d
00000080: 14e3 3c3e 8af4 c53b fff1 15bb fe34 163e
00000090: 8634 d13c 8141 ed3e 90bb 333d 45af 423e
000000a0: ad78 ae3d 3594 a23e 3f74 9e3d 8e23 08bf
000000b0: 80d3 4ebd 8332 cf3d 108f c13d a1fb 143e
000000c0: de20 26be a2be 87bf 41dc 4d3e c34a 323e
000000d0: deed 9a3d 6df0 e23d 5d50 f6be 8071 1f3f
000000e0: 504c c1bc 21e1 4abd 6ae8 1e3e 5832 923d
000000f0: f5fd 0abf 687e babe 7074 ad3d 90af 103d
0.09296322 0.05661692 0.05484827 -0.072135635 -0.5571391 0.18277048 -0.014543429 0.008765383
0.46613762 -0.21746054 0.11548874 -0.33987048 -0.011238605 -0.9238199 0.082253814 0.09414729
-0.5329717 0.016142895 -0.14489481 0.06420339 -0.47726494 0.3543063 -0.23515269 -0.5924946
-0.5179362 -0.015081264 0.14741722 0.10934069 -0.045315124 -0.049392547 0.15143308 0.08226518
0.18445998 0.006041114 -0.0022879837 0.14668652 0.02553774 0.46339038 0.043880045 0.19012173
0.08519111 0.31753698 0.07737016 -0.5317925 -0.05049467 0.10117056 0.09451115 0.14549114
-0.16223475 -1.0605052 0.20103551 0.17411332 0.07564901 0.11081014 -0.48108187 0.6228256
-0.023595959 -0.049531106 0.15518346 0.071385086 -0.5429376 -0.36424565 0.08469474 0.03532368
