Assets/Python/maddpg/model/simple_twoagent_twoobj_1122/agent_1/actor_params.pkl (torch, 44737 bytes, 8 tensors)

fc1.weight f4 [64, 30]
000000 d5 33 46 bd e7 1b 72 3e ed 04 b0 be a9 7e 90 bc
       -0.048389275 0.23643456 -0.34378758 -0.017638521
000010 ab fc 76 3c 50 28 29 bd 73 3b 8a 3e 6a ba b5 3e
       0.015074889 -0.04129821 0.2699848 0.35493785
000020 cd bf 2b bd b6 20 34 3e 32 89 11 3e b8 9b 2f 3e
       -0.041930962 0.17590603 0.14212492 0.17149246
000030 1f 86 5e bd ab 4d f8 3d 7a 47 1b bc d5 ab eb bd
       -0.054327127 0.12124189 -0.009477491 -0.11507384
000040 5d 25 8b 3e 7e 3f 6a be e8 11 5d be 38 24 05 3e
       0.27176943 -0.22875783 -0.21588862 0.13002098
000050 d3 77 10 3e c7 6d 2b be 96 17 cf 3d 47 6d 02 3b
       0.1410821 -0.16741095 0.101119205 0.001990156
000060 d6 4e 09 be 74 05 c9 3c 30 e2 00 3e aa 60 f2 3d
       -0.1340898 0.024538733 0.12586284 0.118348435
000070 0a a5 46 3e 00 f3 95 3d 46 dc 97 bd 92 3d 40 3e
       0.19398895 0.07321739 -0.07415061 0.18773487
000080 b3 27 2a 3e 69 a7 3f be 28 30 29 3e 69 75 f1 bd
       0.16616707 -0.18716206 0.16522276 -0.11789972
000090 b1 ee 99 3e 61 c5 02 bc 30 0d 69 be 85 fc 21 3d
       0.3006492 -0.007981629 -0.22758937 0.039547462
0000a0 d7 2a 04 3e 16 76 44 3e fc ce 47 be 53 7f cf bd
       0.12906967 0.19185671 -0.19512552 -0.10131707
0000b0 8a 96 4a be ed 2a 0f be f4 f4 49 3e 99 b3 0f be
       -0.19783989 -0.13981219 0.19722348 -0.14033355
0000c0 83 07 3b be 26 1f 1f 3e 99 d1 6c 3e 97 cb 0c bc
       -0.18264584 0.15539226 0.2312683 -0.0085934615
0000d0 0c 27 af bc 7d b3 88 3c b1 c4 c8 3d b6 61 3c 3e
       -0.021380924 0.01668715 0.09803141 0.18396649
0000e0 98 29 41 bd 78 73 1f 3e 32 47 01 3e dc b6 5c bd
       -0.047158808 0.15571392 0.12624815 -0.053885326
0000f0 ec 41 21 bd 41 5b 5b 3e 3a 41 26 3e 75 f9 e8 be
       -0.03936951 0.2142153 0.1623582 -0.4550282
000100 cb 07 ee bc 99 06 04 bf 18 dd 4c bd a0 b2 a3 bd
       -0.02905645 -0.5157257 -0.05001554 -0.079930544
000110 32 2f d6 3d 1e a8 71 3e a5 c1 07 be e9 86 73 3e
       0.104582205 0.23599288 -0.13257463 0.23781933
000120 3d e8 a5 bd f8 78 0e bd 4a c1 db 3d a7 aa 19 be
       -0.081009366 -0.034783334 0.10730226 -0.15006505
000130 c9 94 c4 bd 24 8b 04 bc ef c5 09 3e 60 18 1e be
       -0.09598691 -0.008089814 0.13454412 -0.15438986
000140 88 11 b0 3c 02 7c 28 3e 50 3a c9 3d 9a a8 2a 3d
       0.021492735 0.16453555 0.09825575 0.041664697
000150 a0 c9 78 3d 7d f7 eb bd 9f e4 cb bc cc 04 1c 3e
       0.06073916 -0.11521814 -0.024889288 0.15236205
000160 43 9d 05 bd eb d6 15 bc ec 07 08 3f d8 ea bf 3e
       -0.03262068 -0.009145479 0.5313709 0.3748386
000170 5f fa 10 be 2d 23 d8 be 86 f1 cc bd c4 cc be 3d
       -0.14158009 -0.42214337 -0.100070044 0.093164
000180 b5 88 59 3d ee 3b bf 3c 6f 9a a9 3d 6d 73 a1 3d
       0.05310889 0.023344006 0.08281409 0.07883344
000190 e6 ed 61 be c1 19 47 bd a9 bc 7f be 5d 12 27 3d
       -0.22063407 -0.048608545 -0.24974312 0.040788997
0001a0 51 de f1 3c b8 04 79 bc 1e c3 1a be 42 ea be bc
       0.029524954 -0.015198879 -0.15113494 -0.023305062
0001b0 1f 7d 56 bd 93 51 62 bd 09 3a bf 3d 81 91 60 be
       -0.05236542 -0.055253576 0.09337241 -0.21930505
0001c0 15 7e 27 3e 33 42 12 be 79 f8 40 bc 30 66 fd bc
       0.1635669 -0.14283065 -0.0117779905 -0.030932516
0001d0 d1 58 22 3d fe da bf 3b 4a 92 54 be 9e 57 3e be
       0.039635483 0.0058549633 -0.2075893 -0.18588111
0001e0 e3 a9 27 3e f9 e2 12 be 67 57 52 3e 88 fe 58 bd
       0.163734 -0.14344396 0.20541154 -0.052977115
0001f0 77 29 b3 3e 77 3d 57 be 99 b0 69 3e 58 b1 a7 be
       0.34992573 -0.2101954 0.22821273 -0.3275249
000200 4a ac c6 3d 16 f7 8a 3d b2 c5 be 3d 63 d9 02 3e
       0.0970083 0.06785409 0.09315051 0.12778239
000210 c2 00 ba 3e 38 93 6b bd 9e 16 9d 3d e7 9e 0c 3d
       0.36328703 -0.057513446 0.076703295 0.03433123
000220 14 6e 5c 3d 9a 15 9b bd 1e 7e 8b 3d c9 38 03 3e
       0.053815916 -0.075724795 0.06811164 0.1281463
000230 6d 60 3a be 19 e9 9a 3d 46 5a 29 3e 25 6a 0d be
       -0.18200846 0.07563991 0.16538343 -0.13810022
000240 b2 80 8b 3e 66 25 a5 3d cd 05 17 bd 5e 14 13 3e
       0.27246624 0.08063774 -0.036870766 0.14363238
000250 e5 1e 80 3e 7c 46 e4 3d f6 9d 16 bf c3 89 ec bc
       0.2502357 0.11146256 -0.5883478 -0.028874284
000260 7f 4e ed be db 73 cb bd 81 aa 9e be 00 a4 c4 3c
       -0.4634895 -0.09934207 -0.3098946 0.024003983
000270 5b 4f b3 3d 13 32 4a bd 80 d3 eb bd e5 57 ee bc
       0.0875537 -0.04936416 -0.1151495 -0.029094646
000280 9d 49 a3 3d 42 c4 21 3e b4 7f 2e 3e 36 be 03 3e
       0.07973025 0.15797523 0.17040902 0.12865528
000290 ff 50 ac bc 06 e7 5e bd 28 68 fd 3d 37 68 a3 bd
       -0.021034716 -0.05441954 0.12373382 -0.07978862
0002a0 0a de 92 3d 20 a0 0a 3d 3a a9 6f 3e 71 44 00 3e
       0.07171257 0.033844113 0.23404399 0.12526108
0002b0 60 45 46 be 15 98 3b 3e 8c 5e 67 3d 54 71 54 3c
       -0.19362402 0.18319733 0.05648665 0.012966473
0002c0 ae 8d 3b 3d 4e 21 25 be 0f c4 9d bd c2 06 21 3d
       0.045789413 -0.16125986 -0.07703411 0.039313085
0002d0 7e b0 b2 3e 18 06 52 3e 8f 73 ab be 4d 60 da be
       0.34900278 0.20510137 -0.33486602 -0.42651597
0002e0 ac 95 df 3e ca 01 df be fa 57 dc 3d 2e f7 a2 3c
       0.43668878 -0.43556052 0.10758968 0.019893255
0002f0 57 16 97 bd 0e f0 40 bc 39 bb bb 3d db da 07 be
       -0.07377308 -0.0117759835 0.09166569 -0.1326708
000300 ed 3e 40 be 7b e9 3a be 61 0d 65 3d 73 2f 2a 3e
       -0.18774004 -0.18253128 0.055920962 0.16619663
000310 97 e0 5b be be 8a 4f be 7f 2b f4 bd bd 22 16 be
       -0.21472393 -0.2026777 -0.11922359 -0.14661689
000320 7f 4b b6 3d 71 2d 6b 3d 83 62 86 3d 5d 89 cc 3d
       0.089011185 0.057416383 0.06561758 0.099871375
000330 fa 4c 31 3d 45 76 88 3d c5 f2 9b bc 02 74 03 3d
       0.0432863 0.06663183 -0.01903666 0.032093056
000340 f7 62 c3 3d 28 df ba 3c f7 1b b3 be c3 17 aa bd
       0.095403604 0.022811487 -0.34982273 -0.083053134
000350 89 33 a3 3e 61 3e 5e bd 1c 41 a8 be 78 c0 3d be
       0.31875256 -0.054258708 -0.32862175 -0.18530452
000360 22 6e 6a 3d 13 ef c6 be 44 78 1a 3e 19 fa 8f 3e
       0.057233937 -0.38854274 0.1508494 0.28120497
000370 f6 0d f2 3d 00 35 47 3e bb fa b8 3e b6 9b 52 be
       0.11819069 0.19453812 0.36128792 -0.20567212
000380 32 22 50 be e3 8a 12 3e 6e c4 85 3d b1 63 2f 3c
       -0.20325544 0.14310794 0.065316066 0.010704921
000390 6a db 0c 3e 32 8d 15 be db 9f 5c 3e 2b 5f 93 3e
       0.13755575 -0.14604643 0.21545355 0.28783545
0003a0 5b 53 72 3d cb 42 d4 bd a7 76 20 3e 54 3d 76 be
       0.059161525 -0.10364302 0.15670262 -0.24046832
0003b0 6e a1 81 3c 0a 1d 5c 3e 14 f3 75 bb fd 3c b8 bd
       0.015824046 0.21495453 -0.003752892 -0.089960076
0003c0 e7 61 56 3c 8c 91 8d 3d 8f 29 0b bd 9e 8c 61 3e
       0.013084865 0.069125265 -0.03397518 0.22026297
0003d0 78 01 66 3e bd 29 2f 3e d7 c3 d1 bd ad 29 37 bd
       0.22461498 0.17105766 -0.102424316 -0.04471748
0003e0 fb 06 73 3d 75 3e 75 3e 99 42 7f 3d 7f b0 03 3e
       0.05933283 0.23949607 0.06231937 0.12860297
0003f0 76 58 bc 3c 0d 2d b5 bd 4c ee f1 3b ba 37 81 3d
       0.0229914 -0.088464834 0.0073831435 0.06309457

fc1.bias f4 [64]
000000 e0 14 55 3e de 4c 82 bd 05 62 3b bd e2 68 86 3e
       0.20808744 -0.063623175 -0.045747776 0.26251894
000010 2e 3f 20 3d 0c a3 7f 3d df ac 5e 3b bd fb 55 3e
       0.039122753 0.062411353 0.003397755 0.20896812
000020 e3 4d a8 3e 12 55 17 3e cf 34 df 3a 7e bd 5b 3e
       0.32871923 0.14778545 0.0017029288 0.21459004
000030 3a d7 27 3e 6d 0d 1c be 51 45 4b 3e 58 be 0e 3d
       0.16390696 -0.15239497 0.19850661 0.034849495
000040 67 0c 4e 3e aa 5e a2 3d d1 e2 ce bc 9c 49 9d bd
       0.20121919 0.07928212 -0.025254639 -0.076800555
000050 09 61 78 3e 1c ef 8c bc 33 a7 bb bd 22 8d d0 3d
       0.24255766 -0.01720386 -0.0916275 0.10183169
000060 7c e6 52 3c d3 9e e7 bd 9c 30 9a 3e 03 c7 d3 bc
       0.012872335 -0.1130959 0.3011521 -0.025851732
000070 1b 9b 72 3e dc 8f 9f bd f7 73 89 3d f5 6a e4 3b
       0.2369198 -0.07791111 0.06711572 0.006970758
000080 df b5 30 bd 85 f1 4f bd ab b0 a8 bd b1 1e 2c be
       -0.043142196 -0.05076744 -0.08236822 -0.16808583
000090 03 24 ad bc a5 83 29 3e 8e f2 69 3e b5 86 38 be
       -0.021135336 0.16554125 0.22846434 -0.18020137
0000a0 54 b5 be 3b 25 8c fa bd 34 a1 8f 3e a1 13 32 3e
       0.005819956 -0.12233762 0.28052676 0.173903
0000b0 4c ba a3 3b 64 80 c6 bd 35 be ef bd 3f f8 f2 bb
       0.0049965736 -0.09692457 -0.11706201 -0.007414847
0000c0 5b 41 c1 3d 86 f4 cc 3d 03 ab b1 3c 83 35 89 be
       0.09436294 0.10007577 0.02168799 -0.2679864
0000d0 f3 10 82 3d 2b 02 4c 3d c2 de 34 bc 40 9b 04 be
       0.06350889 0.049806755 -0.011039438 -0.12949848
0000e0 ca 7c 00 3d 43 73 d3 3b c6 b0 cf 3d 1c b8 d9 3d
       0.031369008 0.0064529493 0.10141139 0.10630819
0000f0 93 82 46 3d 0e fe e5 bd 1b f3 44 be 50 4b f7 bd
       0.04846437 -0.11230098 -0.19233362 -0.120749116

fc2.weight f4 [64, 64]
000000 da 0e 84 bd 83 7e df 3d 21 87 3b 3e 1e d3 e3 bd
       -0.06448145 0.10912802 0.18313266 -0.11124252
000010 e2 8c a8 3a b6 b7 e0 3d 93 0a 49 ba fc 80 b5 3e
       0.0012859369 0.1097254 -0.0007669117 0.3544997
000020 26 95 bd 3d 2d 40 71 be ea 84 ab 3c 9e 0e d3 3e
       0.092569634 -0.23559637 0.020937402 0.4122209
000030 91 3f 2e be 0d 15 ca 3d 97 4b aa 3d 9b 6c 5f bd
       -0.17016436 0.09867296 0.08315199 -0.054546934
000040 1f 90 a2 bd a1 82 1d be ec b6 79 3d ba af 87 be
       -0.07937645 -0.15381862 0.060965464 -0.26501256
000050 44 f0 d8 bc b8 8c 0d 3e 98 9e 0d 3e ab 82 00 3d
       -0.026481755 0.13823211 0.1383003 0.031374615
000060 d3 f4 0e bd a6 37 ce 3d c0 74 20 3d af e4 72 3e
       -0.03490145 0.10069208 0.03917384 0.23720048
000070 9c 91 4b 3e f7 39 1b be 5e bb 9a 3d be b4 42 3d
       0.19879764 -0.1515883 0.07555269 0.04753565
000080 87 1e b0 3c 3e 21 27 bb b6 73 8c be 1f 12 04 be
       0.021498932 -0.0025501992 -0.2743203 -0.12897538
000090 65 8d 34 3e 2f 71 bb bd a9 bd 50 3e 03 37 07 3e
       0.17632063 -0.091524474 0.2038485 0.13204579
0000a0 3f ca ac be cf a4 33 be 66 33 51 3d 94 7b 04 3d
       -0.33748052 -0.17543338 0.051074408 0.032344416
0000b0 d5 c2 a1 3e 35 af 19 3c fb c4 d8 3d d3 3d 19 3e
       0.31593958 0.0093801515 0.10584446 0.1496499
0000c0 75 7d 81 be 0b d3 94 3d 5b 3f ce 3d f4 c4 53 3e
       -0.2529103 0.07266816 0.10070678 0.206806
0000d0 f6 29 ca 3d 6e 76 38 be c9 1e 26 bd d7 8d 7b 3e
       0.09871285 -0.18013927 -0.040556703 0.24565826
0000e0 2f ca fb bd 78 1b 96 3e 7b 99 92 be 03 7b 0d bd
       -0.12294423 0.29317832 -0.2863272 -0.03454114
0000f0 b6 0b 19 3e 2e c1 91 bc db 95 07 bd b7 55 2a 3e
       0.14945874 -0.01779231 -0.033101898 0.1663426
000100 24 92 43 3e f4 ac bf 3d 64 5f 19 3e fb d6 05 3e
       0.19098717 0.0935916 0.14977795 0.1307029
000110 5a 03 50 3d 1b 91 7a bd a6 dc b9 3d a3 d7 b3 3d
       0.050784446 -0.06117354 0.090752885 0.08781364
000120 d2 91 ae 3d b7 80 36 be b5 54 5d 3e 18 7f c7 3d
       0.08523907 -0.17822538 0.21614344 0.09741038
000130 d1 45 1b be ae f0 82 be 78 58 74 3e 43 dc 10 3e
       -0.15163352 -0.2557425 0.23861873 0.14146523
000140 5a e1 53 3e 2f 12 ab be da 53 cd 3d 24 83 80 bc
       0.20691434 -0.3341231 0.10025759 -0.015687533
000150 96 3b 9c be c1 7c 32 bc b2 2a 95 3d d7 0c 78 bd
       -0.3051421 -0.010894001 0.07283534 -0.06055912
000160 fc 36 30 3e b7 38 93 be f1 80 2b 3e e4 2d af 3e
       0.17208475 -0.28754207 0.16748406 0.342147
000170 69 35 d8 3c 64 88 93 bd d7 37 ae 3d f0 b8 39 3d
       0.026392655 -0.07203749 0.08506744 0.045342386
000180 03 62 c1 bd 38 1b c5 bd e0 05 5a bd e2 fb db bc
       -0.094425224 -0.09624332 -0.05322826 -0.026853506
000190 de c1 84 be bb 84 02 bd e2 be a1 bd 0c 4b 81 3e
       -0.2592916 -0.031864863 -0.07897736 0.2525257
0001a0 42 6a 27 bd e8 29 12 bd 99 0b e5 bc 0e cb 60 3d
       -0.04087282 -0.035684496 -0.027959632 0.054881148
0001b0 96 d6 67 3e 04 f9 3f bd d4 ed 4e 3c 20 0a 04 3d
       0.22640452 -0.04686834 0.012629945 0.03223622
0001c0 37 97 00 3e c9 62 75 bd c9 0e 21 3e 16 9e 3d be
       0.12557684 -0.059908662 0.15728296 -0.18517336
0001d0 b1 6f a4 be 0d 96 cd 3d 90 72 4a 3e 4a ca e1 3d
       -0.32116464 0.100383855 0.19770265 0.11024912
0001e0 c8 63 ce bd e4 d7 eb bd 91 94 04 bd bc 40 bd 3e
       -0.100776255 -0.11515787 -0.032368246 0.3696345
0001f0 ca 5d bf bc dd c0 73 be 22 69 91 bc ed ad 77 3d
       -0.023360152 -0.2380404 -0.017750327 0.060468603
000200 3c 6e 2f be 0b 88 95 bd 20 49 11 bf c5 36 ae 3d
       -0.17131895 -0.07301339 -0.56752205 0.0850654
000210 00 70 b0 3d 33 88 16 bf 86 0d 08 bd 6a 0c ea 3c
       0.08615112 -0.58801574 -0.033216022 0.028570373
000220 a0 71 6c 3e 2d 6c b1 be 96 08 01 3e 7d f9 0b bf
       0.2309022 -0.34652844 0.12600932 -0.54677564
000230 1a cb bf 3d 5e 55 13 3d 60 22 ec 3d e5 32 45 be
       0.093649104 0.035970084 0.11529994 -0.19257696
000240 f8 a8 18 bd 7b c6 2d 3b 67 80 63 3d 40 d7 30 be
       -0.037270516 0.0026516009 0.055542376 -0.17269611
000250 54 ab 9e be 70 04 ac bd b2 89 55 3e b0 f9 28 be
       -0.30990088 -0.08399284 0.20853308 -0.16501498
000260 d6 4d 0a bd 91 b1 08 be f3 c9 c5 bc 1c 83 17 bf
       -0.033765636 -0.13348986 -0.024144148 -0.5918443
000270 47 d4 06 3d 11 b5 7a 3b 4f d7 0a be 9b 6f 21 3e
       0.032917287 0.0038254897 -0.13558696 0.1576523
000280 7a 0f 39 be 88 23 cc 3d e8 db 2f bf 85 49 16 be
       -0.1807231 0.099677145 -0.68694925 -0.14676483
000290 46 66 31 bd 3a 92 4e 3e 20 98 f6 bd 58 f0 b5 be
       -0.043310426 0.20172969 -0.12040734 -0.3553493
0002a0 da e4 70 3e 89 7b 30 3d 16 b9 2b be 8b 1f f6 bd
       0.235248 0.043086562 -0.16769823 -0.12017735
0002b0 af 03 a0 be de 76 1f 3e 74 ca b8 3e 7e 90 5a 3e
       -0.3125281 0.15572688 0.3609196 0.21344182
0002c0 54 84 39 3d 07 19 15 be de f3 a7 be f9 09 43 3d
       0.045292214 -0.14560328 -0.32803243 0.047616933
0002d0 a9 66 42 3e 94 70 9e bb 7e 5e f1 be 9b bf 13 3e
       0.18984474 -0.0048351977 -0.47142404 0.1442856
0002e0 f7 23 39 bf 86 40 33 be 39 26 28 bd 9b 6c a4 3d
       -0.72320503 -0.17505082 -0.041052077 0.08028527
0002f0 69 e9 e2 bd 14 bd b8 3c 82 df 23 3e de 29 d5 bd
       -0.11079676 0.022551097 0.1600323 -0.10408376
000300 5f f8 db bd 9d 6e 86 bb e3 b9 a3 bc 70 97 c2 3d
       -0.107407324 -0.0041025416 -0.019986099 0.09501541
000310 c7 52 75 be bb 9c 80 3d 4c e6 b3 be fc 6c 09 3e
       -0.23957358 0.06279894 -0.3513664 0.1342048
000320 98 18 0c 3d c0 83 ce bd 67 f0 cd 3d 81 31 a1 bc
       0.034203142 -0.10083723 0.10055619 -0.019676926
000330 f3 d0 8c 3d 7a 40 14 3e 21 f9 73 bd 2e 0f b9 3d
       0.068757914 0.14477721 -0.05956376 0.090360984
000340 60 52 c9 bd c9 9c b6 bd d8 ba 8f be d8 bc 22 be
       -0.09830165 -0.08916623 -0.28072238 -0.1589235
000350 ae c7 38 3e b0 28 09 be e9 c6 91 bd 4f c2 70 3d
       0.18044922 -0.13394427 -0.07118017 0.058779057
000360 d3 c8 ac bd d1 44 1b 3e d4 31 91 bd 02 7d ac 3e
       -0.08436742 0.1516297 -0.07089582 0.33689123
000370 30 ad 87 be 1b 75 e0 3d d5 dd cb bd 19 a8 ca 3c
       -0.2649932 0.10959836 -0.099544205 0.024738358
000380 e1 fc 36 be 7c b7 63 bd cb f5 67 bd cb a6 38 be
       -0.17869903 -0.055594906 -0.05663089 -0.18032376
000390 88 28 39 3d c5 76 75 3e 58 2b 0b bc c1 3d be 3e
       0.04520467 0.23971088 -0.008494221 0.3715649
0003a0 79 91 50 3e 33 b2 20 bd 73 f9 de 3d 82 57 b1 bd
       0.20367993 -0.039232444 0.108874224 -0.08659269
0003b0 b6 2b 0c be ff b6 15 3d e6 e3 f8 bd 9f 24 ea bd
       -0.1368855 0.03655147 -0.12152843 -0.11432766
0003c0 7f f9 aa 3e 54 21 6b 3d 9b da ce be fa 5b d2 bd
       0.33393475 0.05740483 -0.40401158 -0.102714494
0003d0 de d4 e1 bd ae 83 bb 3b 29 42 9b 3d 4a 44 bf be
       -0.11026929 0.0057224846 0.075809784 -0.37356788
0003e0 5f 73 b4 3c 75 f9 38 3e 4b 97 84 3e 8f 50 1d 3d
       0.02202767 0.1806391 0.25896677 0.038406905
0003f0 c1 6d 23 be b5 59 0b bf 04 6b b6 be 2e 36 d5 bd
       -0.15959837 -0.5443376 -0.3562852 -0.104107246

fc2.bias f4 [64]
000000 e7 d2 15 be 8c de 81 3d 96 59 14 3e 26 6c e3 bd
       -0.14631234 0.063412756 0.144873 -0.11104612
000010 34 16 2b 3e 19 54 ae bd b2 2f 1e 3d 71 e7 31 3e
       0.16707689 -0.08512134 0.038619705 0.17373444
000020 41 45 ca bd 34 bb da bc 44 65 a7 3d 3b c5 64 bd
       -0.098764904 -0.026700594 0.08173612 -0.055852156
000030 86 a4 b7 bb 02 8e ef bb f1 40 ee 3d fa 1f f0 bd
       -0.0056043295 -0.00731063 0.1163348 -0.11724849
000040 bf 49 0f 3e 8c c7 d5 3c 0e 5d d5 3d 26 a6 62 3d
       0.13992976 0.026096128 0.104181394 0.055334233
000050 cd 07 56 3d d2 98 9e 3d bf d3 f7 3d cb d4 10 ba
       0.052253533 0.07743992 0.12100934 -0.00055248727
000060 55 b6 62 3c 2a fe a8 3c 64 d3 c9 bd 92 5f 47 be
       0.013837417 0.020629007 -0.09854773 -0.19470051
000070 9b d4 f5 bd 7e 24 9d bd 95 33 d7 bc 7f 78 25 bd
       -0.12003442 -0.07672976 -0.026269713 -0.040398117
000080 1a 7e 6a 3e 0c 32 8a 3d cc 82 03 3e 1d eb ae 3c
       0.22899666 0.06747827 0.12842864 0.021352345
000090 51 76 c8 3d d2 b7 e3 3c 18 ed db 3d 7d 46 22 be
       0.09788192 0.027797613 0.107385814 -0.15847202
0000a0 4e 53 b1 3c ba b5 66 bd 0d c6 da bd 15 09 bd bc
       0.021646168 -0.05632565 -0.106823064 -0.02307562
0000b0 66 48 28 3e 4f 95 cc 3d d4 8b c1 3d 1e 7b 34 3d
       0.16433868 0.09989416 0.09450498 0.044062726
0000c0 8b 9f 36 bd b0 5f cb bc a1 16 00 3d 7f e9 33 3c
       -0.044585746 -0.0248259 0.03127158 0.010980963
0000d0 3c 34 e9 3d d9 93 04 3e f2 25 9e 3d 2e 17 20 3d
       0.11386916 0.12947024 0.07722081 0.039084606
0000e0 0b 2b b0 3d 59 01 e1 bd 7b 99 55 3d 6f 86 a0 3c
       0.0860196 -0.10986585 0.052148324 0.019595353
0000f0 db 01 38 3c 44 f4 9d 3c 4b fa af 3d ca a6 06 3e
       0.011230911 0.019281514 0.085926615 0.13149562

fc3.weight f4 [64, 64]
000000 8a c9 4a bd 53 1d 6f 3c 08 d7 98 bd 7c 43 51 3e
       -0.04950861 0.014594394 -0.07462889 0.204359
000010 0f 9a 1e 3e 41 27 65 be 45 8b 17 be 97 40 5f 3e
       0.15488456 -0.22378255 -0.14799221 0.21801983
000020 42 97 ec be a4 c9 ca 3d 23 95 5e 3e 5c e0 81 be
       -0.4620915 0.09901741 0.21736579 -0.25366485
000030 ad 9f 7f 3e 9f 89 a3 bc fa 8c 83 be 32 c8 a8 3c
       0.24963255 -0.019963084 -0.25693494 0.020603273
000040 22 27 01 3e 48 16 90 be c5 8c e3 3d 39 1b 91 3e
       0.12612584 -0.28142 0.11110834 0.28341082
000050 5c 73 c5 bb 5a e5 1d 3e 82 e9 81 bb 5a 2c be 3d
       -0.006025715 0.15419522 -0.003964604 0.09285803
000060 34 e6 b7 be 96 9c 13 3e 4c b2 6c be b7 21 98 3e
       -0.3591782 0.14415202 -0.2311489 0.29713222
000070 9e a2 c4 3d b3 91 9e be f2 c0 0d be 5c e7 c1 bd
       0.09601329 -0.30970535 -0.13843134 -0.094679564
000080 91 c0 a9 3e 64 45 67 bb 65 c0 b4 3e 1f 59 38 3e
       0.3315473 -0.0035289163 0.35303035 0.18002747
000090 69 25 78 3e 15 d9 bf 3d 04 3f 5c 3c 4b 15 cf 3c
       0.24233021 0.09367577 0.0134427585 0.025278708
0000a0 1e 44 54 be 32 77 54 be 09 59 57 3d 8e 9e 26 3d
       -0.2072911 -0.20748594 0.052575145 0.040678553
0000b0 4e 48 8a 3d 43 88 bb 3d 97 6a ad be 2d d8 a3 3d
       0.06752072 0.09156849 -0.33870384 0.08000217
0000c0 7b b0 0d be 29 94 f2 3d a7 39 5b 3e 30 dc 2d 3e
       -0.13836853 0.118446656 0.21408711 0.16978526
0000d0 dd 3d 0e 3f 79 9f 2a bd 5a fd 9c bd ce 38 ad 3e
       0.55563146 -0.04165599 -0.076655105 0.338324
0000e0 4f 52 c3 3e f7 b3 79 3e 78 7d 97 3e 3b e3 88 bd
       0.38148734 0.24385057 0.29587913 -0.06683966
0000f0 44 e3 86 3e 7b a1 a0 3e 38 56 00 be 47 cf 95 3e
       0.26345265 0.313732 -0.1253289 0.29259703
000100 a8 2a de bd 8b bc 92 bd 3f 49 0b 3f c8 f8 15 3f
       -0.1084798 -0.07164868 0.5440864 0.58582735
000110 5a c3 ef 3d dc 6d db bc 95 49 8b bd e0 a4 22 bd
       0.11707182 -0.026785783 -0.06801144 -0.03970802
000120 ef fa d8 3d be 2c c3 3e 29 4d 81 bd 6b de 66 3b
       0.10594737 0.38120073 -0.06313545 0.0035227786
000130 9a dc 21 3d a5 94 30 3e 87 26 86 bc 9e e9 54 3b
       0.039517023 0.17244203 -0.016375793 0.003248788
000140 94 03 ec 3c ba 79 8b bd f2 47 2b 3c fa 70 37 3e
       0.0288103 -0.06810327 0.010454165 0.17914191
000150 4f dd 80 3e a6 e5 6b bd 46 af b1 be 85 a5 5f bc
       0.25168845 -0.057592057 -0.34704036 -0.013650303
000160 3a b0 41 3e fc 65 78 bd 12 0c 21 be 69 83 b6 3e
       0.18914881 -0.060644135 -0.1572726 0.35647133
000170 6f 2c bf 3e 0e 23 c4 be 42 b8 ae be 50 a2 ad bc
       0.37338588 -0.38307995 -0.34124953 -0.02119556
000180 a5 fb bb 3e 88 ca aa 3d d5 e4 9c 3e 10 59 b1 3c
       0.36715427 0.08339411 0.30643335 0.021648914
000190 98 97 04 be 5d 26 c6 bd 21 88 a7 be d6 2c 31 bd
       -0.12948453 -0.09675286 -0.32721046 -0.04325565
0001a0 43 6a ce be 97 a8 a3 be 0b e3 18 bd aa 65 83 3e
       -0.40315446 -0.3196456 -0.0373259 0.256635
0001b0 3b 9c 77 be bd 98 cf 3d d2 bc 93 bc 7d 02 dc bd
       -0.24180691 0.101365544 -0.018034372 -0.10742662
0001c0 49 61 b7 bd ed ea 24 3d d5 19 9b 3d 57 be b5 3c
       -0.089541025 0.040263105 0.075732864 0.022185488
0001d0 3f 9b 2e 3d af c1 91 bc 66 14 9c bc eb 70 af 3d
       0.042628523 -0.01779255 -0.019052695 0.08566459
0001e0 d1 83 8a 3e a0 dc e3 3e 5c be 08 3e 28 ef a3 3d
       0.27053693 0.4450426 0.13353866 0.080046
0001f0 99 10 84 3d c1 b3 bc 3e e0 f9 c1 bc ae 4e 88 3e
       0.06448478 0.3685589 -0.02367872 0.26622528
000200 e4 25 a7 3d 61 49 1f 3e 48 c2 5b be 7d bc df be
       0.08161524 0.15555336 -0.21460831 -0.43698493
000210 fa bd 16 3c 27 cd a1 3e 5e cb 78 3e 10 b4 aa bd
       0.009200567 0.3160183 0.24296328 -0.083351254
000220 df 89 99 3e c2 eb 4a be 26 40 f1 3d e3 24 02 3e
       0.29988 -0.19816497 0.117798135 0.12709384
000230 70 7d e3 be c8 46 06 be c9 2d 25 3e e0 09 81 3c
       -0.4443164 -0.13112938 0.16130747 0.01575178
000240 6b 22 af 3d 98 f8 94 bd 95 5c fd 3d 9d d1 be 3d
       0.085514866 -0.07273978 0.12371174 0.09317324
000250 ee ad b1 be 7d 36 ac 3c 50 cf 74 3e 9b fc 6d 3e
       -0.3470301 0.021022076 0.23907208 0.23240893
000260 29 46 86 3e 6f 95 b5 3c c2 12 ac 3d 1a 98 18 bd
       0.26225403 0.022165982 0.08402015 -0.03725443
000270 1a d1 a1 be fd a8 30 3e b2 f1 4b 3e 90 97 80 3e
       -0.31604844 0.17251964 0.19916418 0.25115633
000280 9a 18 3d be ba cd c2 3c 17 20 96 be b5 31 c5 3d
       -0.18466416 0.023779739 -0.29321358 0.096286215
000290 81 23 03 bf 6c d8 e2 3c 3e 6b bb 3e df 26 b8 3d
       -0.5122605 0.027691089 0.36605257 0.08991789
0002a0 3a 01 15 3f 70 aa 89 3e 4e 45 bc bd e6 3c b3 bc
       0.58204997 0.26887846 -0.09192906 -0.021879625
0002b0 3e 43 3e 3e 40 d5 42 be ca 04 68 3e e4 1a 61 3d
       0.18580338 -0.19026661 0.22658077 0.054957286
0002c0 5c 4a bc 3d 8b fc 32 3e 8e fb e5 3b 69 43 42 be
       0.091938704 0.1747915 0.007018513 -0.18971027
0002d0 94 66 84 be 29 ac 6c bd 6f 24 d5 be 61 70 52 be
       -0.2585951 -0.057781372 -0.4162936 -0.20550682
0002e0 66 d5 8e be 22 52 0d be 63 ca 95 be 79 c6 5c 3b
       -0.27897185 -0.13800862 -0.2925597 0.0033687635
0002f0 ab ee a5 bd 6f 94 af be 7a ed a2 3d a1 65 dc bd
       -0.08102163 -0.34292933 0.07955451 -0.10761572
000300 4c b3 0c 3e 0f ef 94 3e c1 35 65 bf 9e b9 96 bd
       0.13740271 0.29088637 -0.89535147 -0.073596224
000310 83 fc 5a bc fa 86 c5 bd 32 83 d5 3d 40 7c 37 3e
       -0.013365868 -0.09644885 0.10425414 0.17918491
000320 18 ec 02 3e 27 d0 b8 be 4b e0 e0 3c 03 b4 21 3d
       0.12785375 -0.36096308 0.027450701 0.039478313
000330 5e f3 8d 3e ee 62 57 bd 2c 34 2c 3e ec be ce bd
       0.27724737 -0.05258458 0.16816777 -0.10095009
000340 d1 60 80 3d bc 08 5e 3d df 21 ba 3d db 11 df be
       0.06268466 0.05420755 0.09088492 -0.4356831
000350 5a 4a 8e 3d 69 d1 44 3b 95 cd f9 3e bb de 03 bd
       0.06947775 0.0030032045 0.4878966 -0.032194834
000360 18 76 66 be 79 ac 01 3e 35 5b 5e 3e 70 90 3c be
       -0.22505987 0.1266345 0.2171448 -0.18414474
000370 9c ce 2b 3e d0 55 85 be 8d 25 ac 3d 08 e5 cd 3d
       0.16778034 -0.26042032 0.084056 0.1005345
000380 bc 51 82 be 9e 05 83 bc 43 13 5d be a8 5c 96 3b
       -0.25452983 -0.01599389 -0.21589379 0.004588682
000390 f5 52 bc 3e 85 83 9a 3d 0d 8f 4d 3e d5 67 17 3c
       0.3678204 0.075446166 0.20074101 0.009241064
0003a0 30 92 18 bd a6 b0 4f be b0 80 89 3e a1 c2 ac bd
       -0.03724879 -0.2028223 0.26855993 -0.0843556
0003b0 28 79 5f 3e e2 0a d0 3d c4 56 e2 3d 48 fe b4 bc
       0.21823561 0.10158326 0.110517055 -0.022093907
0003c0 b5 ad 81 3d ce be 60 be 34 86 f9 bb 47 46 01 3e
       0.0633196 -0.21947786 -0.007614875 0.12624465
0003d0 e6 af fa bc ca 3f 4a be bb 57 88 3e c2 4c e2 3d
       -0.030601453 -0.19750896 0.26629433 0.11049797
0003e0 f3 ef 0f bd f2 aa a3 be 09 cd 87 bd cc 21 1b be
       -0.035140943 -0.31966358 -0.06630904 -0.15149611
0003f0 ff dd 93 3e bd 50 80 3d e1 8a 98 3e a4 a4 04 be
       0.28880307 0.062653996 0.29793456 -0.1295343

fc3.bias f4 [64]
000000 35 3c 2a 3d 40 02 b5 3d 1e 4c fa bc e3 a5 0f 3e
       0.041561324 0.0883832 -0.030553874 0.14028125
000010 13 51 13 3e 7a 63 4d 3e d0 4f 9a 3d 2a 4f 50 3d
       0.14386396 0.20057479 0.07534754 0.050856747
000020 09 d1 63 3c 11 c1 52 bd a3 bf 2b bd d1 19 b3 3d
       0.013904818 -0.051453654 -0.041930806 0.087451585
000030 41 6f d5 bd 8a f6 0f 3d 52 0c 40 bd c6 18 ce bc
       -0.104216106 0.035147227 -0.04688675 -0.025158297
000040 a8 81 52 3d 8c c6 f7 bc 73 9a 6f 3d 88 7e f3 bc
       0.05139318 -0.030246042 0.058496904 -0.02972342
000050 b2 38 be bd d1 24 17 be e5 ba e1 3d e5 fb 3d 3d
       -0.092881575 -0.14760138 0.110219754 0.046382803
000060 76 c3 83 3d c8 f7 d4 3c cb d0 d0 3d b5 b8 e8 3d
       0.064337656 0.025997058 0.10196074 0.11363355
000070 e2 40 bf ba 14 71 6f bd 5c 0d f9 3d d9 90 14 3e
       -0.001459148 -0.05845745 0.12160751 0.1450838
000080 23 f8 d3 bd cc 4d f5 3d 1f 3a eb bd 30 7c 39 3c
       -0.10350063 0.11977729 -0.11485695 0.0113211125
000090 f2 d2 22 bd a2 9a 9c 3d 0b 97 51 3d f2 4b cf bb
       -0.039751954 0.07646681 0.051169436 -0.006326192
0000a0 12 d4 95 3d 5f ac 45 bd 2a 81 b6 bd 98 ce b9 3c
       0.0731584 -0.04826009 -0.08911355 0.02268152
0000b0 eb 72 f6 3c f5 3e 4f bd 2d af 27 3e a9 83 9a 3d
       0.030084094 -0.05059715 0.16375418 0.075446434
0000c0 30 11 89 3d 81 94 26 3e 54 e1 4c 3e f8 1f 2d 3e
       0.066927314 0.16267587 0.20007831 0.16906726
0000d0 25 aa 9c 3d 79 68 30 3e 8b 8d dd bd 01 d8 21 3d
       0.0764964 0.17227353 -0.10818013 0.039512638
0000e0 22 c7 4c bd d0 cf fe 3d dd c7 14 3b 85 c1 81 3d
       -0.049994595 0.12441981 0.0022702136 0.06335739
0000f0 f7 77 97 3d 3c 1b af bd d4 29 5f 3d c4 ab 9d 3d
       0.07395928 -0.085501164 0.05448325 0.07698777

action_out.weight f4 [3, 64]
000000 4c 57 67 3e 18 ca 2c bd 66 e9 e9 3d ae 56 3b be
       0.22591895 -0.04218492 0.1142147 -0.18294784
000010 b1 a1 77 be 3c 22 f5 be 33 ba 46 3d ac 12 46 3e
       -0.24182774 -0.4787768 0.048517417 0.1934306
000020 0e 6b 88 be 26 42 0b bf fb ee f5 3e 85 93 fc 3a
       -0.26644176 -0.5439781 0.4803389 0.0019270038
000030 b9 b5 68 be d3 68 be 3d b6 e3 20 3b 82 dc 3f 3e
       -0.22725572 0.092973374 0.0024549789 0.18736461
000040 e4 8c 39 3e 11 12 3c 3f 14 e7 5d 3f 18 92 bf 3e
       0.18120152 0.7346507 0.8668072 0.37416148
000050 57 67 0c 3f d9 8e 99 bf e5 ba ba 3e 58 41 72 3f
       0.54845184 -1.1996719 0.36470714 0.94630957
000060 bb 40 f1 3e cc d1 2f bf a1 45 aa bd 7c 36 08 bf
       0.47119698 -0.686795 -0.08314062 -0.53208137
000070 99 6d b8 3e e3 9e 41 be 85 48 a8 be 7f 19 15 be
       0.36021116 -0.18908267 -0.32867828 -0.14560507
000080 a4 2d 34 3e 88 ee 6f bd 8f db 58 bf 7a 5f 00 bf
       0.17595536 -0.05857709 -0.8471002 -0.50145686
000090 03 f7 56 bf 76 e3 e1 bc fa a9 18 bf 32 c6 03 bf
       -0.8397066 -0.027574282 -0.59634364 -0.514743
0000a0 87 96 8f bd 45 5a 95 bd d4 8d 2c bf d7 2c e6 be
       -0.07011133 -0.07292608 -0.6740391 -0.44956085
0000b0 f3 2e 31 3e 14 b4 26 3e 08 4c c4 be 8c 20 08 bf
       0.17303066 0.16279632 -0.38339257 -0.5317466
0000c0 78 b8 24 3e 8e 4c c6 be 26 ef 98 3e 40 af f0 bc
       0.16085994 -0.38730282 0.29869956 -0.02938044
0000d0 35 a0 eb 3e f4 ce 11 bf 6b d8 db be 7b d2 2e 3f
       0.46020666 -0.5695641 -0.4293855 0.6828992
0000e0 a5 8b 78 3f 31 c7 a9 3e e6 7b e6 be 88 14 92 3e
       0.9708808 0.33159783 -0.45016402 0.2853129
0000f0 fe 95 49 be 04 cc f8 3e 96 f8 b2 3e 69 4c 06 3f
       -0.19686124 0.48593152 0.3495528 0.5246034
000100 21 69 e1 3e 4d 02 a6 3e 36 cc 0f bf de 84 a2 3d
       0.4402552 0.3242363 -0.56170976 0.07935499
000110 84 5d b9 3e 20 63 10 be c9 29 04 3e b0 22 c6 be
       0.3620416 -0.14100313 0.12906565 -0.3869834
000120 5a 74 47 bf 14 51 8b 3e a5 09 11 bf 0c 05 0d bf
       -0.77911913 0.27210295 -0.5665534 -0.55085826
000130 77 c5 38 bf 2c fd 8f bc 26 6a a6 be 6a 5a ad 3e
       -0.7217631 -0.017576776 -0.3250286 0.33858043
000140 cb a6 19 3d 27 70 ae bc ab 5f 8e 3e 73 ba 62 be
       0.03751258 -0.021293713 0.27807364 -0.22141437
000150 08 88 9b bd 5b 46 3e 3f 05 d8 6d 3e 7a 2b 4e be
       -0.07594305 0.74326104 0.23226936 -0.20133772
000160 22 d7 13 be 24 96 e4 be 5b 31 58 bd 46 45 3b bf
       -0.14437535 -0.44645798 -0.052781444 -0.7315258
000170 d3 22 2d 3f 25 72 61 bd b7 93 86 3e 62 80 ae 3e
       0.6763126 -0.055040497 0.26284572 0.34082323
000180 ed e3 2c 3e 9c 0b 3d be 8b 58 d8 3e 87 be 4d 3e
       0.16883822 -0.1846146 0.42255053 0.20092212
000190 40 51 c2 3d 76 4f 74 bd 9f 2e cf 3e 9b ef ee be
       0.094881535 -0.059646092 0.40465257 -0.4666718
0001a0 88 9c ad 3e a9 e1 12 3e ec ec 40 bf 78 b8 31 bf
       0.33908486 0.14343895 -0.75361514 -0.694221
0001b0 e4 9c 14 bf 56 2d b4 3e cc a6 51 3e 51 1c cb 3e
       -0.58051896 0.3519084 0.20473784 0.3967004
0001c0 3b 44 41 be 59 c3 e3 be a4 8f 04 3e 23 63 40 bf
       -0.18873684 -0.44484976 0.1294542 -0.7515127
0001d0 62 11 c4 be ae 8f f1 be c0 8f e3 3e 31 a1 25 3f
       -0.38294512 -0.4717993 0.4444561 0.64699084
0001e0 59 ed 72 3f b8 ad ee be 0b dd cd be 68 cb 51 bf
       0.94893414 -0.46616912 -0.40207705 -0.81951
0001f0 3b e1 08 3f 34 86 8e 3e 92 8b dc 3e e4 b9 bb be
       0.53468674 0.27836764 0.43075234 -0.3666526
000200 eb e5 a5 bc e3 23 d0 be e5 14 2d bd 89 47 16 3f
       -0.020251235 -0.4065238 -0.042256255 0.58702904
000210 96 a9 f6 3d 95 cd 01 3f 5f a3 01 bf f0 35 50 be
       0.12044065 0.5070432 -0.5063991 -0.20333076
000220 d3 cf 4b 3d 39 d3 72 3e 5b 91 75 3f cd 46 01 be
       0.049758743 0.23713388 0.9592492 -0.12624665
000230 a8 20 d3 3e d5 8d 23 3c 0a 09 c6 3e 65 75 ae be
       0.41235852 0.009982546 0.3867877 -0.3407394
000240 b1 29 03 3f 3e 6e 08 bf 84 80 1f bf d5 36 05 3e
       0.5123549 -0.53293216 -0.62305474 0.13009198
000250 64 2c ff 3e 17 8d 31 3f 83 cb 8d 3f 10 93 cd 3e
       0.49838555 0.6935591 1.1077732 0.40151262
000260 1e 07 e9 be c3 c0 5a be ef 29 40 bf 0f 3b ad bd
       -0.45513242 -0.21362595 -0.75063986 -0.0845853
000270 b9 e1 60 be 2b bd e7 3e 80 5a f6 3d 8c 06 4a 3e
       -0.21961106 0.4526151 0.1202898 0.1972906
000280 5e 41 94 3e f9 2c 17 3f fc 5d b2 bd 68 1b 8e be
       0.2895612 0.59053 -0.08709332 -0.27755284
000290 d3 43 fc 3c da 61 2a 3d 8c 52 ae be 26 55 e1 be
       0.03079406 0.041597225 -0.34047353 -0.44010276
0002a0 f8 b2 bd 3d 67 a0 ce 3e 6c 30 c9 be b5 19 1e be
       0.09262651 0.40356752 -0.39294755 -0.15439494
0002b0 07 01 34 bf b1 e1 71 3e 40 ec 8c be 91 a5 95 3d
       -0.7031407 0.2362125 -0.27523994 0.0730697
0002c0 4d 93 21 3f fa 5d 6c bf ea 38 52 be f7 25 57 bf
       0.6311539 -0.92330897 -0.20529523 -0.84042305
0002d0 9f 8b 40 3f f1 0c 39 bf ac ba a4 be d2 3e cc bd
       0.75213045 -0.7228537 -0.3217367 -0.099729195
0002e0 84 36 30 3f d8 73 13 bf 94 62 a6 3e 4d 48 bd 3e
       0.68833184 -0.5759864 0.32497084 0.36969224
0002f0 39 08 29 be 49 da 9f 3e 7d 89 bf 3d 77 e1 1e 3e
       -0.16507043 0.31221226 0.09352396 0.15515696

action_out.bias f4 [3]
000000 fa 04 11 bd 33 e5 1e 3e e7 bb c7 3d
       -0.035405137 0.1551712 0.097526364
