Assets/Python/maddpg/model/simple_twoagent1117/agent_0/actor_params.pkl (torch, 43969 bytes, 8 tensors)

fc1.weight f4 [64, 27]
000000 72 74 62 3e ad 53 28 3e 69 78 44 3e af 1e 5a bd
       0.22114733 0.1643817 0.19186558 -0.05325192
000010 a0 18 2f bc f1 ca a5 be 52 92 4f be f5 51 58 3e
       -0.010687023 -0.32381395 -0.2027066 0.21125014
000020 e4 b5 ef 3c a0 48 2e 3d fb 60 af bc 32 58 e7 bd
       0.029261537 0.04254973 -0.021408549 -0.11296119
000030 ee 72 c8 bd 72 6b 06 be e2 0b 48 3e 14 10 bc 3d
       -0.09787546 -0.13126925 0.19535783 0.09182754
000040 b9 9b 1a bd 01 ff 3d be 2b 3b 1b be 68 ce 88 3d
       -0.037746165 -0.18554308 -0.1515929 0.06679994
000050 c2 e9 2b bd 62 e7 e2 3c 9d c4 3f 3d 76 af f6 3c
       -0.041970976 0.027698223 0.046818364 0.030112963
000060 45 19 81 be 07 fc 31 be 22 94 48 be cd 76 38 3e
       -0.25214592 -0.17381297 -0.19587758 0.18014069
000070 75 93 54 3e dd d3 97 be af 7f 39 be 15 49 80 3d
       0.20759375 -0.29653826 -0.18115114 0.06263939
000080 02 9f 22 3d 66 74 4b 3e 87 af da 3d f1 db b0 3d
       0.039702423 0.19868621 0.106780104 0.086357005
000090 cf 04 19 3d 4e 4e aa be af f1 e1 3d 35 62 2f 3d
       0.0373581 -0.33262867 0.110324256 0.042818267
0000a0 c3 7f 86 be 63 d1 ea 3d 71 ef 52 3e c2 f2 b1 be
       -0.2626935 0.114657186 0.20599152 -0.34755522
0000b0 d1 ef 8b 3e 55 b0 3a 3d 7d 1d 41 be f3 cc d4 3d
       0.27331403 0.04557832 -0.18858905 0.103906535
0000c0 ef 31 1d 3e 32 99 e0 3c df 3d 9a 3e b3 45 33 3e
       0.1535108 0.0274168 0.3012533 0.17507057
0000d0 9f 0a 20 be 5a 6d c1 3e b0 dc e6 be ad 0e 20 3f
       -0.15629052 0.3777874 -0.45090246 0.62522393
0000e0 4d 29 c8 3d 04 a9 2a be af 64 0d be 8e 2e 51 bd
       0.097735025 -0.16666037 -0.13807939 -0.05106979
0000f0 da 45 02 be ce d7 de bc 97 f9 8e be 89 48 15 bc
       -0.12721959 -0.027202513 -0.27924797 -0.009111532
000100 ce 07 8b 3d e9 c7 51 bd e3 f2 22 bd 0e 41 6c 3d
       0.06788598 -0.05121604 -0.039782416 0.05767923
000110 73 9a 5b 3e b9 c7 13 3e cb ab 9c 3d 07 ca 91 bd
       0.21445636 0.14431657 0.076499544 -0.07118612
000120 6c 29 4a bd 0d 1c 94 be 3a 6a 6c 3d 6c 45 60 bd
       -0.04935591 -0.2892765 0.057718493 -0.054753706
000130 db eb 10 bd 85 29 c6 bd 5f c7 84 bd f5 3d 78 3d
       -0.03538118 -0.09675888 -0.064833395 0.06060596
000140 08 67 e8 3d 46 1b e5 be 8b a1 b1 be ca e9 36 be
       0.11347777 -0.4474737 -0.3469356 -0.17862621
000150 eb 1a 53 3e 99 3a 8b 3e d0 18 0c 3d 2e 74 f6 3d
       0.20615737 0.27193144 0.03420335 0.12033878
000160 1b 01 74 be 25 57 65 3e 32 4c 54 be be d1 2e 3e
       -0.23828547 0.22396524 -0.20732191 0.17072198
000170 b1 79 53 3d ac 1c e1 3c dc 0c 92 3d b1 90 e2 3d
       0.051629726 0.027479492 0.07131359 0.11062754
000180 d6 97 5b bd ba 74 e6 3c 85 03 86 3d 43 93 82 be
       -0.0536116 0.028131831 0.0654364 -0.25502977
000190 cf 65 a1 bc 95 17 92 3d aa 40 ab bd dd b0 21 3d
       -0.019701866 0.07133404 -0.08361943 0.03947531
0001a0 7d 14 8b 3b 9b 64 e2 bd 29 18 cd 3b 2c f0 39 3e
       0.0042443858 -0.11054345 0.0062589836 0.18158025
0001b0 6f 1f 03 3f f4 8b 8e be ce 00 9e ba 95 24 0b be
       0.5121984 -0.2784115 -0.0012054683 -0.13588174
0001c0 d2 22 22 be 35 f3 a1 bd b2 7c 92 3d 9e b2 f6 bc
       -0.15833595 -0.07907716 0.0715269 -0.030114468
0001d0 77 61 9a 3c 2b aa 37 be 7a e1 37 3d 72 0d e3 3c
       0.018845303 -0.17936008 0.044892766 0.027716372
0001e0 10 75 79 3e 3a 64 00 be 6d cd a7 3d 57 94 3e bd
       0.24361062 -0.12538233 0.08193479 -0.046528187
0001f0 06 c4 1e 3c d8 0e 27 be 68 01 b1 3c a3 64 67 3c
       0.00969029 -0.16314256 0.021607116 0.014123115
000200 7a b4 cf bd 35 69 a5 3d d0 36 5c 3e 68 74 c1 3d
       -0.10141845 0.08076707 0.21505284 0.09446031
000210 d7 ab ec 3d 64 bf 7d 3e 3c 39 e7 3b 32 77 68 3e
       0.11556213 0.24780041 0.0070563834 0.2270172
000220 54 1a 96 3e 92 5c 67 bd 45 f8 34 be a8 63 44 be
       0.29316962 -0.056484766 -0.17672832 -0.19178641
000230 f1 cb dd bb 1c da 5c 3e 4d e4 24 be 43 71 81 bd
       -0.0067686965 0.21567577 -0.16102715 -0.06320431
000240 7f b6 33 3e eb 21 be 3d cd e0 14 bc 22 e4 9b 3d
       0.17550085 0.09283813 -0.0090868 0.07611872
000250 58 a4 87 3e 01 f8 06 3e fd a2 0f 3e ad 78 3e 3d
       0.26492572 0.13180543 0.14027019 0.046501804
000260 03 6e 31 be 6c a4 8e 3e e8 70 53 be 8c 30 d4 bc
       -0.17327122 0.2785982 -0.20648539 -0.025902055
000270 35 e2 79 3d 34 0b 6a 3d ec 63 84 be 18 12 27 3e
       0.061006743 0.05713959 -0.25857484 0.16315496
000280 f9 15 d4 bd e8 55 3e be 14 f4 89 be ec 60 a3 3e
       -0.103557535 -0.18587458 -0.2694403 0.31909883
000290 25 78 b8 be 42 66 c0 3d ff 73 06 bd 86 c2 2d 3e
       -0.36029163 0.09394504 -0.032825466 0.16968736
0002a0 63 b1 2b bd 15 1d 95 3e 1b 2a 28 be 48 69 45 3e
       -0.041917216 0.2912375 -0.16422312 0.19278443
0002b0 5c 06 64 be ad 71 c4 bd 5e 1d 66 3d d7 63 3f 3d
       -0.22268051 -0.095919944 0.05618035 0.046726074
0002c0 3b ef ff bd e3 41 a1 3e 05 a2 c5 3d 25 43 06 3e
       -0.124968015 0.3149558 0.096500434 0.13111551
0002d0 f8 ca 04 be ce 70 1f be 52 46 48 bd 2d e5 77 3e
       -0.12968051 -0.15570375 -0.048895188 0.24208517
0002e0 2d d0 22 3e e0 71 06 bd d8 86 86 be bf 6b 53 be
       0.15899725 -0.032823443 -0.26274753 -0.2064657
0002f0 da 10 6c bc 4c f7 a5 be 5a a4 ca 3e ab eb ac be
       -0.014408315 -0.32415235 0.39578515 -0.3377355
000300 2a 90 b7 3e 72 98 f8 bd 10 6e 0b 3d 39 78 e4 3d
       0.35852176 -0.12138452 0.03404051 0.11155743
000310 06 ef 9d 3e 1b bc 04 be 7d e2 98 3c e4 99 09 3e
       0.30846423 -0.12962382 0.018662686 0.13437611
000320 2f b5 f8 3d 05 e5 1e 3e 2b 5c 36 3e 68 de 69 3e
       0.12143933 0.15517052 0.17808597 0.22838748
000330 27 90 89 3d 94 3b 81 3e f1 33 72 bd 09 75 48 bd
       0.06716948 0.25240767 -0.059131566 -0.04893974
000340 aa 5b c9 3c 21 41 22 3e 1c 02 67 3c 4c 30 70 3e
       0.024579842 0.15845157 0.014099624 0.23455924
000350 09 0a 49 be 75 4e 2b be 3e a8 ef bd 29 e5 af 3b
       -0.19632734 -0.16729148 -0.117020115 0.005367894
000360 86 76 ae 3e 44 72 1d bf cf 2e 27 be cc ed 0c 3e
       0.340748 -0.6150248 -0.1632645 0.13762587
000370 fa d9 39 be 1a 73 a3 3d e6 cf f0 bd ca 40 47 be
       -0.18149558 0.07980938 -0.117584035 -0.19458309
000380 5c 04 85 bc 0e ce c4 3c 95 e8 bc bc 1e ea bd 3d
       -0.01623743 0.024024036 -0.023060123 0.0927317
000390 dd ca 6d 3e 5b 22 00 be a6 9a e6 3d ae fb 0f 3e
       0.23221917 -0.12513106 0.112599656 0.14060852
0003a0 c8 e4 34 3e a8 b0 8b bd ee 83 c0 bb bd 93 b8 3d
       0.17665398 -0.06820804 -0.0058751022 0.09012554
0003b0 9a 56 88 3e 2a 15 c6 bc 93 91 0a 3d 26 fd e9 bd
       0.26628572 -0.024180014 0.033830237 -0.11425237
0003c0 05 ce 88 be bf 40 4f bb ab a5 5d 3e 6b 12 80 be
       -0.2671968 -0.0031624285 0.21645229 -0.25014052
0003d0 89 b7 f4 be ed 45 56 be ef 07 22 bd 4e 48 2e be
       -0.47796276 -0.20925112 -0.039558347 -0.1701977
0003e0 70 45 d0 bd 60 da bd 3d 96 f1 32 3d 75 93 5b be
       -0.10169494 0.09270167 0.043687426 -0.21442969
0003f0 b1 9e 4f 3e 87 a0 ea 3d 0e 99 64 3e 47 2e 0d 3c
       0.2027538 0.114563994 0.2232401 0.00861699

fc1.bias f4 [64]
000000 b8 a8 72 3e 63 51 ed bc 55 be 85 ba 9e 83 36 3e
       0.23697174 -0.028969472 -0.0010203818 0.17823645
000010 4b 73 aa 3e 5e a9 b4 3d dd 6b f1 3d 66 53 ba 3d
       0.33291087 0.08821367 0.117881514 0.09097938
000020 26 64 e5 3d 33 55 61 3e cc 3c ae bd aa 01 e3 3d
       0.112007424 0.22005157 -0.0850769 0.11084302
000030 6a 62 27 3e 5a 5a 84 3d b6 4c 5b 3e 11 f9 4e 3e
       0.16346136 0.06462546 0.21415982 0.20212199
000040 52 3b b2 bd 32 a4 2f be 09 f9 cd 3c 8d 3f 52 bc
       -0.08702721 -0.1715248 0.025143163 -0.0128325345
000050 12 8f dd bd 6b 8d 71 3e 55 12 1e 3e fc c6 85 3c
       -0.10818304 0.23589103 0.1543668 0.016330235
000060 8d 25 bc 3d 7d 1d 43 3e 5c d0 8a 3d 0d 91 2f 3e
       0.0918685 0.19054218 0.06778023 0.17145176
000070 19 a3 25 be cb 9f 9e 3d d4 16 7f 3e 46 75 94 3d
       -0.16175498 0.07745322 0.24911052 0.07248931
000080 31 6d a9 bd ea 02 0b be d3 07 77 3e 29 0a 2f 3e
       -0.0827278 -0.1357533 0.24124078 0.1709372
000090 84 35 28 3e 0c 69 35 3e 26 76 21 3e 0b ac 1d 3e
       0.16426665 0.17715853 0.15767726 0.1539766
0000a0 3a 9e 1e 3e c6 73 b7 3d 1d 97 5b 3e 67 19 35 3e
       0.15490046 0.08957629 0.21444364 0.17685471
0000b0 1d b8 cf 3d 00 6c c3 3d a4 7b e8 3d 2b 1d 35 3e
       0.10142539 0.09542084 0.113517076 0.17686908
0000c0 e3 9b 17 3e 71 7f ea 3d 6b 94 ae 3d 45 f6 0e 3e
       0.1480556 0.11450089 0.08524402 0.13961132
0000d0 a9 3f 67 3e 29 83 04 3e fe 49 07 3e 88 9f e1 3c
       0.22582878 0.12940659 0.1321182 0.02754189
0000e0 d7 9a 24 3d ad 92 86 3e 52 ae c4 bd 32 2d 81 3e
       0.04018673 0.2628378 -0.096035615 0.25229794
0000f0 6e d1 5d 3e 35 cb c2 bc fb 5c ca 3c 36 01 97 3e
       0.21661922 -0.023778537 0.02470254 0.2949311

fc2.weight f4 [64, 64]
000000 43 49 ad 3d 05 65 81 bd 72 ad fa 3c ff 13 b0 3c
       0.08461239 -0.06318096 0.030600283 0.02149391
000010 3f 73 76 be be cf 36 be f9 f8 ab 3c d5 ef 1b 3e
       -0.240674 -0.17852685 0.020992743 0.15228207
000020 e8 ee d4 bd 16 2a 27 3d 16 cc 5a bd 7c d9 a1 be
       -0.1039713 0.04081162 -0.053417288 -0.3161124
000030 89 2e 6a 3c f7 e6 02 3e 91 e9 78 bd c7 ef 15 3e
       0.014293321 0.12783419 -0.06076962 0.14642249
000040 8c 1c f6 bd f6 c9 a8 bd 64 41 c3 bd e4 20 c7 3d
       -0.12017164 -0.08241646 -0.09533957 0.0972307
000050 39 ba 80 bd 45 f0 43 bc 0e be 09 3e 9b a7 ac 3d
       -0.06285519 -0.01195914 0.13451406 0.08430406
000060 a2 cb 44 bc 44 f6 f1 3d c0 ec c1 bd 6b e0 18 be
       -0.0120114405 0.118145496 -0.094689846 -0.14929359
000070 6e 9a 2f 3e 66 39 72 be ec 92 6e bd 24 b9 92 bd
       0.17148754 -0.23654708 -0.058245584 -0.07164219
000080 f6 b9 a7 bc 47 ad dc bd 44 c3 2c be 2e 31 85 be
       -0.020474415 -0.107752375 -0.16871363 -0.26014084
000090 99 78 4e 3e 1e 41 a7 bd 7c ac b6 bc 72 ae ab be
       0.20163192 -0.08166717 -0.022299044 -0.3353153
0000a0 9d 53 41 be c1 3d 2b 3d 4c 66 f6 bd ef 7c 23 3e
       -0.18879552 0.04180694 -0.1203123 0.15965627
0000b0 60 c4 f3 bc 20 45 fe ba 91 11 01 be 8e 98 9e 3c
       -0.029756725 -0.0019399263 -0.12604357 0.019359853
0000c0 6e fc f2 3b 3c f4 c4 3d d4 1b 21 be 5d 9a 69 3b
       0.007415346 0.096168965 -0.15733272 0.0035644986
0000d0 2d 5e 61 bc 1d 2f ab 3d e3 8f 69 be 91 fb a7 3d
       -0.013755363 0.083585955 -0.22808795 0.08202279
0000e0 82 07 e7 3c d5 f2 96 bd 3f fb e7 bd 8b 1b 2a 3e
       0.028201822 -0.07370535 -0.11327218 0.1661207
0000f0 ae 86 79 3d 33 ef bc bd 0b 1e a3 bc 47 54 bd bd
       0.060919456 -0.09225311 -0.019911787 -0.0924459
000100 a5 7a 92 bd 75 be 15 3e 2d ef 36 bd e6 e8 07 bd
       -0.07152299 0.14623435 -0.04466169 -0.033181094
000110 a9 3a 18 be ba e1 0c 3c 3d 2d 1d bd 3a 6b 6a 3e
       -0.14866127 0.008598739 -0.03837322 0.22892466
000120 18 5a 70 3e 30 b1 10 3e 90 8b 46 be 10 8d 57 bd
       0.23471868 0.14130092 -0.19389176 -0.052624762
000130 3e dd be 3c 13 75 d2 bd d6 08 32 bd ef a9 34 be
       0.023298856 -0.102762364 -0.043465458 -0.1764295
000140 e3 c3 a2 3d a7 0c 56 be fe 08 8f be 5c 42 b4 3e
       0.07947519 -0.20903264 -0.27936548 0.35206878
000150 7a 11 87 3e 8e 18 70 3e c5 e4 51 3e 1d fb 52 be
       0.2638052 0.23446867 0.20497425 -0.20603605
000160 36 08 5b bd ba ca 41 3e 54 67 46 b9 55 6a 76 bc
       -0.053474627 0.1892499 -0.00018921244 -0.01504
000170 62 a9 b5 3e a2 a8 ec bd 25 68 76 3e 12 fa 9a 3d
       0.3548079 -0.11555602 0.24063165 0.075672284
000180 f6 04 51 3e 51 98 d2 3d 80 a2 b9 3d 7a c6 16 be
       0.20412049 0.10282958 0.090641975 -0.1472415
000190 be 24 8a bd d4 26 bc 3d db 4c 67 3e 31 0d 07 3e
       -0.06745289 0.091870934 0.22587912 0.13188626
0001a0 ed 9a c8 bd e5 0f 7a 3d 91 66 4f 3e e8 8d d3 bb
       -0.09795175 0.061050314 0.2025397 -0.0064561255
0001b0 b6 9e 8f bd 5f 1d de 3c ea 34 f0 3d a9 97 08 3e
       -0.070126936 0.027113615 0.117288426 0.13339104
0001c0 8f ad 55 3e af 4b 86 3c 68 89 7c bc 3d 39 f7 bd
       0.20866989 0.01639351 -0.01541362 -0.12071464
0001d0 9d c2 b1 3d 6b 42 41 bd 01 66 b2 bd 1b 3d 44 3d
       0.08679698 -0.04718248 -0.08710862 0.047909837
0001e0 b4 f4 19 3e d8 32 93 be 2b 69 de bd e0 f9 0d 3e
       0.15034753 -0.28749728 -0.10859903 0.13864851
0001f0 f5 6d 09 3c c4 fe 30 3d fd 3d e5 3c 18 f5 a6 3b
       0.008388032 0.043211713 0.02798366 0.0050951354
000200 01 36 20 3e 02 33 d5 3d d2 0d ad 3b 55 cb 9e be
       0.15645601 0.104101196 0.0052811885 -0.31014505
000210 32 93 4f 3e 5a da 1a 3e 9f 82 17 be f9 d2 5e be
       0.20270994 0.15122357 -0.14795922 -0.21760167
000220 3c 8a 03 3e 36 86 3b bd 4a 8e 5d be 83 ce 87 3e
       0.12845701 -0.04578229 -0.2163631 0.26524743
000230 dd 93 05 3e c9 6f bb 3d 0c 48 07 be b9 d8 90 bd
       0.13044687 0.09152181 -0.13211077 -0.070725866
000240 13 eb bc 3c ee 69 8a 3e 8a b3 c9 3d 86 3e 7d 3d
       0.02306131 0.27033943 0.098486975 0.061827205
000250 dd 52 04 bd be c7 7c 3d 84 5b c1 3d 98 ce 12 3e
       -0.032305587 0.061713926 0.09441283 0.14336622
000260 18 f2 ff 3d 8f 0e 83 3d d6 18 db bd 8d 94 d4 3d
       0.124973476 0.06399261 -0.106980965 0.10379896
000270 23 0c ef 3d ec 38 73 3c 21 9e 2b be 8f ee 4b 3e
       0.11672237 0.014845114 -0.1675954 0.19915222
000280 de 5f 2f 3d 18 b4 bb bd 43 2f 1e bd a6 47 b6 3d
       0.042816035 -0.091652095 -0.03861929 0.089003846
000290 49 83 84 3e 46 98 83 bd f4 89 ac 3d 7e 8e aa 3d
       0.25881413 -0.06425528 0.0842475 0.083279595
0002a0 bb 00 77 bb a9 7d 13 be 98 83 cd 3d c7 63 8d 3c
       -0.0037689644 -0.14403404 0.10034865 0.017259492
0002b0 78 77 50 3e be bf fe 3d 15 6a 55 3e 18 3b c5 3c
       0.20358074 0.12438916 0.20841248 0.02407603
0002c0 c7 fe a6 bb 0d bb 34 3d 79 96 52 3e 5a ba 9e bd
       -0.00509629 0.044123698 0.20565213 -0.077503875
0002d0 1a b7 ac 3d 40 28 63 3e 46 e5 59 3e f5 91 ef 3d
       0.08433361 0.22183323 0.21278867 0.11697761
0002e0 18 6b 4b bc c9 68 76 be 6f 95 89 3e 20 73 ec bd
       -0.01241567 -0.2406341 0.2687182 -0.11545396
0002f0 a0 b2 f0 3c 8a 21 68 3e 17 30 4e 3e ec 39 8d 3d
       0.02938205 0.22669044 0.20135532 0.06895813
000300 57 b2 90 3a c7 c1 a2 bd 33 d9 ab bd 07 50 c1 be
       0.0011039478 -0.07947116 -0.08391037 -0.3775637
000310 19 58 21 3e 0e 62 2f 3e 24 e2 d0 3d 77 db 66 3d
       0.15756263 0.17127249 0.10199383 0.05636164
000320 d2 2a 24 bc f2 4c 40 3d 18 f8 28 bd 09 f6 dd 3c
       -0.010019975 0.04694838 -0.041252226 0.027094858
000330 ca 6f cb 3d f2 ae f2 3d 86 2b 8b be 1b 3c 52 be
       0.099334314 0.118497744 -0.27181643 -0.20530741
000340 c1 c1 92 bc 4d 87 81 3e 67 02 91 bd 7c 1d cc bd
       -0.017914655 0.2529854 -0.07080536 -0.09966561
000350 db 28 d0 3d 1b 8b f5 3d 03 c2 39 3d 7e 6b 3e 3e
       0.101640426 0.11989423 0.04535104 0.18595693
000360 20 c2 68 3e 6a 48 2b 3e 1a 23 33 be 20 e7 ce 3d
       0.22730303 0.16726843 -0.17493859 0.10102677
000370 8d cd 22 3e 96 23 43 3d 47 75 12 be c4 9d 0a 3e
       0.15898724 0.04764136 -0.1430255 0.13536745
000380 18 e5 ed 3d 15 fb f2 3d 1c 2d ff 3d aa 47 db 3c
       0.11615962 0.11864296 0.12459776 0.02676757
000390 c9 1c 96 3d ba 63 f2 bd 06 29 b3 3c 1c 40 6b 3e
       0.07329709 -0.118354276 0.021870147 0.22973675
0003a0 ec d1 75 3d 9e 5d bd bd 25 e8 3d 3e ae 8c 85 3c
       0.06001465 -0.09246372 0.18545587 0.016302433
0003b0 9f 20 a7 3c 77 6f d9 3d 5e 75 6d 3e 03 f9 af bc
       0.020401297 0.10616963 0.23189303 -0.021481043
0003c0 aa ba 23 3c 37 5d 28 3d bc b2 69 bc 00 1b 13 3d
       0.009993235 0.04110452 -0.014263805 0.03591442
0003d0 d5 34 74 bd 64 6f 9d 3d c3 c2 aa 3c 34 d9 d8 3b
       -0.059620697 0.07687262 0.020844823 0.0066176895
0003e0 b9 fe d8 3c 02 f2 8d be e8 9e 2e 3e 62 1d cf bd
       0.026488649 -0.277237 0.17052805 -0.10113026
0003f0 61 49 6f 3d 24 db 44 3d df a3 91 3e a0 2d e7 3d
       0.05841959 0.04806055 0.28445336 0.11287999

fc2.bias f4 [64]
000000 54 cd f6 bd 7f 11 b0 3d 92 e1 00 bd 50 71 c3 3b
       -0.12050882 0.08597087 -0.03146512 0.0059644356
000010 14 6c 13 3e c4 e6 10 bc a8 31 44 bd 4b d5 20 bd
       0.14396697 -0.008844081 -0.04789892 -0.039265912
000020 34 60 3f 3d 78 05 4a 3d 3b 71 17 3e d8 eb cd 3d
       0.046722606 0.04932162 0.14789288 0.10054749
000030 af 14 a5 3d 8a e4 99 3d dc d3 8f bd 36 2e 8d 3d
       0.08060586 0.075142935 -0.07022831 0.0689358
000040 6b fe 5b 3d 0c fe 53 ba 2c a8 51 3d 64 3f ff bd
       0.05370943 -0.0008086867 0.05118577 -0.12463263
000050 41 8d 83 3e 21 d8 72 3d f6 8f 7f 3e d4 c3 96 3d
       0.25693706 0.059288148 0.2495726 0.0736157
000060 e3 78 44 3e 56 c3 d6 bd 78 83 4f bd 5b 6a da 3c
       0.1918674 -0.10486476 -0.050662488 0.026662042
000070 c1 17 86 3d 8b b5 f1 bc e7 dd 00 3d d4 60 a3 bd
       0.065474994 -0.029505512 0.031461623 -0.07977453
000080 c9 59 8b 3d 18 b7 ed 3c b2 2f f8 3d fb 44 92 bc
       0.068042345 0.02901797 0.12118472 -0.017855158
000090 0a d1 bc 3d 59 d7 9a 3d 90 84 22 3e ec fe 2e 3e
       0.092195585 0.075606056 0.15870881 0.17089432
0000a0 0b 98 df 3d b9 b7 d1 3d e4 68 81 3e 63 1c 8b 3d
       0.10917672 0.102401204 0.25275338 0.06792524
0000b0 0c a7 a7 3d 4d 76 23 bc d4 47 d7 bd 53 f2 92 3d
       0.081861585 -0.009976936 -0.10511747 0.07175126
0000c0 ae b8 f0 3d 43 b2 60 bd 30 7f 2c 3d 62 ee ad 3d
       0.11753975 -0.054857504 0.042113483 0.084927335
0000d0 30 5d 41 3e 3b e8 7b 3c 0e 9c 05 3c a4 b6 c9 3d
       0.18883204 0.015375192 0.008154882 0.09849289
0000e0 12 f7 85 bd d2 35 a4 bd 8f 62 8f 3d b2 ab e4 3d
       -0.065412655 -0.08018078 0.070012204 0.11165561
0000f0 b3 3a d5 3d e2 54 c7 3d 78 96 ae bc d2 ac 3b 3e
       0.104115866 0.09732987 -0.021311983 0.18327644

fc3.weight f4 [64, 64]
000000 d7 35 38 bd 24 e6 d2 bd 0b 78 c4 3d 3c 59 32 3e
       -0.04497322 -0.10297802 0.09593209 0.17416853
000010 aa dc 07 be b5 ff 12 3e 04 fd fa 3d ff ee ba bc
       -0.1326777 0.14355357 0.1225529 -0.02281904
000020 9f 61 82 be df f4 e5 3d f4 70 73 3d 88 c7 77 3e
       -0.25465104 0.11228346 0.059433892 0.24197209
000030 7e ba cb 3d 39 c5 71 be 20 28 c6 bd d2 ec 82 3e
       0.0994768 -0.2361039 -0.09675622 0.25571305
000040 a0 72 19 3e 27 75 9a 3e 1f f1 72 3d 9c 28 46 3d
       0.14985132 0.30167505 0.059311982 0.048378572
000050 3f 89 6e 3d 82 7d 58 bd f4 e2 fa 3d a1 cb 08 bc
       0.058236357 -0.05285407 0.12250319 -0.00834933
000060 8d 34 1b 3c d4 92 dd bd c0 d1 00 3c e5 80 07 be
       0.009472978 -0.10819021 0.007862508 -0.13232763
000070 ee 8b 9f 3d 35 fe 97 3e 91 38 fd bd c3 bf 9b 3d
       0.07790361 0.29686132 -0.12364305 0.07604935
000080 3b 68 1d 3e 2c 42 18 3e 90 47 22 be 78 cc 82 3e
       0.15371792 0.14868993 -0.15847611 0.25546622
000090 71 16 2f 3d 88 a7 6c 3e 1e f9 39 3e 78 dc 41 3e
       0.04274601 0.23110783 0.18161437 0.18931758
0000a0 56 af 24 be 6f 3f 50 bc 5e 31 c1 bc 19 b5 01 bd
       -0.1608251 -0.012710436 -0.02358311 -0.03166685
0000b0 ed 33 25 be 44 05 a4 bc 9c f3 88 3c 42 49 3b 3e
       -0.1613309 -0.020022042 0.016717725 0.18289664
0000c0 ef f7 f0 3c fe cb b1 bc 89 26 48 be 2a 3f 78 3e
       0.029415099 -0.021703716 -0.1954595 0.24242845
0000d0 ca 0f 86 3e b2 6a 9b 3e d6 cd 7e 3d 9d de c0 3d
       0.2618392 0.3035484 0.06220802 0.0941746
0000e0 47 91 4f bd 5c e5 06 3d 7b 4d e5 3d d8 63 5e bb
       -0.050675657 0.032933578 0.11196419 -0.0033934023
0000f0 9c 19 df 3d 1c 6a 6b 3e da 45 be 3d c5 26 74 bd
       0.108935565 0.22989696 0.09290667 -0.059607286
000100 c2 ce 1d 3e 7d f6 9a 3e bd 8a 6e 3d 5f d1 da bd
       0.15410903 0.3026618 0.05823778 -0.106844656
000110 c1 00 2e 3e 6d 69 01 3d ef 8f d9 bc db 09 07 3e
       0.16992475 0.031594682 -0.02655789 0.13187353
000120 91 bc 9f 3d 3e 17 94 3d 45 22 00 be d4 82 f1 bd
       0.07799638 0.072309956 -0.12513073 -0.117925316
000130 07 03 4f 3e 98 0e ac 3e aa 0b 34 3d 67 fc d6 3c
       0.20215999 0.33604884 0.043956436 0.026243402
000140 fa e6 14 3e 9d b0 fa bd 6f 8a 9d bd d0 58 5f 3d
       0.14541236 -0.122407176 -0.0769242 0.054528058
000150 4a c3 1d be f2 e9 40 3e 38 f9 8f bd 6e dd 5f be
       -0.15406528 0.18839243 -0.070299566 -0.21861812
000160 12 70 6e be da 51 5c bd 28 75 9f bd 76 24 55 3e
       -0.23284939 -0.053788997 -0.07786018 0.2081469
000170 9d ac 05 3c 92 72 26 bd 71 80 69 3e 91 2d 2d 3e
       0.00815883 -0.040636607 0.22802903 0.16911913
000180 1e b8 3e be f3 fc 02 3e 6a 9e 66 3e d7 66 c7 bc
       -0.18624923 0.12791805 0.22521368 -0.02434103
000190 d5 d6 5e 3e 2d 0d 62 bd d7 aa 7c 3d 53 48 9e 3c
       0.2176164 -0.055188347 0.061686363 0.019321596
0001a0 ef 2a 4b 3d f0 9b 5f be 73 68 5a be 78 19 c6 3d
       0.04960149 -0.21836829 -0.21328907 0.096728265
0001b0 cb cd 1e 3e 68 c7 94 3c 25 8d 9d 3d 5b 87 48 bd
       0.15508191 0.01816149 0.07692937 -0.04895721
0001c0 37 f1 b3 3e 23 34 4e 3e 21 0c 82 3d aa 4c b2 bd
       0.3514497 0.20137076 0.0634997 -0.08706029
0001d0 36 56 69 be 57 9d 8b be 6d 99 96 3e c5 ca 56 3e
       -0.22786793 -0.27268478 0.2941393 0.20975788
0001e0 02 2e 65 3c 27 c3 97 3e bc b5 04 bf a4 25 4f 3e
       0.01398802 0.29641077 -0.51839805 0.20229203
0001f0 19 4b 1b be 31 c6 6a be fa cc 84 be 28 c0 ae 3d
       -0.15165366 -0.22927167 -0.25937635 0.08532745
000200 bd bf 5c be 91 07 1d bb 59 08 41 3e 14 4a d5 3d
       -0.21557517 -0.0023960809 0.1885084 0.1041452
000210 05 2e a9 bd 3c bf 51 3e 64 e3 82 3e 6b 59 a1 3d
       -0.08260731 0.20483106 0.2556411 0.07878383
000220 21 0c 4e be f5 7f 7d 3d 9d d3 4d 3d a5 0a a9 bd
       -0.20121814 0.061889607 0.05025064 -0.082539834
000230 ab 6c 37 3e 4c d8 99 3c 67 93 b8 3c 60 c5 73 3e
       0.17912547 0.018779896 0.022531224 0.23805761
000240 90 23 98 3d d7 e9 31 3d 4f 73 97 3d dc 2b 5a bd
       0.07428658 0.043435898 0.0739504 -0.053264484
000250 b6 b6 f5 39 da a5 23 bb 75 c5 96 3d 67 90 67 be
       0.00046866172 -0.0024970681 0.07361881 -0.22613679
000260 28 e2 17 be 6b ca 5c be 60 95 d4 bb 89 dd 51 be
       -0.14832366 -0.21561591 -0.0064875335 -0.20494665
000270 80 1a de 3d c6 41 b9 3e 6d d2 4a 3d dd 01 87 3e
       0.10844898 0.36182994 0.049517084 0.2636861
000280 ca f8 53 3d bc ec 64 3e f7 3c 8f bd d7 b7 23 3e
       0.051750936 0.22355932 -0.0699405 0.15988098
000290 77 be 69 3e 55 c6 8e 3b 67 0e 12 3e 61 6e ef bb
       0.22826563 0.004357139 0.14263307 -0.0073068594
0002a0 4a 92 97 be f8 95 c9 3c cd 61 11 be 96 67 50 3e
       -0.29603797 0.024607643 -0.14197464 0.20352015
0002b0 cb cd e9 bd db be 8c bc 7c e9 12 3c 4a c3 bf 3d
       -0.11416205 -0.01718085 0.0089668 0.0936342
0002c0 d8 47 df 3d 2d 08 9c bd 76 70 8b be 01 e8 83 3e
       0.10902375 -0.07618747 -0.27234238 0.25762942
0002d0 82 26 49 3e 43 ac 40 3d b1 9c f8 3d 58 37 9b 3c
       0.19643596 0.04703928 0.121392615 0.018947288
0002e0 78 af 12 3e f0 28 f6 3d 5c ce b6 3d 90 9e 2c 3e
       0.14324749 0.12019527 0.08926079 0.16857362
0002f0 6b 03 89 be 04 a8 2f 3e 82 93 ab be f2 93 2b be
       -0.2676042 0.17153937 -0.33510977 -0.16755655
000300 e1 0f 8a bd cf 91 66 3e 3e ca d3 3d de c1 5e 3d
       -0.0674131 0.22516559 0.10341309 0.054384105
000310 12 28 ac bc 57 df 73 3e 0c 16 7d 3e 45 d7 64 3e
       -0.0210152 0.23815666 0.24715441 0.22347744
000320 b1 62 eb bd 60 19 8c 3c d5 30 31 bd f1 50 c9 3d
       -0.11493433 0.017101943 -0.04325946 0.098298915
000330 6a b6 1e 3e 13 e8 2b 3d 56 15 ee bd 38 b4 82 3d
       0.15499273 0.04196937 -0.11625163 0.0638203
000340 64 ef e1 3c 05 8d 04 bd ef a8 7b 3d a0 6e 68 bc
       0.02757997 -0.03236105 0.061440405 -0.014186531
000350 33 92 f3 bd c4 c7 53 3e db 27 00 3d 95 b2 23 be
       -0.1189312 0.20681673 0.03128801 -0.15986092
000360 c4 db 12 be 27 24 05 be 60 6f 8c bb 84 42 cb 3d
       -0.14341646 -0.13002072 -0.004285738 0.09924796
000370 78 9b 40 3e 20 0a 9c 3d 5e f1 fe 3d 5c 79 97 3e
       0.18809307 0.07619119 0.12448381 0.29584777
000380 fd bf ae bd f8 64 31 3d 02 53 42 3e 35 dd 12 3e
       -0.085327126 0.043309182 0.18976977 0.14342196
000390 a4 e8 00 3d 56 64 22 3e 93 09 86 3e f1 ba a9 bd
       0.031471863 0.15858588 0.2617918 -0.08287609
0003a0 b2 4a bb bd 3e 34 fb 3d e3 1f 44 be 6b 60 4f 3d
       -0.091451064 0.12265824 -0.19152789 0.05062906
0003b0 b8 73 39 3d 91 ee 99 bd d3 3a 8c 3d 35 02 a8 3c
       0.045276374 -0.07516206 0.06847157 0.020508865
0003c0 6a ca 62 3d 23 fa 02 3e dd 96 18 bc 41 45 21 3e
       0.05536882 0.12790732 -0.009313312 0.15749075
0003d0 91 3f e1 3d 4e d3 71 3d da f0 52 3e ad 52 1f 3e
       0.109984525 0.059039406 0.2059969 0.15558882
0003e0 58 eb c6 bd 24 84 b6 3d a6 f2 21 be aa f5 5d 3e
       -0.09712857 0.089119226 -0.1581522 0.21675745
0003f0 bc 5d 34 be 0d 6c aa bd 6a a5 0f be 1e 73 d1 bd
       -0.17613882 -0.0832139 -0.14027944 -0.10227035

fc3.bias f4 [64]
000000 bd 11 a2 3d aa ab a0 3d 21 57 01 3d f8 21 be 3d
       0.079135396 0.07845242 0.031577233 0.09283823
000010 e4 d9 a0 3d 1e 5d 06 3e 20 10 6f 3d 64 93 89 3d
       0.07854059 0.13121459 0.058364987 0.06717566
000020 89 ff 4d 3d 81 c5 c4 3c 07 c9 30 bd 85 49 3f 3d
       0.050292525 0.024019958 -0.043160465 0.046700973
000030 f0 22 2a 3c 1d 9d 2f 3e dd 41 f4 3c 8a be 81 bd
       0.010384306 0.17149778 0.029816562 -0.063351706
000040 ce 96 00 be 50 0a 8f bd d9 b5 de 3d be 78 47 3d
       -0.12557527 -0.06984389 0.108745284 0.048699133
000050 a0 af 87 3d a1 5f ea 3d 83 28 c4 bc 33 ac a2 3c
       0.06625295 0.11444021 -0.023945099 0.019857502
000060 82 ab c9 3b 80 f0 86 ba b9 b1 cd 3b b7 e2 ce 3b
       0.0061544785 -0.0010295063 0.0062772897 0.0063136476
000070 78 92 4a 3c d1 86 27 bd 1d eb 12 3e e4 cb 2d 3e
       0.012364022 -0.040900055 0.14347501 0.1697231
000080 bc e3 28 3d f1 61 e6 3d 58 d6 89 3d 3a 23 5b 3e
       0.04123281 0.112491496 0.06730336 0.21400157
000090 28 b8 71 3e 34 3f 75 bd d9 29 d0 3d 13 44 ab bc
       0.23605406 -0.05987473 0.10164232 -0.020906484
0000a0 f8 6d 94 bc de 83 8d bc c8 f4 1f 3e 29 0f 13 bc
       -0.018118843 -0.017274793 0.1562072 -0.008975782
0000b0 b5 f6 1b 3e 18 a9 fb 3b 07 8e 00 3e dc 69 18 3d
       0.1523083 0.0076800697 0.12554179 0.03721033
0000c0 47 b3 84 3d a6 26 fd 3d 05 74 02 3e 13 49 c8 bc
       0.06479507 0.12360887 0.1273957 -0.024448907
0000d0 40 70 43 3c 1a 98 47 3d 81 4c 29 3e af e6 8a bd
       0.011928618 0.04872904 0.1653309 -0.06782281
0000e0 ce 09 11 3d d2 26 53 3e 5a fd 8d 3d 2b 7b b6 3d
       0.03540974 0.20620278 0.069330886 0.08910211
0000f0 11 2a f5 3d 21 31 21 3e 53 4b c0 3d 1c 7c 65 3d
       0.11970914 0.15741397 0.09389367 0.056026563

action_out.weight f4 [3, 64]
000000 18 c6 9c 3e 3e e1 e1 bd 83 68 a7 3e f1 71 54 3e
       0.30619884 -0.1102929 0.32696924 0.2074659
000010 af 7a 97 be ac f6 69 3e 97 62 60 be 18 4d 9b be
       -0.29585788 0.22848004 -0.21912609 -0.30332255
000020 24 9b 89 be a1 42 f4 bd ad 8c 31 bd c0 5c 82 be
       -0.26876175 -0.11926771 -0.04334705 -0.25461388
000030 46 3c ac be 4a 76 c0 3e 4e 77 17 bd 88 8f aa 3c
       -0.33639735 0.37590247 -0.036979012 0.020820394
000040 76 6d bb ba 0c 81 98 be 37 49 64 be 54 f2 aa 3e
       -0.001429959 -0.29785955 -0.22293554 0.33388007
000050 c3 49 df be b5 4c e2 bd bf 8a b9 3c 21 38 fe 3d
       -0.43610963 -0.11049787 0.022649167 0.124130495
000060 91 6f 9a 3e a8 fe a9 bc eb da a8 3e d6 1e 7d 3e
       0.30163243 -0.020751312 0.3297952 0.24718794
000070 ab db d2 be 6a b1 d3 be f9 a4 6e 3e 0e 90 96 3e
       -0.41183218 -0.41346294 0.2330512 0.2940678
000080 fa c1 1e 3e e2 bf 65 be a9 f5 b9 3e df f6 59 be
       0.15503684 -0.22436479 0.36320236 -0.2128558
000090 dc c3 3e 3c 29 3b 15 be cc 86 b6 be a2 a3 10 3c
       0.011643376 -0.14573349 -0.35649717 0.008828076
0000a0 cb 08 da 3d 52 34 a4 3e db c9 47 bd db 75 47 3e
       0.106462084 0.32071167 -0.04877649 0.19478552
0000b0 56 a1 84 be 00 ab 30 be 5d 78 7c be e3 77 51 be
       -0.2590434 -0.17252731 -0.2465529 -0.2045589
0000c0 f0 2c 98 38 80 75 dc 3e 1a 5d 63 be 6d 8c 1d 3c
       7.256295e-05 0.43058395 -0.22203484 0.009616
0000d0 90 f4 99 bd 12 b9 99 3e f9 30 59 3e 97 8c 6a 3e
       -0.0751735 0.3002401 0.21210088 0.22905193
0000e0 3b a5 6e 3d 6d ee 88 3e dd 18 57 3d ae 97 ea bd
       0.058263045 0.26744404 0.052513946 -0.11454712
0000f0 68 92 27 be c4 83 87 be 1f ac aa bc 1f f1 f0 3c
       -0.16364443 -0.26467717 -0.020834027 0.02941185
000100 14 99 aa 3c c7 59 a8 3d 88 88 e0 bd c8 63 e0 bb
       0.020824946 0.08220249 -0.10963541 -0.0068478324
000110 c0 94 6c 3e 6d f4 95 3b 07 72 50 3e 73 00 bc be
       0.23103619 0.004576257 0.20355998 -0.36719093
000120 68 af a3 be 34 ba 4f be bc 79 90 bd 0d 47 b9 bd
       -0.31969762 -0.20285875 -0.07054469 -0.09046755
000130 f2 5d 81 be 0f 59 29 be 65 82 93 3b e2 80 85 bd
       -0.25266987 -0.1653788 0.004501628 -0.06518723
000140 12 4c 35 3c b5 b9 e8 3e 34 e9 ce 3e d4 81 bb bd
       0.0110655 0.45454183 0.40412295 -0.09155622
000150 b7 0a 56 be 9c 30 30 3e f0 e0 a2 3c 05 b5 b1 be
       -0.20902525 0.17206043 0.01988265 -0.3470842
000160 0f f2 b1 3d 50 86 7e 3d 81 42 87 3d 35 a5 74 bd
       0.08688747 0.06213981 0.066044815 -0.059727866
000170 9b 06 4b 3d 39 d8 29 be c3 30 85 3e 8b a2 53 3e
       0.049566846 -0.16586389 0.26013765 0.20667474
000180 4e e0 80 3e b6 c1 4a 3e d0 4d 5d be 53 b5 eb be
       0.2517113 0.19800457 -0.21611714 -0.46036777
000190 c7 1b 6e be 85 36 b3 be 11 5e 95 bd db 7f b0 be
       -0.23252784 -0.35002533 -0.07293332 -0.34472546
0001a0 0d e0 c3 3e 55 b7 ba bd 7d 69 a6 be 03 4f a2 be
       0.38256875 -0.09116999 -0.32502356 -0.31700906
0001b0 26 11 09 3e 92 01 44 be e1 50 a1 3e 62 0a 6c 3e
       0.13385448 -0.19141224 0.31507018 0.23050836
0001c0 94 fb f7 be 65 62 47 bb 6d e8 b2 be 86 35 03 bf
       -0.48434126 -0.0030423638 -0.34942952 -0.51253545
0001d0 60 c7 5b 3c 17 b0 a0 bd 6f ba 89 3e e0 0d 93 3e
       0.013414234 -0.078460865 0.2690005 0.28721523
0001e0 6a ab 86 bd 95 fc 00 be 5f bd db 3e f6 20 ee bd
       -0.065756634 -0.12596352 0.42917916 -0.116273805
0001f0 0a 3a e3 bd bc bd f1 bd 44 9d 8d bd 39 d9 b4 be
       -0.110950544 -0.11803767 -0.06914762 -0.35321978
000200 01 f2 2e 3e 8d 09 11 bf 2c d9 14 bd 5e a9 87 be
       0.17084505 -0.566552 -0.036339924 -0.26496404
000210 1a 1a e4 bd 64 33 b2 3e fd 01 5d bd cc e2 32 3e
       -0.11137791 0.34804833 -0.053956974 0.17469329
000220 5e 64 9f 3e ae 3c 05 bf c9 58 67 bd 32 15 92 be
       0.31131262 -0.52045715 -0.056481156 -0.28531796
000230 0b 51 ec 3d ae 01 ed 3d d7 c6 cf 3e 60 03 16 bd
       0.11538895 0.11572586 0.4058139 -0.036624312
000240 52 86 aa bd b5 f3 e5 3d fd 32 81 be fe f4 85 bd
       -0.08326401 0.11228124 -0.25234213 -0.06540869
000250 4f c7 4b 3d 95 35 91 3e 78 4b 0e bf ab f8 1c be
       0.049750622 0.28361192 -0.55583906 -0.15329234
000260 e8 55 2e be d0 02 2f 3d 2c ce 43 3e 8b 10 50 be
       -0.17024958 0.04272729 0.19121617 -0.2031881
000270 47 c7 e1 3d bb a1 39 be c8 d2 67 bd 86 d4 52 3c
       0.11024337 -0.18128102 -0.0565975 0.012868052
000280 25 2e 81 3e a0 24 96 be c3 a3 a3 bd 5b 96 19 3e
       0.25230518 -0.29324818 -0.079902194 0.14998762
000290 16 31 a6 3e fb c7 54 3d dc 76 85 be 82 5d 89 be
       0.32459325 0.05194853 -0.26067245 -0.26829153
0002a0 df 83 23 3e 00 71 9e bd c9 da d2 3e 4a 3b 2e bd
       0.15968274 -0.07736397 0.41182545 -0.04253701
0002b0 71 b2 b7 be 3d f0 c1 be 8d 3b 92 be 89 0d 99 3e
       -0.35878327 -0.378786 -0.2856106 0.2989314
0002c0 8e 32 01 be 88 45 92 3c a9 fc 36 be a4 7f d4 bd
       -0.12616941 0.01785542 -0.1786982 -0.10375908
0002d0 08 54 ee bc 1e 4a d3 bc c5 39 66 3d 87 9c 8f be
       -0.029092804 -0.025792178 0.056207437 -0.28049108
0002e0 01 15 82 3d 14 f3 9a 3e c0 45 9c 3d 2c 97 8c bd
       0.063516624 0.3026358 0.07630491 -0.06864771
0002f0 54 0f bf 3e 1d 5e 85 3e 83 f1 e0 3e f1 fd 4c be
       0.37316382 0.26048365 0.4393426 -0.20018746

action_out.bias f4 [3]
000000 14 f0 48 bd 54 3c 15 3d e8 82 ce bd
       -0.04905708 0.036434487 -0.10083562
