Assets/Python/maddpg/model/simple_twoagent1117/agent_0/critic_params.pkl (torch, 51915 bytes, 7 tensors)

fc1.weight f4 [64, 60]
000000 30 38 95 be 73 e3 78 bf fb 13 82 be 22 24 88 bd
       -0.2914443 -0.9722206 -0.2540587 -0.06647517
000010 c6 39 85 bc d5 fe de bc 4c df f9 3c 67 22 6d bc
       -0.0162629 -0.027221123 0.030501984 -0.014473534
000020 a4 5b f4 bc 80 81 30 be 38 15 3b 3d d0 3c b8 3c
       -0.029828854 -0.172369 0.045674533 0.022489935
000030 41 3d 04 3d d1 45 0e 3a 61 a0 e0 bd 0b 1a fe bc
       0.03228498 0.00054272736 -0.1096809 -0.031018278
000040 7f 9e 4e be 5e d8 24 be d6 fd 50 3e 33 b8 3b bd
       -0.20177649 -0.16098163 0.2040933 -0.045829963
000050 cd dd 1e 3c a7 55 fa bd 21 30 05 be 18 23 2e be
       0.009696436 -0.12223368 -0.13006641 -0.17005575
000060 74 a4 a1 3e 06 bd 60 be eb 30 22 bd c4 20 5c 3d
       0.3157078 -0.21947107 -0.039597433 0.053742185
000070 0b 33 2c be 5f 3c c6 3d 5e ae 81 3c b0 2d 29 3e
       -0.16816346 0.096794836 0.015830215 0.16521335
000080 25 57 da 3d be 95 1d 3e 2a 1b 5b 3e e6 d7 71 bd
       0.10661153 0.15389153 0.21397081 -0.059043787
000090 36 ad 1d bd 64 e9 b2 3e 07 cc 73 bd b7 d8 07 be
       -0.038495265 0.34943688 -0.059520748 -0.13266264
0000a0 a3 fb d3 3d c3 2d 9d 3d d8 23 d5 3d f2 32 b9 be
       0.1035073 0.07674744 0.10407227 -0.3617168
0000b0 3f f3 e5 3a ca 3d 16 3d f1 7b fe bc 5f 02 6b 3d
       0.0017543806 0.03668002 -0.03106496 0.057375308
0000c0 fc 02 4c 3d 44 8a 3a be 83 80 1c bd fc 5c 7f 3e
       0.049807534 -0.18216807 -0.038208496 0.24937814
0000d0 70 f5 0a 3c c8 73 d0 3d 0f 9a cd bd 97 a6 92 bc
       0.008481368 0.101783335 -0.1003915 -0.017901702
0000e0 a7 80 2e bc 52 71 d6 bc 5b e4 c7 3b bc 89 3d 3b
       -0.01065079 -0.026177082 0.00610022 0.0028921207
0000f0 92 a8 28 bf 74 46 c0 be 6a 91 aa bc ff 26 fc 3c
       -0.6588222 -0.3755375 -0.020821292 0.030780314
000100 ab 10 bb bd 7a cb c5 3c bf 50 93 bd 30 d5 b9 bb
       -0.091340385 0.024144877 -0.071931355 -0.005671166
000110 53 9c f7 ba 5b 41 fc 3d 82 2b bc 3d 69 e9 07 bd
       -0.0018891193 0.12317153 0.09187986 -0.03318158
000120 fc a5 80 bd bb 03 08 be 8c d2 83 bc af b0 93 bc
       -0.06281659 -0.13282673 -0.016091608 -0.018028585
000130 06 e5 db 3d db 4d a1 3d 9a 3a c1 3d 57 38 f3 3c
       0.10737042 0.07876178 0.094350055 0.02968995
000140 1a 87 8f 3c bf d3 4e bd 07 32 db 3d af df 0d be
       0.017520476 -0.050494906 0.10702901 -0.1385486
000150 47 e9 6c bd 48 32 91 bd 8e 86 65 be 2f 48 dd bd
       -0.057839658 -0.070896685 -0.2241461 -0.108047836
000160 04 39 a0 be b2 b3 34 be c1 4c d1 3c ae e9 e1 3e
       -0.312935 -0.17646673 0.025549294 0.44123596
000170 95 d8 28 3e a0 2b 5f be 8a 5a 85 3d 84 db 16 be
       0.1648887 -0.21793985 0.065114096 -0.14732176
000180 53 65 b0 3c 66 f0 68 be 5f 79 08 3e 5b a9 15 3d
       0.02153269 -0.22747955 0.1332755 0.036538463
000190 ce c9 bb 3d e6 a5 cd bc b0 9b 53 bd 7c 01 ec 3e
       0.091693506 -0.02510352 -0.051662147 0.46094882
0001a0 38 17 19 3e 57 c2 06 bd ee 72 16 3d e3 0f 28 3e
       0.14950264 -0.03290018 0.0367307 0.1641231
0001b0 d4 3d 89 3d 4c 31 76 3e ce 05 13 3e 0b 8a cf 3d
       0.06701246 0.24042243 0.14357683 0.101337515
0001c0 c9 24 66 3e 69 d7 df bc 44 32 d8 bc e8 86 d6 3c
       0.2247497 -0.027324395 -0.026391156 0.026187375
0001d0 c4 96 30 bc 66 84 a8 3a 42 b0 59 bc ae 87 a0 bc
       -0.010778133 0.0012856841 -0.013286652 -0.019595947
0001e0 53 69 9c 3e 27 1f 19 bf a8 20 b5 be d9 e2 cd 3d
       0.30549106 -0.5981316 -0.35376477 0.100530334
0001f0 38 ae 1c 3e 7e ce fc 3d 8a e0 86 3b dc eb 64 3e
       0.15300834 0.12344073 0.0041161226 0.22355598
000200 81 50 31 be bd 84 fe bd 9d 3e 9b bd 69 fd df bb
       -0.17315866 -0.124276616 -0.07580302 -0.0068356288
000210 ef 16 94 3c bd da ea be 52 32 fc 3c cf 5e ec 3c
       0.018077342 -0.4587001 0.030785713 0.028853802
000220 7a b9 29 bd c9 f9 72 be 0f 9a 81 bc 18 c9 63 bc
       -0.04143665 -0.23728098 -0.015820531 -0.013902925
000230 c6 5d 50 bd 50 ad 7f be 8f 11 89 3e 8c d8 3f 3d
       -0.05087068 -0.24968457 0.2677121 0.046837375
000240 45 82 50 3d 62 31 b6 3d 0b 4a 21 3c a9 47 1b 3e
       0.050905485 0.08896138 0.009844313 0.15164055
000250 99 11 31 bf e5 b8 67 3d f8 0c c4 bd b0 e4 e9 bd
       -0.69167477 0.056572814 -0.09572786 -0.11420572
000260 d3 c4 70 be 31 28 2f be 93 d4 82 3e 22 0f 00 3d
       -0.23512582 -0.17105176 0.25552806 0.03126443
000270 06 cb 4c bd 8f 99 a0 bd 12 e2 a7 3e e1 fa e5 bd
       -0.049998306 -0.07841789 0.32789665 -0.11229492
000280 81 a4 9c be 4b 4e ee 3d e2 55 06 3e 52 f5 12 3f
       -0.30594257 0.11636027 0.13118699 0.5740558
000290 25 cd 50 be c6 be 68 3d 60 2a ca bd 1b 99 ad 3d
       -0.20390756 0.05682256 -0.09871364 0.08476468
0002a0 ed ee d6 3d 86 37 0e 3e e9 5b c2 3d 9e 9d 9d 3e
       0.1049479 0.13888368 0.09490187 0.30784315
0002b0 23 c1 e3 3e 7a df 98 bd 0d 2f 23 3d 2e da 8c 3c
       0.4448329 -0.074645 0.039839793 0.01719388
0002c0 45 b7 7c 3c ec 81 1a bc eb d6 a2 3c 29 f9 03 bb
       0.015424554 -0.00943039 0.019877871 -0.0020137525
0002d0 a5 56 89 3e cb 45 76 be 0b d4 fa 3d 8e e0 8f 3c
       0.26823917 -0.24050061 0.12247475 0.01756313
0002e0 4b fc 51 3d a3 cf 8e bd 48 9f 1c be c9 cb c2 be
       0.051265996 -0.06973197 -0.15295136 -0.380461
0002f0 ac 8d da bc 33 28 3b 3e 07 93 04 bd df 83 ea 3d
       -0.026678883 0.18277054 -0.03236678 0.11450934
000300 db 3f 28 3e 5f 85 9e 3d 6a 4a 5a 3d 37 9d f7 3b
       0.16430609 0.07740282 0.053293623 0.0075565833
000310 ce db 9d 3d 7d 00 35 bd 98 2c 39 3b 67 0f dc 3c
       0.0770794 -0.04418992 0.002825534 0.026862813
000320 2f ae a1 be 6c 58 a8 bd f4 d7 d7 3e 8c 2d c1 3d
       -0.31578204 -0.0821999 0.42156947 0.094325155
000330 cc 8f 56 be 6d 13 e7 3e c6 01 c7 3d 6c 6d 9e bd
       -0.20953292 0.45132008 0.09717135 -0.07735714
000340 04 4c 9f be dd 44 27 3e fe 05 21 bb 8c c1 d5 bd
       -0.31112683 0.16334863 -0.0024570222 -0.10437307
000350 b4 ec f0 3d 42 2d 93 bd 68 48 1c be b6 02 38 be
       0.117638975 -0.071863666 -0.15261996 -0.17969784
000360 74 9c 7f 3e 9a 83 26 bb 93 5b af bc d3 1a 83 3d
       0.24962026 -0.002540803 -0.02140597 0.06401601
000370 86 cc 4a bd bd 0c 99 bd 12 aa 6e bd 83 ea 32 3e
       -0.049511455 -0.07473133 -0.05826766 0.17472272
000380 8d 78 bf 3d c5 96 32 3e 0f b1 91 bd c7 9a 03 be
       0.09349165 0.17440327 -0.07113849 -0.12852012
000390 52 a3 88 bd 56 2e a2 3d 8c 43 a3 bd ba 3a 5f 3b
       -0.06671776 0.07918994 -0.07971868 0.0034062103
0003a0 f5 2e f8 3e 13 4d 98 bc 15 a6 6b bd 09 ba 02 bd
       0.48473325 -0.01859144 -0.057531435 -0.0319157
0003b0 e2 8a df 3c 20 06 89 bc 8c 32 80 bc 3e ea 8e 3b
       0.027287904 -0.016726553 -0.015649103 0.00436142
0003c0 56 2e bb 3e b5 d7 07 bf 7d 91 6e be 0d 8c 76 3d
       0.3655879 -0.5306352 -0.23297687 0.060192157
0003d0 14 28 a3 3c f9 bc 87 3c 97 3c 8a 3e d6 5e 9b be
       0.019916572 0.016569601 0.2699935 -0.30345792
0003e0 f6 94 09 3e 25 84 8d bd 4e 2f 24 3d a3 bb c5 3d
       0.1343573 -0.0690997 0.040084176 0.096549295
0003f0 22 3a 3a 3d 54 32 11 3f 9b 80 14 3e 9d ee ba bd
       0.045465596 0.5671742 0.14502184 -0.09127543

fc1.bias f4 [64]
000000 0a 88 e0 bd c1 58 c9 bd cb e7 9f be 87 43 b5 3d
       -0.109634474 -0.098313816 -0.31231532 0.088507704
000010 21 27 2a bc f4 a8 57 3d 57 5a de bd 41 6e 15 3d
       -0.010385306 0.05265136 -0.10857075 0.0364821
000020 99 7e 34 3d 9e 04 12 be ee 02 41 be 14 f7 f9 3d
       0.044066045 -0.14259574 -0.18848774 0.122053295
000030 b9 dd 6c bd 8a 01 30 3d 2c 37 43 3c fd 3e 94 bb
       -0.05782864 0.042970218 0.0119150095 -0.0045241104
000040 67 e9 1d bd 39 0c 63 3e 4d 1e a7 3b 11 87 01 3d
       -0.038552668 0.22172631 0.0051000477 0.03162295
000050 e2 c9 55 bd e6 5d a5 3b c9 78 07 3e 82 b1 bb 3d
       -0.052194484 0.005046594 0.1322967 0.09164716
000060 f4 cb 1c 3e df e9 a0 3c df 0a e7 3d 9d 58 83 bd
       0.15312177 0.019642768 0.1128137 -0.06413386
000070 d6 27 2f 3e db 51 53 be 52 14 bf bd 1b 8b 7b 3c
       0.1710504 -0.20636694 -0.09330048 0.01535299
000080 6b b8 e2 3d 37 e6 6e 3d 00 0b 8f 3d cd 50 0f bd
       0.11070331 0.05832502 0.0698452 -0.034989167
000090 d8 d8 e4 bc 29 19 47 3e 9b cd 1f bd 32 e4 92 3c
       -0.02793543 0.19443192 -0.03901444 0.017931078
0000a0 f1 1c 33 3d bc 11 08 bd a3 4c 7d bd 73 28 45 be
       0.043728773 -0.033220038 -0.061840665 -0.19253711
0000b0 13 04 f0 3d d6 67 46 3d b1 91 19 3e 94 6e e7 3d
       0.11719527 0.04843887 0.14996983 0.11300388
0000c0 13 04 62 bd c2 e0 49 bd 25 30 af bc 36 e4 c4 bb
       -0.055179667 -0.04928661 -0.021385262 -0.00600865
0000d0 d3 06 3f be 3e c6 32 be a6 66 53 3d 72 f8 8d bd
       -0.18654947 -0.17458436 0.051611565 -0.06932153
0000e0 a1 c7 f7 bd 26 f3 ef bd 95 88 06 3e 1b a3 ef 3d
       -0.12098623 -0.11716299 0.1313804 0.11701032
0000f0 84 a1 cb bd bc 6b fb 39 0f 9b 17 be e9 43 e5 bc
       -0.09942916 0.0004795472 -0.14805244 -0.027986484

fc2.weight f4 [64, 64]
000000 43 5c 33 3e 73 bb 49 bf b8 ac e5 bd e9 de 8b bd
       0.17515664 -0.7880165 -0.11214584 -0.06829626
000010 2e 85 00 bf d7 9d 5c 3e cc 2d 6e 3e 37 c3 35 be
       -0.50203216 0.21544586 0.23259658 -0.1775025
000020 0a d8 92 3e 10 cf 09 3e 74 bf bb 3d ca b9 2a be
       0.2868045 0.13457894 0.09167376 -0.16672435
000030 1c 07 75 be eb 57 e9 be e6 c2 0a bf e4 ef 7f bf
       -0.23928493 -0.4557489 -0.5420364 -0.9997542
000040 7e dd 73 3d 89 05 a5 be 3c ff f6 bb 5f 6d 76 bf
       0.059537403 -0.32230785 -0.0075377505 -0.9626064
000050 3c e0 9c be fc bb 10 bf c2 4c 5c 3e 03 3f 0e bc
       -0.30639827 -0.5653684 0.21513656 -0.008682015
000060 57 2e 76 be f5 31 8a 3e 9f 9d 9d be c3 02 80 3e
       -0.24041115 0.2699124 -0.30784318 0.25002107
000070 68 ef fc bd 1d 69 ad 3d 93 0c ec bd 92 00 7a bf
       -0.123503506 0.084673144 -0.11525836 -0.9765712
000080 7b 43 78 be de ce 8d be 51 62 14 be a8 6c 93 3d
       -0.24244492 -0.2769689 -0.1449063 0.07198459
000090 81 ed 69 be 23 a8 86 3e a7 e4 01 bc 94 64 cf 3c
       -0.22844507 0.26300153 -0.00792805 0.025316514
0000a0 74 82 70 be 7a f8 86 3d 9d f1 e4 3d 6f 12 e1 bd
       -0.23487264 0.06590362 0.111788966 -0.10989844
0000b0 95 59 a6 3c 81 62 2d bf 44 ec 25 3e 25 f2 e6 be
       0.020306388 -0.6772843 0.1620341 -0.45106617
0000c0 c4 4f 05 bd 98 64 af 3e 40 31 a7 3d f5 d4 2b 3e
       -0.032546774 0.34256434 0.081636906 0.16780455
0000d0 09 39 6d bd 48 37 ea bc 91 6b 85 3e ec cf 3a 3e
       -0.05791572 -0.028590813 0.2605863 0.18243378
0000e0 8c 45 f4 3d 7b 01 05 be 45 56 28 3e 52 e9 22 3d
       0.119273275 -0.12988846 0.16439159 0.039773293
0000f0 1d 94 1c be aa 8a 7f 3e 4d d9 49 be 6d aa e5 be
       -0.15290876 0.2495524 -0.197118 -0.44856587
000100 f8 1d b1 3d 97 f8 f3 bd 61 b3 0e bd 04 9f 3e be
       0.08648294 -0.11912649 -0.034839038 -0.18615347
000110 d9 28 6a 3d 2c 77 26 3e a0 5f 61 3c 7c b8 45 3e
       0.05716786 0.16256398 0.013755709 0.19308656
000120 51 78 0c 3e 90 2c 6e 3c 79 f5 05 be 28 04 64 bd
       0.13717772 0.014536992 -0.13081922 -0.055668026
000130 4a 43 2b 3e c4 96 d6 bd b5 4a a1 bd 6b cd dc bc
       0.16724887 -0.10477975 -0.07875577 -0.02695342
000140 28 6b 4b 3e 9b 03 a7 bc de 96 9f be 26 26 cc b9
       0.19865096 -0.020387461 -0.3116979 -0.00038938335
000150 ab e1 48 3d 88 a3 46 be 81 19 5f bc 93 44 59 3e
       0.04904334 -0.1939832 -0.01361692 0.21217565
000160 29 03 7a bd 74 41 02 3e ed 6d f6 bd de 90 00 be
       -0.06103817 0.12720281 -0.120326854 -0.12555262
000170 b6 12 a9 bd 14 20 ea bd 0d 90 26 be 88 3a fb 3d
       -0.08255522 -0.114319 -0.16265889 0.12267023
000180 2e 18 26 bd 88 7c 06 3d 68 fd 08 3a bd 99 cb 3c
       -0.040550403 0.032833606 0.0005225749 0.024853582
000190 77 27 1c be 1e 62 e2 3d e0 6a 01 3d e7 31 9e 3d
       -0.1524943 0.110538706 0.031596065 0.07724362
0001a0 d7 be b4 bc fc 35 41 3e e2 72 0e 3e cc 9f 1d 3e
       -0.022063656 0.1886825 0.13911012 0.15392989
0001b0 f2 8b 20 3e f2 31 a1 3d 2a b6 00 3d 94 9c 98 bd
       0.15678385 0.078708544 0.031423725 -0.0745174
0001c0 e8 a9 25 3d 5f 2a 5c be 5f d1 06 3d 56 9a 53 3d
       0.04044524 -0.21500538 0.032914516 0.051660858
0001d0 8e 43 2a be 93 5b 66 bd 65 fb 7b be 45 8a 12 3e
       -0.16627333 -0.056239676 -0.24607618 0.14310558
0001e0 28 45 2b 3d 73 46 a7 bc bb f8 e6 3c ae c7 3c 3e
       0.041814 -0.020419335 0.028194776 0.18435547
0001f0 03 9d ed 3c c9 6c bb bd 46 8e 1b bb 1f 22 45 3e
       0.029005533 -0.091516085 -0.0023735925 0.19251297
000200 01 3c 2e 3c 0d 56 32 bd 22 d2 3b 3e 7f 11 30 3d
       0.010634423 -0.043539096 0.18341878 0.042985436
000210 6a bd e3 be 18 a2 9a bd a4 66 aa 3e 11 51 67 3e
       -0.4448045 -0.07550448 0.33281434 0.22589518
000220 63 97 d1 3e 6e ab 6d 3d 93 5b e5 3c 21 a6 a2 be
       0.4093581 0.058024816 0.027997768 -0.3176737
000230 88 75 a9 3e ec d0 da bd 6b ac 69 3e e1 a4 77 be
       0.33097482 -0.1068438 0.22819678 -0.2418399
000240 c0 d9 3c 3e 40 0b 40 be b1 a0 d2 be 11 ff 90 be
       0.1844244 -0.18754292 -0.41138223 -0.283196
000250 b1 5c d1 3e d6 34 11 3e b3 8d 03 be 4d 72 7f 3d
       0.4089103 0.14180312 -0.12847023 0.062364865
000260 cb 45 04 3e ae b4 5a be 58 9a c0 ba 25 ba f6 3c
       0.12917249 -0.21357986 -0.0014694436 0.030118058
000270 88 35 6f bd f5 62 bf 3d f6 a8 46 3e 22 f5 a9 bd
       -0.05840066 0.093450464 0.19400391 -0.082987085
000280 a0 93 68 3e 62 2d 1f 3f ce ba 11 3e 00 73 57 3e
       0.22712564 0.62178624 0.14231417 0.21039963
000290 1f 32 21 be 70 fe c7 be 2e 24 cf bd f8 2c 3d be
       -0.15741776 -0.39061308 -0.101143226 -0.18474185
0002a0 be 6e b0 bb f5 82 d7 be b2 61 c5 bd 97 c7 2f 3d
       -0.0053842952 -0.420921 -0.096377745 0.042914953
0002b0 1d c7 a9 3d 8a 45 99 be 25 e0 4a 3e bc 57 2f be
       0.08289931 -0.29935867 0.19812067 -0.17123312
0002c0 cc c6 0d be 6e 1f 0b 3f b9 4d c0 bd 6a e5 94 bd
       -0.13845366 0.5434483 -0.093898244 -0.0727032
0002d0 58 9a f3 bd 04 9a 1d be 1b 6c ea 3e dd 58 ed be
       -0.11894673 -0.15390784 0.45785603 -0.4635686
0002e0 7d 25 21 3e ba 53 87 bd f6 e6 1b 3e 1c e4 a2 bd
       0.15736957 -0.066077664 0.15224823 -0.07953665
0002f0 31 c2 24 bd ab 20 83 be b9 1d 95 be d0 98 b2 be
       -0.040224258 -0.2561086 -0.2912424 -0.34882212
000300 b3 13 01 3e 9e bf 08 3e 01 0c 58 3e 2d 36 ee bd
       0.12605171 0.13354346 0.21098329 -0.11631427
000310 3e 60 3f be b3 7a d2 bd 31 0f 99 3d 36 cd 60 3d
       -0.18689057 -0.10277309 0.07473601 0.054883204
000320 c1 dd c4 3c e8 30 62 bc 77 19 9a bd e7 38 6c bd
       0.024031522 -0.0138056055 -0.07524388 -0.057671454
000330 48 4c 97 ba 3b 30 0c bd 99 29 20 bd be 3a e7 3d
       -0.0011543119 -0.034225684 -0.03910217 0.11290501
000340 1f 63 0a 3d 30 c6 22 3e 9d 43 a4 3d 19 84 19 be
       0.033785935 0.15895915 0.08020709 -0.14991798
000350 a9 aa 33 bc 34 b5 6e 3e 09 86 48 3d 61 43 a0 bd
       -0.0109659815 0.23311311 0.04895595 -0.078253515
000360 87 23 9f bc 6e d7 16 3b 04 f2 78 3d 51 e1 81 bd
       -0.01942612 0.002301659 0.06077768 -0.06341804
000370 8d 61 12 3e 07 45 bc 3c e7 f4 96 bd de 56 f4 bd
       0.14295025 0.022982134 -0.0737093 -0.11930631
000380 ef 7b 24 3d bf 5f 34 3d 7f 50 01 3e d1 c4 37 3c
       0.040157255 0.044036623 0.12628363 0.011216358
000390 30 b7 ee 3d 7e de 15 3d df 3d e6 3d ea 6d 2e 3d
       0.11656034 0.03658914 0.1124227 0.04258529
0003a0 00 65 c3 3d 53 2a 29 3e 9d 10 36 bd 6f a9 95 bd
       0.095407486 0.16520052 -0.044449437 -0.073077075
0003b0 3e 0b db 3d 9d 78 b6 bd a8 a0 68 3e b0 d1 0f 3d
       0.10695504 -0.08909724 0.22717535 0.035112083
0003c0 ac 9d 44 3e 43 fc 00 3e ac b5 61 be 83 a8 e5 bd
       0.19200772 0.1259623 -0.22041959 -0.11213782
0003d0 cb f2 9b 3c a1 40 4f 3d 6d 5a 2e 3e a3 54 88 bd
       0.019036671 0.050598744 0.17026682 -0.06656768
0003e0 a3 9c 9b bd 7e 51 d5 bd 45 27 6d 3e e7 91 8f 3d
       -0.075982355 -0.10415934 0.23159511 0.070102505
0003f0 a6 a7 39 3e c9 e8 0b 3e 15 3b 02 3e 16 2b 09 3e
       0.18130359 0.13663019 0.1271785 0.13395342

fc2.bias f4 [64]
000000 c1 dc bf 3d 16 42 6f 3e 74 cc da 3d 8c 08 42 3e
       0.09368277 0.23365054 0.106835276 0.18948573
000010 06 40 55 3d 07 57 c1 bd 33 f8 1c bc c7 71 7e 3e
       0.05206301 -0.09440427 -0.00958066 0.2484809
000020 0a a7 6d 3e 3d 97 8d bd f4 40 b7 bb 93 b1 f5 bd
       0.23208252 -0.06913612 -0.00559246 -0.1199676
000030 80 b3 1d be fe e5 61 3e e2 09 39 3d 70 67 e4 3d
       -0.15400505 0.22060391 0.04517544 0.11152542
000040 92 ee 25 3c 73 db 6f 3e 48 06 5a be 2c 20 ab bd
       0.01012768 0.23423557 -0.21291459 -0.08355746
000050 f0 c5 cd bd 3e d6 29 3e 2e b3 fd 3d 98 f4 51 3e
       -0.10047519 0.16585633 0.123876914 0.20503461
000060 f7 bc 8a 3e 46 25 80 bc 63 83 7b 3e 72 32 5f 3b
       0.27097294 -0.015642773 0.24561839 0.0034057167
000070 cc 81 28 3e a5 fb 28 be d4 f7 7d bd e7 01 b5 3d
       0.16455764 -0.16502245 -0.062003925 0.088382535
000080 21 1d 33 3e 42 c2 90 bd 5e 0b e2 bb bd 14 46 3e
       0.1749158 -0.07068302 -0.0068983277 0.19343849
000090 1e 5b 89 bd 8e 04 08 3c 9b a7 4f 3e 5c 70 c7 bc
       -0.06706832 0.008301867 0.2027878 -0.02434557
0000a0 69 20 02 3d fc 85 a7 3d 3f 07 61 3d 1a 67 36 be
       0.03176919 0.08179852 0.05493855 -0.17812768
0000b0 1c 6c 91 3e 7e 8c b5 3d 61 09 29 3e 85 23 0d 3e
       0.28402793 0.088646874 0.16507484 0.13783081
0000c0 69 90 f3 bd 2d 8e d3 bd 6c c9 e0 bd 41 9c b1 bd
       -0.118927784 -0.10329852 -0.10975918 -0.08672381
0000d0 1b 88 66 bd 07 85 d1 3d ff f6 47 3e 47 1c 26 3e
       -0.056282144 0.10230451 0.19527815 0.16221724
0000e0 14 af 91 bd 93 3d c1 bd 83 c6 29 be 48 85 1c 3d
       -0.071134716 -0.094355725 -0.16579632 0.038213044
0000f0 f4 43 91 bd 51 dc 65 3e a1 1e 71 3e 44 18 65 3e
       -0.07093039 0.22447325 0.2354684 0.22372538

fc3.weight f4 [64, 64]
000000 8f b6 b9 bd 19 43 1c bf d6 7a ee 3e 38 fe 6a bc
       -0.090680234 -0.6103988 0.4657809 -0.014342837
000010 30 5c 6e 3d 51 4b 55 3e a2 1d cf be 9c 3a cb bd
       0.058193386 0.20829512 -0.40452296 -0.09923288
000020 e4 bb 2b 3e 60 9b 32 3e 48 1c a2 3e e1 0c 00 bc
       0.16770893 0.17442083 0.31662202 -0.007815571
000030 2b c4 96 bd 71 29 22 bf 94 25 0c 3d 58 ab 46 3d
       -0.07361635 -0.63344485 0.034215525 0.04850325
000040 c8 45 74 3e 2c 44 1f 3e 3c 8f df 3e c9 08 01 3e
       0.23854744 0.1555335 0.43663967 0.12601008
000050 da e6 1f be 87 19 db bd f1 97 a3 3d ef 67 56 3e
       -0.15615407 -0.10698228 0.07987965 0.20938085
000060 e7 78 84 be a4 db 1a bf c8 88 5a 3d f8 4d a3 3d
       -0.2587349 -0.60491395 0.0533531 0.07973856
000070 98 34 c3 3d 84 a8 3a be d9 14 00 be e9 52 0a 3e
       0.09531516 -0.18228346 -0.12507953 0.1350819
000080 5d 88 b3 bb 97 d7 82 bc a3 b3 53 bc be a9 6d 3e
       -0.0054789023 -0.015971942 -0.012921247 0.23209283
000090 3d 2e 53 3e 90 4d 07 bd 4f 45 4a 3d 57 55 f6 3e
       0.20623107 -0.033032954 0.049382504 0.48111984
0000a0 39 d1 6d 3d d6 bd 3c be 41 d7 04 bf a2 6d ae 3c
       0.05806086 -0.18431792 -0.5189095 0.021292511
0000b0 f4 5e 92 3e 36 05 3a 3e ef 22 27 3d 78 08 7b 3d
       0.28588068 0.1816605 0.0408048 0.061287373
0000c0 96 48 ae 3d d3 87 33 3e 0a 43 23 bf 58 98 c4 3d
       0.085099384 0.17532282 -0.6377417 0.0959937
0000d0 dd 9c 06 bb f2 b6 ac 3e a6 e9 1c 3d 87 e9 c5 be
       -0.0020540275 0.33733326 0.038308762 -0.3865473
0000e0 36 bc f7 3e aa 53 05 bd 86 8f 14 be 6b 26 91 be
       0.4838578 -0.03255049 -0.14507875 -0.28349623
0000f0 c7 52 80 3e a7 48 7e bd db c7 5e bf 51 de ab 3d
       0.25063154 -0.062081005 -0.87023705 0.08392013
000100 92 4b e7 bd 58 b1 dc bc 15 3e 5b 3e c5 b1 41 3d
       -0.11293711 -0.026940033 0.21410401 0.047288675
000110 58 38 e8 3c fd e2 10 3e 97 95 11 3e c1 37 a7 bc
       0.02834718 0.14149089 0.1421722 -0.020412328
000120 e2 d2 0d 3e 06 23 0d bf 91 c9 7d 3e c1 1d 1b 3e
       0.13849977 -0.55131567 0.24783923 0.15148069
000130 a6 4a 85 bd 05 1f ef 3d f1 fe 30 bf 88 4a a5 bc
       -0.06508379 0.116758384 -0.6913901 -0.02017714
000140 59 3f 4b 3d ba d3 66 3e 83 ad 11 be d3 2d 0d 3e
       0.04962096 0.22541705 -0.14226346 0.13787012
000150 eb bf ae bd 6c 7f 42 be 57 27 34 bf 83 9b 66 3e
       -0.08532699 -0.1899392 -0.7037253 0.2252026
000160 e9 fc 71 3d da 8c e7 be a5 f5 0d bf 68 de c4 3d
       0.059079085 -0.4522465 -0.5545295 0.09612733
000170 eb 62 a5 be 24 95 ff be 7a 3e 71 bf 36 dc b6 bb
       -0.3230203 -0.49918473 -0.94235957 -0.0055804504
000180 b2 62 a0 bd 80 f8 25 be 0b 7e 14 bf 68 e7 d2 be
       -0.07831325 -0.16208076 -0.58004826 -0.41192174
000190 dc 57 7e bd df dc 19 bd 3d d8 19 3d f6 d8 f4 3e
       -0.062095508 -0.037564155 0.037559737 0.47821778
0001a0 94 0b 98 bd eb ad fa 3d b6 59 84 bd ca cd da 3d
       -0.07424083 0.122402035 -0.064624235 0.106837824
0001b0 51 84 a0 bd 93 ac e8 be af 39 8a be 90 80 bd be
       -0.07837737 -0.45444164 -0.26997134 -0.37012148
0001c0 fa b6 78 bd 78 88 98 3d 22 97 fd 3d 3c e0 2c 3e
       -0.060721375 0.07447904 0.12382342 0.16882414
0001d0 80 31 c7 3a b3 16 93 3d 3f 02 8b 3e d9 d1 1b 3d
       0.0015197247 0.07182064 0.2715015 0.038041923
0001e0 aa 82 0b 3d fc 6d d1 bd 80 92 d2 bb 72 c7 82 be
       0.034060158 -0.10226056 -0.0064261556 -0.2554279
0001f0 10 f0 5c bf 29 3d e7 3d fc e4 01 be 20 af 83 bd
       -0.86303806 0.11290962 -0.12685007 -0.06429887
000200 38 af 35 3d 53 a7 fe bc 61 3e cf bd ea 86 34 3e
       0.044356555 -0.031085646 -0.1011932 0.1762959
000210 92 65 fd 3c 53 ac 53 be 22 ed 40 3d 1b 61 14 3e
       0.030932222 -0.20671205 0.047101147 0.14490168
000220 21 e5 b9 bc 12 86 1c bd ef 0e 35 bb 86 26 81 3e
       -0.022692265 -0.038213797 -0.002762731 0.25224704
000230 a8 e5 de 3c 1c 9f e7 3c 28 f9 41 bc 68 20 ac 3d
       0.027209118 0.028274111 -0.011839189 0.084046185
000240 a1 c6 90 bc b3 89 ad 3c 7b df fa bd c8 67 fe ba
       -0.017672839 0.021183824 -0.12249657 -0.0019409591
000250 59 ee 24 be 64 14 76 3b 1b 51 ca 3b 26 21 4b 3e
       -0.16106547 0.0037548775 0.0061742193 0.19836864
000260 51 ff 19 3e 68 91 6d bd 03 22 87 3b 47 fa 45 3e
       0.15038802 -0.058 0.0041239276 0.19333754
000270 92 56 b9 3d ce 12 05 3d 85 75 6e be 90 ba 2c 3e
       0.09049715 0.032488637 -0.23287018 0.16868043
000280 d0 bd cd 3d 11 15 d8 3a 72 18 1a 3d 95 5c 0b 3e
       0.100459695 0.001648577 0.03762097 0.13609536
000290 65 6e 15 3e ba b7 e9 3d 17 d4 66 3e 4f 0b 6f 3d
       0.14592893 0.11411996 0.22541843 0.058360394
0002a0 97 da 04 be 73 11 32 3e 0d f3 49 3d fa f7 0b bd
       -0.1297401 0.17389469 0.049304057 -0.034172036
0002b0 29 1d b8 3e c1 e9 1e 3e fb ff 34 3d 0d f7 12 3e
       0.35959747 0.15518858 0.044189434 0.14352055
0002c0 f2 14 54 bd 33 f1 9e 3d 0f 21 f9 bd 93 e0 1a bd
       -0.051777788 0.07760849 -0.121645086 -0.037811827
0002d0 67 dd d5 3d 14 2c a1 3e 24 2b 3a 3d ab 52 52 3e
       0.1044262 0.3147894 0.0454513 0.20539348
0002e0 26 cc c7 3d 58 3a cd bc 1b fd 93 bd 86 a9 36 3e
       0.09755735 -0.025052235 -0.072260104 0.17838106
0002f0 be cb 2a 3d ae 56 1d 3e 05 46 9d 3d f6 63 26 3e
       0.04169821 0.15365097 0.07679371 0.1624907
000300 56 d9 ae bd a9 ca 04 be 35 30 b3 bd 80 78 2b bd
       -0.08537547 -0.12967934 -0.08749429 -0.041862965
000310 36 ed 8f 3d 81 ae 0b 3c 8b 85 2f bc b6 3c 50 3c
       0.07027666 0.008525492 -0.0107129915 0.012709787
000320 bb 76 28 be a5 7c 8f bd ef 16 1f be ca 37 a7 3d
       -0.16451542 -0.07006196 -0.15536092 0.08164938
000330 b0 a6 b2 3d df 3d 51 bd 1c 72 36 bd d7 36 38 bd
       0.08723199 -0.051084395 -0.044542417 -0.044974174
000340 61 d3 9e bd 28 07 7d 3c dd 76 2e bd 30 79 37 bd
       -0.07755161 0.015443601 -0.042593826 -0.044793308
000350 a3 45 32 3d 26 00 24 be 33 0b 3a 3c f8 cf 1a be
       0.043523442 -0.16015682 0.011355209 -0.15118396
000360 c8 67 6c be b0 96 ef 3d a9 5b 0b bd d7 f2 82 bd
       -0.23086464 0.11698663 -0.03402296 -0.06393974
000370 0d c6 2f 3d 87 90 9e bd 1d 7a 45 bd 6c f8 9b bd
       0.042913485 -0.0774241 -0.04821216 -0.07615742
000380 f6 0e 32 3d 26 e8 a5 3c a9 f2 94 bd 4f c0 10 be
       0.0434713 0.020252299 -0.07272846 -0.1413586
000390 c7 b6 31 bd 51 a8 1e 3e 18 cd fa bd 7b 87 44 bc
       -0.0433872 0.15493895 -0.1224615 -0.011995192
0003a0 0a 51 e9 bd 90 43 f5 3d 28 8c 30 be da 66 95 bd
       -0.1139241 0.11975777 -0.17240965 -0.07295008
0003b0 b7 e0 96 bd 4e 0b bb bd b8 c6 54 be 4c 80 95 bd
       -0.0736708 -0.091330156 -0.2077893 -0.07299861
0003c0 f8 f5 21 3d a8 f3 d5 bd d9 09 be bd 5d 97 9c 3c
       0.039541215 -0.10446864 -0.09279222 0.019115144
0003d0 59 c3 0c 3e 18 dd a5 bc 2a 87 d6 bd 62 51 45 3d
       0.13746394 -0.020247027 -0.10474999 0.048173316
0003e0 fc 3e 2e bd 62 b2 9a 3c 04 96 0f 3d 2f 34 b6 3c
       -0.042540535 0.018883888 0.035055175 0.02224168
0003f0 47 98 02 3d 90 32 5f bd 4e 31 cd 3c f2 08 51 be
       0.031883504 -0.05449158 0.025047924 -0.20413569

fc3.bias f4 [64]
000000 e3 8b 06 be 47 79 24 be c3 d0 6a 3e c9 1f 5e 3d
       -0.131393 -0.16061889 0.22931199 0.05422953
000010 ca 1d 8d 3e 6a e6 5d be 79 0c 23 3c 5b 5b f3 3d
       0.2756179 -0.21669927 0.009951704 0.11882659
000020 11 38 86 3e b0 64 c1 3d b2 86 a0 3e 05 70 a0 bd
       0.2621465 0.09443033 0.31352764 -0.07833866
000030 a1 0c 88 bd 7d 75 93 3e d0 c0 3d be 14 2b f1 3c
       -0.06643034 0.28800574 -0.18530583 0.029439487
000040 f8 ec 01 be 54 4a 9c bb dd 90 b7 3c d3 2b 92 3e
       -0.12688053 -0.004769603 0.022407943 0.2854906
000050 71 01 17 be 36 3c 11 3c 9b 41 56 3e d0 d4 a0 bd
       -0.14746644 0.008864453 0.20923464 -0.07853091
000060 62 f5 0a 3d ba 32 a3 3e 77 2f 91 bd b5 9e d2 bd
       0.03392542 0.3187464 -0.07089131 -0.10284177
000070 21 3a 01 3d e2 68 4d 3e 4d 33 96 3e f8 cc 4d be
       0.031549577 0.20059541 0.29336014 -0.2009772
000080 c3 5a 81 3e 76 5e d7 bd f1 1f db bd 0f 26 2a be
       0.25264558 -0.10516064 -0.10699452 -0.1661608
000090 8e 17 3b bd 9e ab 52 3e 98 c9 89 3d c4 72 a4 3d
       -0.04567676 0.2057328 0.06727904 0.08029702
0000a0 f5 eb 6c 3e 94 fd 2e be c5 c7 41 3e cb 51 2f be
       0.23136885 -0.1708892 0.18923862 -0.17121045
0000b0 b9 d4 a4 3d 30 af 1e be f6 b2 81 3c 0a 01 f0 bc
       0.08048386 -0.15496516 0.015832406 -0.02929737
0000c0 a8 40 5e 3d 9c ee 87 3e ba cf d6 bd 55 9f ab bc
       0.05426088 0.26549232 -0.104888394 -0.020949999
0000d0 9b c8 42 be 73 3d 6e 3e a8 f3 2c be 74 c0 ae bd
       -0.19021837 0.23265629 -0.16889822 -0.08532801
0000e0 8b 87 13 be 28 14 16 be f2 0e ae 3d 36 98 96 3d
       -0.14407174 -0.14656126 0.08498944 0.07353251
0000f0 90 1a d0 bd 4a 77 a8 3e 1c c6 a0 bd 1c 32 2f bd
       -0.101613164 0.3290351 -0.07850286 -0.042772397

q_out.weight f4 [1, 64]
000000 fe 72 07 bf 6b 73 07 bf bf eb 4b 3e ce 7e 44 3b
       -0.5290984 -0.5291049 0.19914149 0.0029982808
000010 a0 a8 52 3e 79 0d 8a be aa a9 03 be 71 1a 2e 3e
       0.20572138 -0.26963404 -0.1285769 0.17002274
000020 6b 80 17 3e aa 35 4e 3e 10 cf 2d 3e 6a 11 e2 bd
       0.14795081 0.20137659 0.1697352 -0.11038478
000030 02 06 8d bc 69 a1 97 3d a2 2a 2b bf 86 5e 87 bc
       -0.017214779 0.074038334 -0.6686193 -0.016524564
000040 83 9c ae 3d db 35 f3 be 96 52 b5 bc 4a d5 97 3d
       0.08525946 -0.47502026 -0.022134107 0.074137285
000050 9f 35 05 be 04 95 8d bc 57 33 20 3e 0a 88 fc be
       -0.13008736 -0.01728297 0.15644585 -0.4932254
000060 53 bc ba 3e 9b 25 39 3e bb 2c aa bd 10 74 fc be
       0.36471805 0.18080752 -0.08309313 -0.493073
000070 7f 63 6e 3f f9 fd 53 3e da d1 15 3e fe b2 aa 3d
       0.9312057 0.20702352 0.14630833 0.08334921
000080 a9 9f 66 3e 36 cb 30 3c bd ba a1 bd 23 28 46 3d
       0.22521843 0.010790637 -0.078969456 0.04837812
000090 8a 1b b0 be 31 0c 5b 3e 67 7d 64 3c 11 55 14 3f
       -0.3439601 0.2139137 0.013945914 0.579423
0000a0 2d e9 8c 3e f5 59 0a bc 6e 83 0e 3e cf 5e 0e 3c
       0.2752165 -0.008444299 0.13917324 0.008689596
0000b0 a2 3a fe be 37 92 0d bf 94 ef 23 bd 98 a6 f8 be
       -0.49654108 -0.5530123 -0.0400234 -0.485646
0000c0 8c 37 1a 3c e0 16 38 3e f6 22 a4 bc 0a 5b 0b 3f
       0.0094126575 0.17977476 -0.020036202 0.5443579
0000d0 6f 39 29 bf 99 97 d0 3d 2e d4 9d be 16 27 c2 be
       -0.6610326 0.10185165 -0.30825943 -0.37920445
0000e0 91 c2 24 bd 31 fb be bd df 6c 15 3e 3d b1 7d bd
       -0.040224615 -0.09325255 0.14592312 -0.061936606
0000f0 c8 1e b0 3e 4b 22 19 3e b4 f0 19 bf 4e b1 e7 be
       0.34398484 0.14954488 -0.6013291 -0.4525246
