Assets/Python/maddpg/model/single_agent_single_object_1122j/agent_0/actor_params.pkl (torch, 43201 bytes, 8 tensors)

fc1.weight f4 [64, 24]
00000000: 5f1a f9be 51f5 63be 857f 9e3e e160 98be
00000010: 8b3a ee3e 50ba 02be cda2 a93d 82dc 4abb
00000020: c6af 643e 1061 343e 766b a83e 9ffd af3d
00000030: 4202 e1bc 7b04 fbba 3cfc 6e3e 8534 d6be
00000040: 9c82 eb3d 0daa f3bd 1634 72bd 6cb1 3d3e
00000050: 8586 9c3c dea8 acbe 5487 f73e 21ae 44bb
00000060: a583 d3be 502f 07bf 71be f8bd 0798 c9be
00000070: 67ff f03e e001 8fbd 6246 54be f1e1 b73c
00000080: d05b 21be 7f18 aabe 17be d13e 6e6d abbd
00000090: 3fe1 4e3e c9c3 113f 1308 9a3e c5fa 97be
000000a0: 42d6 d1bd 97d2 a23e a533 9bbd 6141 bd3e
000000b0: 1eec 49bd 2520 0abe 9af8 ab3e f90c 9e3e
000000c0: e668 5b3c d8eb da3d 7138 c13e 8700 373e
000000d0: 1377 85be f6a4 34bd e76f ce3e 2714 d2be
000000e0: 260a 1a3c 0483 b83e 0cc7 203d 3cee a73e
000000f0: c867 253d dc20 f9be 5118 79be acb7 373e
00000100: c2f8 1fbe 80b2 d03d 1b68 823e 0d8d f23c
00000110: fb91 ecbd e3f7 2e3d 2ec2 ac3c 89f2 483e
00000120: 9701 183f 725b 653f 4547 b73e 6aaf 03be
00000130: bba0 edbd 1818 8bbd 092c 44be e8f3 1b3e
00000140: f732 453d 2413 9a3d 2eb6 913e 8ac5 233e
00000150: c0af 253d f138 373e f71f 02bc 5df6 2cbe
00000160: 50ae 26bd db38 3e3e 5039 8abe b31a a93e
00000170: 755b 4cbe fddd b6be fc1b a33d bab5 cf3a
00000180: a6c8 883e 2fd6 11bf 6377 163e 3dc0 753b
00000190: c28c 6fbc a3de 94be 4ede 4cbe 4d9d d73d
000001a0: 1b04 bd3d 78a4 be3d e4fd b5bd 16ef 7e3e
000001b0: 9074 693e b64e c73d 9329 e6bd 0947 c43c
000001c0: 5590 c03d 51e4 083e e6d3 21bd b0f2 9d3d
000001d0: ad7a 84bd f483 da3d 99c2 0b3e c36c 37be
000001e0: f859 c8bd 6c67 57be 7efc 183f ec93 093e
000001f0: b369 8b3e 96b5 f8be 59cb dc3d d96c 773e
00000200: 450c a63d b847 8c3d e85b eb3e 393c 18bc
00000210: 1912 2f3e 1b9d 8c3e b029 fbbe a64d 46bc
00000220: 99d8 a1bd c29a 4cbe 4b51 363e 21c5 acbd
00000230: 3058 a3be 2a45 813d d925 e23e 449b b9bd
00000240: 77b7 04be 82ad bd3e d208 9f3e f88e 30bd
00000250: 4a1d 1d3e bc50 c4be d563 5abd 9fe2 043e
00000260: 4f69 70be 8e8e 1c3e b022 80be 46bb 74be
00000270: df85 1f3e 9777 343e 883e c8be 8eae 33bd
00000280: d80c b0bd 03d4 bbbe 1d53 b63d 307e 743e
00000290: b738 85be 70f8 5ebe 83a4 2f3a 7c9d b1be
000002a0: fac3 35bf 4fb2 b73e 0f1e e0be dbbe 3abd
000002b0: 28d7 51be 7548 41bd 7d47 7cbe c6a5 4c3d
000002c0: 376e 7fbe 8d6a 353e 64c9 c6bd 3fb1 9b3d
000002d0: 4b38 1b3e be11 213e 6dd3 1abe 5871 043e
000002e0: f2be 8d3d bcee bebe 7ec6 53be 0311 ebbd
000002f0: 0b3d 483d 54cf 9abd 4640 48be fe63 c23c
00000300: f4b2 a9be 6f9f 9bbe d164 84bb c9b0 043f
00000310: b6d6 c23d be51 003e 6802 413e 22c0 36be
00000320: 16f8 f13d f21e 8c3e d576 4bbe 84b1 d33b
00000330: 7475 173e 6080 ddbe b3ed 2f3e 3851 143f
00000340: cf27 11be 0acb 573e 1f8f 393e ce77 83bd
00000350: e8b2 0a3e c8aa c43e 2c45 e5be 9cb1 243e
00000360: 2aac 31be bc74 bbbd d04f 733e 0f37 7bbe
00000370: 8c24 113d ce3b f83d 5775 363d 16d1 513e
00000380: 1116 0cbd da13 cebd da68 173e 1d10 eb3c
00000390: d128 35be fb28 063f 1872 a9bc b416 abbe
000003a0: 9b7b 5cbe 1caa eb3c 1a14 c0bd 4a59 ca3e
000003b0: 2561 ae3d 3dc6 a0be 24aa e53c bcc8 31be
000003c0: a034 00be 9aab 35bf 801b cebe bcc3 8f3e
000003d0: 9226 c23c 68e3 c7bd 1a6d 363d 76b2 753e
000003e0: f9ab 5ebe 91fe e5bd b295 ae3d f909 063e
000003f0: b367 523e 1657 513d feab 43be ceb3 1ebc
-0.48652932 -0.2226155 0.30956665 -0.29761413 0.4652904 -0.12766385 0.08283005 -0.0030954187
0.22332677 0.17615151 0.32894486 0.08593296 -0.027466897 -0.0019151116 0.23338407 -0.41836944
0.11499521 -0.11897669 -0.059131704 0.18524712 0.019107113 -0.33722585 0.48345435 -0.0030011015
-0.41311374 -0.5280657 -0.12145699 -0.393738 0.47069857 -0.069827795 -0.20729974 0.022446604
-0.1575768 -0.33221814 0.4096534 -0.083704814 0.20203112 0.5693937 0.30084285 -0.2968351
-0.102459446 0.31801292 -0.0757821 0.36963943 -0.049297445 -0.13488825 0.33588105 0.30869272
0.013391709 0.10689515 0.37738374 0.17871295 -0.2606741 -0.04410263 0.4031975 -0.41031
0.009401834 0.36037457 0.039252326 0.32798946 0.040382177 -0.48657882 -0.24325682 0.17941159
-0.15622237 0.10190296 0.2547005 0.029608274 -0.11551281 0.042716872 0.021088686 0.1962377
0.59377426 0.8959266 0.35796562 -0.12859884 -0.116029225 -0.06791705 -0.19157423 0.15229762
0.048144307 0.07523182 0.28459305 0.15993324 0.04045081 0.17892815 -0.007942191 -0.16890855
-0.04069358 0.18576376 -0.2699685 0.33028182 -0.19956763 -0.3571624 0.07964322 0.0015847005
0.26715583 -0.56967443 0.1469398 0.0037498616 -0.014620962 -0.29076108 -0.20006678 0.105280496
0.09229299 0.09308714 -0.088863164 0.24895892 0.22798371 0.0973181 -0.112383984 0.023959653
0.09402529 0.13368346 -0.039508723 0.077123046 -0.06468711 0.10669699 0.13648452 -0.17912583
-0.09782785 -0.21035546 0.5976027 0.13435334 0.2722908 -0.4857604 0.10780973 0.24162616
0.08107809 0.06849617 0.45968556 -0.009291702 0.17096747 0.27463612 -0.49055243 -0.012103474
-0.07902641 -0.1998091 0.17804448 -0.08436037 -0.3190322 0.0631202 0.441695 -0.09062818
-0.12960611 0.37046438 0.31061417 -0.043105096 0.15343204 -0.38342845 -0.053317863 0.12977074
-0.23477672 0.15288755 -0.25026464 -0.23899564 0.15578412 0.17623745 -0.39110208 -0.04386764
-0.085962 -0.3668519 0.08902571 0.23876262 -0.26019832 -0.21774459 0.00067002344 -0.34690464
-0.7100216 0.35878226 -0.43772933 -0.04559217 -0.20492232 -0.04718824 -0.24636646 0.04996278
-0.24944387 0.17716427 -0.09706381 0.076021664 0.15158193 0.15729424 -0.15119715 0.12933862
0.069211856 -0.37291515 -0.20681188 -0.11477854 0.04888634 -0.07559076 -0.19555768 0.02372932
-0.33144343 -0.30395076 -0.0040403386 0.5183225 0.09513609 0.12531182 0.18848574 -0.1784673
0.11814897 0.2736736 -0.1986955 0.0064603705 0.14790899 -0.43262005 0.17180519 0.5793643
-0.14175342 0.21073547 0.18121003 -0.06419335 0.1354481 0.38411546 -0.44779336 0.16083378
-0.17350832 -0.09153125 0.23760915 -0.24532722 0.035435244 0.12120782 0.044545498 0.20489916
-0.03420073 -0.1006238 0.14786091 0.028694207 -0.17691351 0.5240628 -0.020684287 -0.3341576
-0.21531527 0.028767638 -0.09378834 0.39521247 0.085146226 -0.31401244 0.028035231 -0.1736173
-0.12520075 -0.7096497 -0.40255356 0.2807902 0.023700032 -0.09760171 0.04453764 0.23993859
-0.2174529 -0.11230195 0.08524646 0.13089742 0.2054737 0.051108442 -0.19108579 -0.009686423

fc1.bias f4 [64]
00000000: cf35 8cbc 69cb 903d 5da2 0a3e 8b17 08be
00000010: c302 da3d 15cc c93e aa3a ab3c f642 b03d
00000020: 51d1 f6bc 79fd 4b3e 1ef5 783e 6738 92bd
00000030: b26b 0b3e fee3 6f3e 9e37 993d 15dd e8bd
00000040: 8016 a93e 93af b73c aa59 093e a054 243e
00000050: 1996 763c c96c 3cbe ae99 923c d967 573e
00000060: 91c5 2fbd 8c5f 82bb fa18 54be b66d a53d
00000070: 4525 1a3c a3ba 2d3e d419 113e a40a ea3d
00000080: 279d 0ebd 4a08 373e 59b8 36be e5d7 a73b
00000090: 1c90 6f3d 14b8 bebd 4587 c03c a96d 173e
000000a0: 8334 d33c 3335 07bd e1dd 67be 0439 823e
000000b0: 3037 40be 59a8 c13a d277 3d3e eb47 623e
000000c0: 1a44 ecbd a67e 113e 9732 543e bc47 143e
000000d0: f218 4e3e 5073 a73e 6dbd c2bd 1474 113d
000000e0: 1f95 913e ab41 3b3e 2220 e43c 4a18 683d
000000f0: 6d30 8e3d 5f01 823d 4e89 463e ad39 573e
-0.017115502 0.070700474 0.13538499 -0.13290231 0.10645058 0.39413515 0.020901997 0.08606522
-0.030129107 0.19920911 0.24312255 -0.07139664 0.13615301 0.23426816 0.07481311 -0.11370293
0.3302498 0.022422587 0.1341311 0.16047907 0.0150504345 -0.18400873 0.017895546 0.21035708
-0.042913023 -0.003978675 -0.20712653 0.08077566 0.0094083 0.16965728 0.14170009 0.11427811
-0.03481784 0.17874256 -0.1784376 0.005122172 0.058487043 -0.09312454 0.023502002 0.14787926
0.025781875 -0.03300972 -0.22643234 0.25434124 -0.18771052 0.0014774903 0.18502739 0.22097747
-0.11536427 0.14208469 0.20722423 0.1448049 0.20126703 0.32705164 -0.09508786 0.03551109
0.28434083 0.18286769 0.027847353 0.05666379 0.0694283 0.06347918 0.19388315 0.21018095

fc2.weight f4 [64, 64]
00000000: 3071 f3bd 0ed0 9a3e 08aa b6bd 3424 673e
00000010: 8a6b a4bd 56aa 03be c640 55bd ad4a 5e3e
00000020: e60d d83e 2a4b fc3c 2837 4e3e 6eb2 df3c
00000030: eb10 f93d 0a9e 05be 6754 90bd 84e3 4c3e
00000040: 3286 fd3d 1554 dd3d 8973 413e e819 40be
00000050: 5659 063f 280c c03d 8158 903e 36d3 d23a
00000060: e620 953d 3196 f0bd dea1 34bd 1d11 993d
00000070: c29f 8e3e f215 483d ee96 3c3e df7a 1d3d
00000080: 0c63 9bbc 065e 783e d835 003f 8cb2 c0bd
00000090: 115b af3d fc5e bcbd c942 da3e d8e8 6bbc
000000a0: 9aa0 4e3d 13ad e5bd 4291 13bd 9e78 853e
000000b0: 883d 9fbe 461b 8cbe 9e52 09be c4f7 363e
000000c0: 1867 11be 723d 363e f081 8d3e debd 033e
000000d0: b061 0e3c e9d6 863d 279c 52bb a9b7 a13e
000000e0: 0b1d 0bbe e912 f63d 34e9 70bd f45f 343d
000000f0: 27d7 3c3c cfcd 4b3e 9905 3cbe 9892 f13d
00000100: 7446 20be 1564 ac3d 3346 883c 3071 99be
00000110: f8f8 a3bd c2ea 803d 1b8c 75bd 62f3 b5bd
00000120: 5a31 3b3e b8de 023d 1ca1 dcbc 4900 afbd
00000130: 15d8 c23d 747d 8c3d 32ab cf3d 9464 98bd
00000140: 1077 a63d b8d1 5fbe ccd3 1d3e e284 5ebd
00000150: 66d2 e83d f1f6 b7be a06d 0c3e a59b 903e
00000160: 1626 f53c aecb 333e 4d49 843e 58c9 bcbb
00000170: 703e 293c 070c 163e 169e 763d 5e15 0cbd
00000180: 06ea 043e 279e eb3d 32fe ec3b f061 54bd
00000190: 8703 363e 8a46 ae3c 2a46 cc3c 8f6b 313e
000001a0: 6082 193c c4d4 503e d656 3a3e 5af3 9dbd
000001b0: 0e7c b9bc 58b7 4fbd 815a bd3d 0158 033e
000001c0: 8ef3 a83c ced4 ebbd 7bfa 053e ae28 573d
000001d0: 1683 683e f79b 183c 229b 4f3d 756b 4b3e
000001e0: f6c7 1f3e 2a54 903d a684 033d 5bc5 083d
000001f0: 240e 653e 64f8 a6bc 707b 393d e599 783e
00000200: 5560 a43e 671d 6abc f096 563e 5bad 1fbe
00000210: 8564 d03c 5d99 683e 2807 d1bd bc6c 16be
00000220: 3868 913c c31f 0e3e 6ae6 013e a24d 8fbe
00000230: d0e8 1bbd f390 25bd e79c 1c3e d862 50bc
00000240: a167 663e 67e9 7abe f118 b13e b45f 20bd
00000250: 445e 54be 0e4a abbe 6886 2c3b 75ab 2c3e
00000260: 94d1 a1bd eceb 9d3d e203 e53d dd7b a23d
00000270: d3ff ee3d 3229 243e 09bc 70bd 64cf ef3c
00000280: c0d1 123e 58fe cd3c b763 8d3d 9e0a 103e
00000290: a428 d43d 1124 4bbb 6b6d 22be 56ce 9f3e
000002a0: 7f71 8d3e 60a8 113e dfc7 39be 73a1 ce3d
000002b0: 2808 953e 707b 6d3e 8a30 e93d 3c9f 693d
000002c0: 877c 973d a8fa 34bd 5e5f 763e 216a 5ebd
000002d0: 176a 843e d705 213e 7fa7 ca3e 109e 4a3e
000002e0: d705 513e c522 7b3e 867e 8a3d fe38 773d
000002f0: 0fdd 2e3e 3dd9 8bbd dac4 423d d71d 173e
00000300: 6831 b63e ad09 163d 66dc f73d 6156 1a3d
00000310: 6fab 1b3e 8a27 70bd 83c4 913d 32b3 22be
00000320: 4c03 81bd 3d50 02be 3d1a 7fbd 75ba 6bbd
00000330: 3987 21bd 0c4e 313e 8b2a a3bd 40e8 7cbd
00000340: cfdc ce3c cb31 80be cce2 1b3e 0ea0 003e
00000350: 94cf 33be ce07 4dbd b6e7 b2bd d60f 9c3d
00000360: f5ef 90bc 4326 8b3e 3b10 1e3d d72c 373e
00000370: 7c5d 84bd 545e 383e aa0f 40bd f30e 403c
00000380: 1637 76be e2c7 7c3e 9b16 ddbe 4978 4fbc
00000390: c384 6f3e b02f 113d e3ff 8dbe 0ac3 1a3e
000003a0: 5c17 853e 00e4 293e 0006 b0bd 91f4 fa3c
000003b0: 151b a73e cafa 273e 559c 8d3e 533e 3c3e
000003c0: 08b7 ca3d 70af 553d e8bc a63d 0b75 00bd
000003d0: 0fee ee3d 3530 91bd cfea 4d3e 7b96 483d
000003e0: 1a49 7c3e 1ef6 103e 4078 403e 68d4 053e
000003f0: 198d a03d 7b97 02ba aa49 273e 5f9a 29bc
-0.11886823 0.30236858 -0.0891915 0.22572404 -0.08028324 -0.12857947 -0.052063726 0.21708174
0.42198104 0.03079756 0.20138228 0.027306762 0.1216143 -0.13048568 -0.070473485 0.20008665
0.12379111 0.10807053 0.1889173 -0.18759882 0.52480066 0.093773186 0.28192523 0.0016084674
0.072816655 -0.11747397 -0.04409968 0.07473967 0.2785626 0.048849054 0.1841695 0.038447257
-0.018968128 0.24254617 0.5008216 -0.09409055 0.085622914 -0.09197804 0.42629078 -0.014398776
0.05044613 -0.11214652 -0.0360272 0.26068586 -0.31101632 -0.27364558 -0.13410422 0.17867953
-0.14199483 0.17796877 0.27638197 0.12865397 0.008690283 0.065839596 -0.003213653 0.31585434
-0.13585298 0.120153256 -0.05881615 0.04403682 0.011525906 0.19902728 -0.1836151 0.11795539
-0.15651876 0.08417527 0.016635036 -0.29969168 -0.080064714 0.062947765 -0.059948068 -0.08884312
0.18280545 0.031950682 -0.026932292 -0.08544976 0.095138706 0.06859866 0.10140075 -0.07441059
0.08128178 -0.21857345 0.15412825 -0.054325946 0.11368255 -0.3593059 0.13713694 0.28243747
0.029925387 0.17558166 0.25837174 -0.0057613067 0.010329828 0.14653026 0.060209356 -0.034200065
0.12979898 0.115047745 0.007232451 -0.051851213 0.17774783 0.02127387 0.0249358 0.17326187
0.009369463 0.20393664 0.18197188 -0.07712431 -0.022642162 -0.05071196 0.09245778 0.1282654
0.020623948 -0.11515199 0.13083832 0.05252903 0.22706255 0.009314529 0.050685056 0.1986521
0.15603623 0.07047303 0.032108925 0.033391338 0.22368675 -0.020382114 0.045283735 0.24277456
0.32104746 -0.014289237 0.20956016 -0.15593474 0.025438556 0.22714753 -0.10206443 -0.14689916
0.01774989 0.13879304 0.12685552 -0.27988917 -0.038063824 -0.040421437 0.15294228 -0.012718879
0.22500469 -0.24503098 0.3458934 -0.03915377 -0.20739084 -0.33454937 0.002632523 0.1686228
-0.07901302 0.07711014 0.11182381 0.07933781 0.11669888 0.1603134 -0.058773074 0.029273696
0.14337826 0.025145695 0.06903785 0.1406655 0.10359314 -0.003099684 -0.15862052 0.3121211
0.27625653 0.14224386 -0.18142651 0.10089388 0.29107785 0.23191619 0.11386211 0.057036623
0.073967986 -0.044184357 0.24059817 -0.05430043 0.2586219 0.15724884 0.39580914 0.19786859
0.20412384 0.24524982 0.06762414 0.060357086 0.17076515 -0.06828544 0.047551014 0.14757477
0.3558457 0.03663032 0.121025845 0.037680034 0.15202115 -0.058631457 0.0711756 -0.1588867
-0.06299457 -0.12725921 -0.062280882 -0.057550866 -0.0394356 0.17314929 -0.07967099 -0.06174493
0.025251774 -0.2503799 0.15223235 0.12561056 -0.17559654 -0.05005627 -0.087356016 0.07620208
-0.017692545 0.2717763 0.038589697 0.17888199 -0.06463143 0.18004733 -0.04688994 0.011722314
-0.24044451 0.24685624 -0.4318131 -0.012662956 0.23390488 0.03544587 -0.2773429 0.15113464
0.25994384 0.16590881 -0.085948944 0.030634196 0.3263785 0.16404262 0.27658334 0.1838315
0.09898192 0.052169263 0.081415 -0.03136162 0.116665 -0.07089273 0.20109104 0.048971634
0.24637261 0.14156386 0.18795872 0.13069308 0.07839412 -0.0004981679 0.16336694 -0.010351746

fc2.bias f4 [64]
00000000: 2d87 963d 6763 c53b aded 583e ab69 9e3d
00000010: e156 ac3d 1693 e83c b55a ba3d 2f46 ad3c
00000020: 2754 873d ec5d f2bb 19d8 cc3d fef7 813d
00000030: 77cc 293d 1d29 283e c4c2 2fbc 0d72 8f3d
00000040: ad3f 1abd 7ec1 c1bd 61c0 193e c78b fb3d
00000050: 8710 df3d ae1e 123e a1e0 8b3d cc56 f9bd
00000060: c32b d23c 522b 3f3e b51d 2c3e d327 dbbd
00000070: 3934 043e 7625 c83b ea5f be3c e97e edbd
00000080: 7e47 fcbb feb5 c43d c803 963d 6f22 8a3c
00000090: 3623 8d3d 27bf 83bd da4a b3bd 5f24 9bbd
000000a0: f712 6b3d 8b03 153e 4725 4fbd c913 d8bc
000000b0: 2ae8 d4bd a82b 64bd 1a6d 493e bfa4 323e
000000c0: b5ba 223e 8a0d 66bd df96 06bc dad1 4a3c
000000d0: 9654 8d3d 0919 f63d 998e 2c3d d51e 943d
000000e0: 5ee6 b43d 9ad1 b53d 8331 f93d 7deb 0ebd
000000f0: 5965 e5bd bfe1 163d 64b6 c53d 5546 1ebd
0.073500015 0.0060238126 0.21184416 0.07734998 0.08415008 0.028390449 0.09099332 0.02115163
0.06607848 -0.0073964503 0.10002155 0.06346129 0.04145476 0.16421933 -0.010727588 0.07004175
-0.037658382 -0.09460734 0.15014793 0.1228252 0.10891824 0.14269516 0.06829954 -0.12174758
0.025655633 0.18668869 0.16808207 -0.10700955 0.12910546 0.0061079813 0.023239095 -0.11596472
-0.007698952 0.09605025 0.0732494 0.016862122 0.068914816 -0.06432944 -0.08754511 -0.075752966
0.057391133 0.14552133 -0.05057266 -0.026376622 -0.10395844 -0.055705696 0.19670525 0.17445658
0.15891536 -0.056165256 -0.008214681 0.012379134 0.06900899 0.12016494 0.04212818 0.07232443
0.088330016 0.08877869 0.12167647 -0.034892548 -0.11200971 0.036836382 0.09653929 -0.038641293

fc3.weight f4 [64, 64]
00000000: c07e 553e 1193 793d b3a3 663e b99a 9abd
00000010: 0817 0ebf 2286 153f 5054 38bd c357 8abe
00000020: f1c6 c5be 4beb 8cbd f80c 3dbd 747a bb3e
00000030: c9d8 da3e 16a7 29be 330e 143e fc0a 0b3f
00000040: f1a9 1dbe 28c3 143b b11f 643e 549d a4be
00000050: 3d0b a23d f8d6 373c 0c2e 133e 012a 4cbe
00000060: 456f 4b3d 73ea 9e3e 1ae6 8d3d 749e dd3e
00000070: b00c 9c3d e52b 10be a86a b23e 6109 31be
00000080: 6f00 bcbd 617c a3be c89f 873d 050b 5b3e
00000090: 05aa 5e3e cb10 54be 17c4 e6bd deaa 853e
000000a0: 36e8 bcbe 1230 253e fdd4 07be f754 d8bd
000000b0: e565 263e e357 9ebe 8b2e 743e da33 683d
000000c0: 09c7 e43e 439e 303f 4b29 73be 7d16 29be
000000d0: 61ed 18be de31 10be d423 ca3d 7c1d 813d
000000e0: 3608 00be 3444 803e 6780 68be 4656 83bc
000000f0: 4052 7e3f ac69 c9bd 5b5e 7ebe a1c1 e63d
00000100: a1f1 3cbd 64de 853d 39d7 b73d 229c ea3d
00000110: f09f 9d3e 7eb4 003e 2c3f 8dbd cdb9 003e
00000120: 4b86 c6be 2847 b93e ab17 cd3c 6d9d a93e
00000130: 8182 0abe 06c5 9e3e 9957 f73e cd4e 413e
00000140: 1898 ae3d e4a2 cd3c 39b3 1b3e 10e0 353f
00000150: 8b5d 8f3e c2a0 b8be e627 603e 4775 35bf
00000160: 4681 1b3e 723f e03e a467 87be d016 2a3f
00000170: 0f58 9c3e 2982 e93e ca73 c73e 7471 fabd
00000180: 15f7 84bb 26ca fdbc c1d7 943d f6a5 0abe
00000190: feef 513d 0fdc 77be 521a 103f 99bd 38bf
000001a0: 818c 2b3e 8041 da3e 6f23 1ebe 2d6b 033d
000001b0: b7d3 073f 2b9e 0cbf 30ce b43d 5db2 983e
000001c0: 89ae 1fbe 2237 b73e fc2d 423e 4801 3abd
000001d0: 12ae d3bd a5a5 89be 5e8f 0f39 ef80 8f3d
000001e0: 8c32 dbbd 8d13 623e ea1e 9fbe 6f31 38be
000001f0: 191a a93e 8ae1 5b3e 9d68 a4be c150 4c3e
00000200: ae84 b8bd 603b 16be 368f c73c ee91 b5bc
00000210: 3368 c93e 680a d33e 6e14 3dbd bddb e63c
00000220: 8393 97be 8287 fd3d d499 663d 7a93 873e
00000230: dc50 91be 149b ed3e c006 9d3e 339d ddbd
00000240: bb56 463b b5ff 98bd a2cb 9dbb 88a1 fd3d
00000250: 0167 1a3d e680 2dbd b041 0d3e 0af2 a53c
00000260: 1180 0abe b033 e23e 9351 0c3d c42b a33e
00000270: 663c f1bd bf32 fa3e a6ad 1d3e 4543 273f
00000280: 6f41 9cbe 87d3 223d eeed 4dbd 343f d93b
00000290: f80e 213e c284 afbd f34c 443f 256c 163e
000002a0: f944 af3e b6a6 c13e c347 8fbe 88bd 963e
000002b0: ab27 0cbf 41c3 d3bd a1df 233f 02fb 433e
000002c0: 0278 de3e b5c0 ca3e 4588 b1bd 2c56 7bbe
000002d0: 6799 e8bc 05cf fabd dc4c 633e 1309 9f3d
000002e0: cea4 d6bd b9f2 ac3d c55a 413e 66d4 fd3d
000002f0: aaab 453e 427b 453e 4c40 f83e aa7f 143c
00000300: 41d7 eebd 0ce7 663c f02b 0fba fdef 63bd
00000310: 001f d03d dd69 f9bd 903a db3c 3b48 443d
00000320: 26ec 093c ec6f 76bd 2ce2 9e3a 6390 8dbd
00000330: b100 95bd 80b7 863d 085e e2bd fbe3 f5bd
00000340: d86d 01bd 9bb8 00be 5b42 9d3d 7a73 b73d
00000350: 8c7a 48bc 20bd 83bd 6acb 93bd 24fe adbd
00000360: d34e f03c e406 93bc f87c 8dbd c482 35bd
00000370: 20b6 c63d c7ba 9f3d 5774 a03d 638f e4bd
00000380: adf2 c43d 0688 03be 7439 03be de59 21bd
00000390: e58d 433c c668 9ebd d2c9 d0bd 5fbe e9bd
000003a0: 8724 c03d d0f7 11bc 18e1 293c fc28 87bd
000003b0: 5fad d7bd 0741 a2bd dda0 ff3b cf43 353d
000003c0: fa0f 17be 1041 593a f5a5 763d 1be7 803d
000003d0: 63be b9bd 7ebb 703d ca9d aebd 927a 03bd
000003e0: ba45 fe3d d3d5 a4bd 8553 8ebd a337 4bbd
000003f0: 8a4e e63d 60bb debb 7c5a 8fbd 353d 02be
0.20849133 0.06093127 0.22523384 -0.07549042 -0.5550389 0.58407795 -0.04500228 -0.27020082
-0.38628343 -0.06880816 -0.046154946 0.36616862 0.4274352 -0.16567644 0.14458542 0.54313636
-0.15396859 0.002269933 0.22277714 -0.32151282 0.079123 0.011220686 0.14373034 -0.19937898
0.04966666 0.31038246 0.06928654 0.43284953 0.076196074 -0.14079244 0.34846997 -0.17288734
-0.0917977 -0.3193083 0.06622273 0.21390922 0.21744545 -0.20709531 -0.1126787 0.26106924
-0.36895913 0.16131619 -0.13264842 -0.10563081 0.16249807 -0.30926427 0.2384588 0.056690075
0.44683102 0.6899149 -0.23746221 -0.16512485 -0.14934303 -0.14081523 0.09870115 0.06304452
-0.12503132 0.25052035 -0.22705232 -0.01603235 0.99344254 -0.098346084 -0.24840681 0.112674005
-0.046128873 0.06536558 0.08976597 0.11455561 0.30786085 0.12568852 -0.06896815 0.12570877
-0.38774332 0.361871 0.0250357 0.3312792 -0.13526346 0.31009692 0.4830902 0.18877716
0.08525103 0.025102086 0.15205087 0.7104502 0.28001055 -0.36060148 0.2189022 -0.70882076
0.15186033 0.43798405 -0.2644626 0.6644106 0.30535933 0.45607117 0.38955528 -0.12228671
-0.004057775 -0.030980181 0.07267714 -0.13539872 0.051254265 -0.2420504 0.5629016 -0.72164303
0.16752817 0.42628098 -0.15443204 0.032084633 0.53057426 -0.54928845 0.0882839 0.2982358
-0.15593924 0.3578425 0.18962854 -0.04541138 -0.10335936 -0.2688419 0.00013690951 0.07007014
-0.107030004 0.2207777 -0.31078273 -0.17987607 0.33027723 0.21472755 -0.32111064 0.1995268
-0.09009682 -0.14671087 0.02436028 -0.022164311 0.3933731 0.41218877 -0.04616206 0.028180951
-0.2960473 0.12379362 0.056299046 0.26479703 -0.28382003 0.46407378 0.30669212 -0.10820999
0.0030264098 -0.07470647 -0.0048155347 0.12384325 0.03769589 -0.042359255 0.13794589 0.020257015
-0.13525416 0.4418006 0.034257483 0.31869328 -0.11779098 0.4886684 0.15398273 0.6533702
-0.30518672 0.03975251 -0.050275736 0.006629849 0.15728366 -0.085702434 0.76679915 0.14689691
0.3423231 0.37822503 -0.27984437 0.29441476 -0.5474803 -0.10339976 0.64013106 0.1913872
0.43450934 0.3960015 -0.086685695 -0.2454459 -0.02839346 -0.12246517 0.22197288 0.07765403
-0.10480653 0.08444733 0.18882282 0.123940274 0.19303766 0.192853 0.48486555 0.009063641
-0.1166215 0.014093172 -0.0005461564 -0.055648793 0.10162163 -0.12178395 0.026761323 0.047920447
0.008418119 -0.06016533 0.0012121848 -0.06912305 -0.072755225 0.065779686 -0.11053091 -0.120063744
-0.031598896 -0.12570421 0.07678672 0.08957572 -0.012236249 -0.06432557 -0.072165325 -0.08495739
0.029334461 -0.017947622 -0.069086015 -0.04431416 0.09702706 0.07799297 0.0783469 -0.11160161
0.09616599 -0.12844858 -0.12814885 -0.039392345 0.011935686 -0.07734828 -0.10194744 -0.114132635
0.09381967 -0.008909181 0.010368608 -0.06599614 -0.10531115 -0.07922559 0.007801159 0.04425412
-0.14752188 0.0008287588 0.060216863 0.0629408 -0.090695165 0.058772556 -0.085261896 -0.032099314
0.12415643 -0.08048596 -0.06949524 -0.049613606 0.11245449 -0.006797239 -0.069996804 -0.12718661

fc3.bias f4 [64]
00000000: 5cac 203e 5b83 9b3b e3ce 2d3e 9cef 37bd
00000010: 82aa bf3c 3c4e e03d 3ba7 9cbd 41a0 47bd
00000020: b636 b63d a97b f63d ec4b f93d 5c0e 1e3e
00000030: 59be 2c3c 8aa4 2ebd 938c 493d f4ea e3bd
00000040: af1d c23d d71d 7f3c afba 2f3e 8243 a1bc
00000050: f520 d83d 96b9 363e 2c3a f03d c147 8b3d
00000060: 61ed f53c b88c ac3d a2a1 48bd 381f 69bd
00000070: 622c 1d3e 455d 863d a1c1 313d 4331 593d
00000080: 994e d8bc 75cd 313e a305 003c 91e0 233e
00000090: b197 e83d f731 d73d fa40 023b 2022 013e
000000a0: e82e f53c 7c6e 0f3e 75e7 88bb b0e3 4f3d
000000b0: 25b0 893c f65a 373d a497 033d 1095 ba3d
000000c0: 1b91 b43d 0f46 953d 8240 e23d e082 243e
000000d0: 916a 323d 2a22 5b3e 9379 263e 79d6 2e3e
000000e0: 3127 313e 774e 29be e6a5 e73d 5617 be3d
000000f0: c6ad 4e3c dc76 03bd 28a7 183d 736d ee3d
0.1569075 0.0047458834 0.16973452 -0.044906244 0.023396734 0.10952422 -0.07649084 -0.048736814
0.08897154 0.12035305 0.12172684 0.15435165 0.010543429 -0.042637385 0.049206328 -0.11128798
0.09478318 0.015571079 0.17161058 -0.01968551 0.10553161 0.17844233 0.117298454 0.06800795
0.030020418 0.084252775 -0.04898227 -0.05691454 0.15348962 0.065607585 0.04339755 0.053025495
-0.026404666 0.17363532 0.007813844 0.16003634 0.11357058 0.10507577 0.0019875155 0.12610674
0.029929593 0.1400699 -0.0041779825 0.05075425 0.016807625 0.04476448 0.032127038 0.09110463
0.08816739 0.07288753 0.1104746 0.1606555 0.04355866 0.21399751 0.16257314 0.17074002
0.17300107 -0.16533838 0.113109395 0.09281795 0.012614673 -0.032095775 0.037268788 0.116419695

action_out.weight f4 [3, 64]
00000000: 945f 063f 9dc0 503f f32a d53e 2c55 08be
00000010: 8ad0 7abe 8a70 2a3a 66b1 3bbf 89c1 0d3f
00000020: de11 f03c c595 593d 2345 553e 6de0 453d
00000030: b96e 993e 4330 ecbd a739 4abd 8223 69bf
00000040: 0ba7 0abe 329b 853f 8df9 f13e dcd6 c33b
00000050: c17d fc3e cfb8 fe3d d7a0 fbbe 0d0d 523f
00000060: 6821 993d b618 b4be 5c70 98be ae13 e33d
00000070: f9f3 0abf 97f4 5c3f a6d3 ca3d c061 07bf
00000080: 445e 8a3e e73b 2d3f 5468 de3d f54d fd3e
00000090: 6c4f 433e 3cfc 203f 3890 92be 56d9 9e3e
000000a0: e249 38bd c794 d6be 0505 ff3e c5bd f1be
000000b0: c2ec a23f 4bb5 9cbe 5c89 ebbe a7c3 f7be
000000c0: 3fdf 0e3d e9b2 903e e3ac 8dbf 6b49 d9be
000000d0: 8b8d 8fbe de48 04be 40cc c3bd b602 ef3d
000000e0: 4913 b23e 8818 c83e 9666 33bf d49b abbe
000000f0: b168 0fbc 0004 0dbf 50f9 f83e ef77 043f
00000100: a47c 10bf 1343 913e e870 6a3d 1010 09bd
00000110: 4327 4d3e 6d0f 353f 2ba3 2abf 595b a43e
00000120: 930b 7cbe bbea b23e 7d64 3bbf 7af1 163f
00000130: ddb7 6dbf c5cb 20bf 005a a63e 63ce 9e3e
00000140: 04c3 863e 240c c93e fff1 18be 44fa 1cbf
00000150: 0e85 37be ed28 2d3f 6bec 15bf b238 51bf
00000160: c7e1 75be 1eb7 563e ec78 0abe 15c8 11bf
00000170: a1aa 5e3d d5bd 52bf c9e4 123f c9eb c8be
00000180: 4500 613e e46f 343e 44aa 10be 58cd 03bf
00000190: 1de9 6f3e 1d9e 223f 3804 1b3f 31fd 3f3e
000001a0: dd61 3abf ca6c 323e 0656 cebd 30bc f7be
000001b0: b0c0 233e ef07 a13e bdfa 7dbe 9ab4 2d3e
000001c0: 09b6 863e c096 0e3f 439a 513e 0a1a dabe
000001d0: 60e5 31bf 6bb6 cebe b736 213f 6536 47bf
000001e0: 29ce 8dbe 1f51 383f 7f0a d4be 3f99 ab3e
000001f0: 75ba e2bd 7634 b73e 3869 0bbf 0593 00bf
00000200: dd70 b33e a77f 103e b961 0cbf b413 5c3c
00000210: 418b f43e ba31 5d3e 7c40 8f3e 4bfd 96be
00000220: 3d72 553f b9c6 dabe 1fc7 35bd 9feb 81be
00000230: 7282 36b9 92ba 10bf da59 fbbe 3289 843e
00000240: 480a 13bf 407d 1dbf fd0d ebbe b193 1dbf
00000250: 1341 2dbe 712b e1be 8c61 363e 2c8e 54bd
00000260: bcdc 633f d0b9 19bf c939 e63e 3dd4 17bf
00000270: 9ce4 023f 44ad 5a3f 0c0e ad3d acc5 893e
00000280: 1dd5 e4be f3e3 f23e b683 a9bd 01e7 42be
00000290: feb4 2f3f 2d86 9c3e e079 df3d 179d 89be
000002a0: c73a 4ebf 9739 543e d83f 0f3f 126b f93d
000002b0: 56b2 bf3d cd1c 9d3c f131 b9bd 5d5a 8b3e
000002c0: 49ff b83e 2ac1 21be 7a56 adbe 7420 89bd
000002d0: aede fb3e 50a1 843f 4c1e 2bbf 2406 4cbe
000002e0: d4f6 203f 6887 193f 8d52 763e 65eb 073e
000002f0: aa1d 5a3d dc6a 91bd 930c ad3e 93bc 5fbe
0.5248959 0.81543905 0.4163433 -0.1331374 -0.24493614 0.0006501755 -0.73317564 0.55373436
0.029305395 0.053121347 0.20827155 0.048309732 0.29967287 -0.11532643 -0.049371388 -0.91069806
-0.13540284 1.0437987 0.47260705 0.005976541 0.49314693 0.12437593 -0.4914615 0.82051164
0.07477075 -0.35175103 -0.29773223 0.11087738 -0.5427852 0.86310714 0.0990365 -0.5288353
0.27025044 0.6766953 0.10859743 0.4947354 0.19073266 0.6288488 -0.28625655 0.3102519
-0.044992335 -0.41910383 0.49808517 -0.47215095 1.2728503 -0.30607066 -0.46003234 -0.48391458
0.034880873 0.28261498 -1.1068386 -0.42438826 -0.28037676 -0.12918422 -0.09560442 0.11670439
0.34780338 0.39081216 -0.7007841 -0.33517325 -0.008752988 -0.5508423 0.4862771 0.51745504
-0.56440187 0.28371486 0.057236582 -0.033462584 0.20034508 0.7072666 -0.66655225 0.32100943
-0.2461379 0.3494471 -0.7320021 0.58962214 -0.9285868 -0.6281093 0.3249054 0.31016836
0.2632066 0.39267075 -0.14936064 -0.61319375 -0.1792185 0.6764057 -0.5856387 -0.81727135
-0.24011908 0.20968291 -0.1352269 -0.56945926 0.054361943 -0.8232091 0.5738035 -0.3924239
0.21972759 0.17620808 -0.14127451 -0.51485205 0.2342877 0.6352251 0.6055331 0.18748929
-0.7280558 0.17424312 -0.100750014 -0.48385763 0.15991473 0.31451365 -0.2480268 0.16963425
0.26310757 0.55698776 0.20469002 -0.4259799 -0.69490623 -0.4037355 0.62974113 -0.77817374
-0.2769635 0.7199878 -0.41414258 0.33515355 -0.1107072 0.35782212 -0.54457426 -0.50224334
0.35047045 0.14111196 -0.5483661 0.013432432 0.47762492 0.21601 0.27978885 -0.29490122
0.8337744 -0.42729738 -0.04437935 -0.25375077 -0.00017405467 -0.56534684 -0.4909199 0.25885922
-0.5743756 -0.6151924 -0.4590911 -0.61553484 -0.16919355 -0.43978456 0.17810649 -0.0518934
0.8900869 -0.6004915 0.44965962 -0.59308225 0.5113008 0.8542063 0.08449945 0.26908624
-0.44693843 0.47439536 -0.08277075 -0.19033433 0.6863555 0.30571118 0.10911918 -0.26877663
-0.8055844 0.20725094 0.5595679 0.12178625 0.09360187 0.019178772 -0.09042729 0.2721738
0.36132267 -0.15796342 -0.3385504 -0.06695643 0.4919333 1.0361729 -0.66843104 -0.19924217
0.6287663 0.5997224 0.24054928 0.1327339 0.053250946 -0.0710046 0.33798656 -0.21849279

action_out.bias f4 [3]
00000000: 3868 c7bd eea4 af3d a0e3 b2bc
-0.09736675 0.0857638 -0.021837056
