Assets/Python/maddpg/model/single_agent_single_object_1122j/agent_0/critic_params.pkl (torch, 43467 bytes, 7 tensors)

fc1.weight f4 [64, 27]
000000 da 9f 28 c0 7a fb 21 3f 20 5f 24 3d 1d 40 0a 3f
       -2.6347566 0.6327435 0.04012978 0.5400408
000010 99 64 7d 3f 78 fe 90 3d b4 55 1d 3f 7b a8 8b be
       0.98981625 0.07079786 0.614589 -0.27276978
000020 2f a1 16 3e 90 60 df 3e 30 ca 69 3f 67 73 a4 be
       0.14709924 0.4362836 0.9132414 -0.32119295
000030 fd 1f 28 bf 91 10 07 be a6 75 c7 3e 5c 02 6b 3f
       -0.6567381 -0.13189913 0.38956946 0.91800475
000040 92 0a 22 3e 60 4d ed 3d 6b 37 ba bc 10 29 02 bf
       0.15824345 0.11587024 -0.022731503 -0.50843906
000050 22 70 a3 bd b7 84 4c 3f d1 e7 a8 bf 26 b8 43 bf
       -0.07980372 0.79890007 -1.3195745 -0.76452863
000060 87 16 98 3d 69 ab 5a bd cf 74 9d 3d 72 37 16 3f
       0.07426172 -0.053386126 0.07688295 0.5867835
000070 30 5c 4a 40 fa cd 73 3e c2 ee 22 3f 3b 83 13 c0
       3.1618767 0.23809043 0.63645566 -2.3048847
000080 e6 00 9f 3e 72 fa 0d 3e 3c 6e 11 bf be 7f 0a bf
       0.31055373 0.13865069 -0.5680883 -0.5410117
000090 62 d8 7b be 3a 8a db bd 58 58 14 bf 64 42 c9 3e
       -0.24594262 -0.10719724 -0.579473 0.39308465
0000a0 83 9c ac 3f 82 2c e4 bd c5 24 04 bf 50 47 fa bd
       1.3485264 -0.11141302 -0.51618606 -0.12220633
0000b0 21 62 5c 3e 04 c6 14 3f a0 76 a2 3d 85 15 10 3e
       0.21521808 0.5811465 0.07932782 0.14070709
0000c0 6a d9 9f be ce c5 b8 be a1 62 8d be b0 ff 25 3b
       -0.3122056 -0.36088413 -0.2761431 0.0025329404
0000d0 a2 f5 55 bd 55 9d f0 3b 28 7c e8 3f fc 22 ab 3c
       -0.052236207 0.007342974 1.816289 0.020890705
0000e0 45 78 0c 3f 46 07 02 bf 57 ca 6e 3f 1b 73 8e bb
       0.54871017 -0.5079235 0.93277496 -0.0043472177
0000f0 f8 9a dc be a9 7a 5b 3f 1e 8d cf 3d 0a b7 46 3f
       -0.43086982 0.8573404 0.10134338 0.77623045
000100 94 3f ff bf ea 4b 1a bf 5d bb c9 be db 24 46 3e
       -1.9941278 -0.60272086 -0.3940076 0.19349997
000110 0d ac da 3c 3f 77 c7 be 38 2f 88 bc 0c 1c ed bd
       0.026693368 -0.38958165 -0.016624078 -0.11577615
000120 87 dc 71 bf c3 57 f7 be 00 5f 44 3e 3a f2 41 be
       -0.94477123 -0.48309144 0.19176865 -0.18940058
000130 de 37 0b 3f 4d d3 49 3e 08 c9 7a 3d df ce 3c 3d
       0.5438212 0.19709511 0.061226875 0.046095725
000140 e8 42 c9 3c b7 c4 46 bf db 9d 15 40 ef 52 4a 3e
       0.024568036 -0.77643913 2.3377597 0.19758199
000150 da b3 64 3f c7 23 d5 bf c6 b1 63 bc c4 c9 b7 3e
       0.8933693 -1.6651543 -0.013897365 0.35896122
000160 12 12 0c bf a3 e0 5c 3f 50 e9 c9 3e 00 e6 88 3e
       -0.54715073 0.8628027 0.39435816 0.26737976
000170 d2 dd ab bd 07 6f d1 3e 56 ed df be a1 83 3b 3f
       -0.08391918 0.4090502 -0.4373576 0.73247725
000180 3c 79 91 bd ca e9 7c bd 73 e5 43 be 0c 82 e9 bd
       -0.07103202 -0.061746396 -0.19130497 -0.114017576
000190 bd 3b 52 bf d6 3b fa 3d 22 af 31 be f4 4b 17 be
       -0.82122403 0.12218444 -0.17351964 -0.14775068
0001a0 c5 f0 43 bf 1a e2 d3 bc cb 19 1a 3d e2 8e 06 3c
       -0.7653926 -0.02586465 0.037622254 0.008212777
0001b0 9b 14 62 3f 53 eb 03 3f 81 60 95 be fd b2 ff be
       0.8831269 0.5153095 -0.2917519 -0.49941245
0001c0 65 46 39 3f 1d e3 23 3f 9e 48 14 3f 4a dd 67 3f
       0.7237304 0.6401842 0.57923305 0.90572035
0001d0 b2 f0 a5 be e0 bd 2c bf d5 a4 96 bf 4b e8 b5 3d
       -0.32410198 -0.67477226 -1.1769053 0.08882197
0001e0 2e b3 f7 bb d2 46 51 bf 13 be 5b 3e a3 ca 87 be
       -0.0075592017 -0.8174869 0.21459226 -0.26521787
0001f0 86 a0 b5 be cd ee ef be 82 bf 9a bf 1c 8a 35 3f
       -0.35474032 -0.46861878 -1.2089694 0.70913863
000200 13 df 3a bf ef 6f 3c 3d 5a 59 b9 3e 2c d1 b6 bd
       -0.72996634 0.046005186 0.36200982 -0.08926615
000210 68 6f 3f 3d 14 cf e3 3b ae 22 54 3d 28 e9 8f bf
       0.046737105 0.006952176 0.051790886 -1.1243029
000220 7d 34 45 3f 15 24 c1 3f 38 32 19 3f b6 8c 49 bf
       0.77033216 1.5089136 0.5984225 -0.7873033
000230 b4 1e 56 3e 68 ec 04 be 4c d3 6c be de 98 2e bd
       0.2091015 -0.12980807 -0.23127478 -0.042626254
000240 0a 18 57 be d3 de 0d 3f 82 69 23 3f 52 11 82 3e
       -0.21005264 0.5541813 0.6383287 0.2540384
000250 aa c8 de be 72 ad 3f bf 38 72 1f bf a3 16 58 be
       -0.4351247 -0.7487403 -0.6228366 -0.21102385
000260 33 33 91 be 9a ac 98 3e be 86 33 bd 8d 9f e1 be
       -0.28359374 0.29819185 -0.043829672 -0.4406704
000270 62 ee 6b 3e 15 b6 6e 3f 93 c9 f3 be ee 2e 82 3d
       0.23040155 0.93246585 -0.47614726 0.063566074
000280 1c 9e ac bd a5 2d 6a bd 79 94 0f be 39 43 e5 bf
       -0.084285945 -0.057172436 -0.14021482 -1.791114
000290 f7 c9 e5 be 93 fd b1 be 18 76 00 40 17 94 49 be
       -0.4488065 -0.34763774 2.0072079 -0.19685398
0002a0 11 aa ea 3d 05 65 cb bf da 2a 36 3e cd 71 e8 3e
       0.11458219 -1.5890204 0.17789784 0.45399323
0002b0 da a5 b3 3f 77 69 f2 3e 91 60 66 3c f4 b4 c9 3f
       1.4034989 0.47346088 0.014061109 1.5758348
0002c0 cb c5 b7 3e 1e df 87 be 90 f6 17 be 85 83 86 be
       0.35893092 -0.26537412 -0.1484015 -0.26272216
0002d0 45 b6 04 be 76 d5 81 bf 0e b9 18 be 95 76 0b 3f
       -0.12960155 -1.0143268 -0.14914343 0.54477817
0002e0 dd fd 8a 3e 62 e8 f9 3d 37 cc b0 ba e2 a5 11 bd
       0.27146807 0.12202527 -0.0013488595 -0.03555859
0002f0 ef 0f a1 bc a6 40 1c 3e 01 a4 b7 be 7c fb a3 3f
       -0.019660918 0.15259036 -0.35867313 1.2811122
000300 38 1f 7b bd 93 ba 6d bf 38 63 01 3e 3e 15 61 3f
       -0.06130907 -0.92862815 0.12635505 0.8792304
000310 37 6f 8d be e0 a0 82 bf 82 cb 14 bf f1 21 f0 3f
       -0.27623913 -1.0205345 -0.5812303 1.8760358
000320 88 ad 43 3f 70 dd cb bc 03 10 1c bf a5 66 bb be
       0.7643666 -0.024885863 -0.6096193 -0.3660175
000330 ce 29 0e 3f d5 43 4f bd de b1 22 3d 16 09 3d be
       0.5553254 -0.0506018 0.03972041 -0.18460497
000340 4a 6d 2c 3f e1 5d 05 3f 72 a1 54 bf 26 df c3 be
       0.6735426 0.5209637 -0.83058846 -0.38256186
000350 93 25 a0 bf 4b c1 c6 3c 5c 84 da bc 61 ae 41 bd
       -1.2511467 0.024262091 -0.026674442 -0.04728544
000360 c2 00 8a 3f 7d 41 e8 3f ad aa 75 bf be d7 55 bf
       1.0781481 1.8144985 -0.95963556 -0.8353232
000370 0c ec 21 be ee b0 73 bf e6 09 de be ea 49 90 3d
       -0.15812701 -0.9519185 -0.43366927 0.07045348
000380 92 5a 46 3e 66 9e 1a be a4 75 a3 3e 9b 00 54 be
       0.19370487 -0.15099487 0.3192569 -0.20703356
000390 ee 35 c9 be 35 2a 31 3f 83 2c 4b 3f 1e e0 82 be
       -0.39298958 0.6920503 0.79364794 -0.25561613
0003a0 40 5e 5b bf a6 da a9 3d 78 54 b8 bb fa 44 ec bf
       -0.8569069 0.08293657 -0.005625304 -1.845855
0003b0 a1 8d 86 3e 48 74 a6 3e c5 92 d1 3d 87 7e 92 bd
       0.2627993 0.3251059 0.10233072 -0.071530394
0003c0 98 94 8b 3c 30 bc 2b bd 5f 11 81 3c e3 92 b4 bf
       0.017038628 -0.041927516 0.015755353 -1.4107326
0003d0 70 81 3e bf 93 45 2d bf 5b 9c d9 be 75 fe 2b 3f
       -0.74416256 -0.67684287 -0.42502102 0.67185146
0003e0 48 df c7 be f6 46 18 3f f0 b8 01 3f d6 15 e1 3c
       -0.39037538 0.5948328 0.5067282 0.027476232
0003f0 e4 23 1a bd dd c3 55 3f 4f 1d 6c be c0 d3 90 be
       -0.037631884 0.8350199 -0.23058055 -0.28286552

fc1.bias f4 [64]
000000 70 87 ac be 8f c0 a4 be 7f 0e c6 3c e4 46 ee be
       -0.3369708 -0.3217816 0.024176834 -0.4653846
000010 27 bc eb be 5d f1 3f be a6 60 8b be 30 94 89 bd
       -0.46041986 -0.18744417 -0.27222174 -0.06717718
000020 64 5a 30 bf 3b bf eb 3d 43 f1 82 be a7 38 65 be
       -0.68887925 0.11511084 -0.25574693 -0.22384892
000030 1d a9 67 be b1 24 02 be f6 55 03 be c8 88 5e bf
       -0.22623105 -0.12709309 -0.1282576 -0.8692746
000040 ec 04 12 bf ba 71 cc be 43 e8 8f bd 66 6b 12 bf
       -0.5703876 -0.39930516 -0.07026722 -0.57195127
000050 e2 bb af be d9 5b 4f 3e 69 27 da bc 0a 80 36 bf
       -0.3432303 0.20249881 -0.02663012 -0.7128912
000060 da bc fa be 96 7b 78 be 70 ff a7 be 8a 03 61 be
       -0.48972207 -0.24265894 -0.3281207 -0.21974006
000070 88 c8 e3 be 58 65 30 3e f7 b5 55 be 43 dd 74 be
       -0.4448893 0.1722616 -0.20870195 -0.2391253
000080 ce 79 bf be bd ac 20 3d bb 3d 94 bd 83 b2 09 be
       -0.37397617 0.039227236 -0.07238337 -0.13447003
000090 56 fb ba bc cb 6e a3 be 34 3a e9 be b8 34 60 bf
       -0.022824924 -0.31920466 -0.45552218 -0.8758044
0000a0 7a ba 1d 3e 2c e0 de bd 09 ce 44 3e f2 03 23 bf
       0.15403166 -0.10882601 0.19219221 -0.63677895
0000b0 13 a9 29 3f f2 67 0d bf 17 36 19 be 2e 7e e7 bd
       0.6627361 -0.5523673 -0.1496204 -0.11303364
0000c0 a8 5b 30 3e b4 58 dc be 5d e2 64 3e c3 3c 91 bd
       0.17222464 -0.43036425 0.22351976 -0.070916675
0000d0 cb 12 88 be 9e 38 c3 be bd 10 d1 be 3d 33 02 bf
       -0.26576838 -0.38129133 -0.40833083 -0.50859433
0000e0 18 72 d9 be 0f d9 86 bf 38 14 ec bd 7e 36 f1 3d
       -0.4246986 -1.0534991 -0.11527294 0.11777972
0000f0 be ab 93 bf bf fa bd bf d5 95 8a 3e 3e 4b 95 3e
       -1.1536787 -1.4842147 0.27067438 0.29158968

fc2.weight f4 [64, 64]
000000 1a ac 19 3f 62 24 08 bf d0 76 4f c0 53 c4 a6 3f
       0.6002823 -0.53180516 -3.2416267 1.3028663
000010 26 2d cd 3f 8e 5a 91 3d c2 ca a9 bf cd d7 cb be
       1.6029403 0.0709735 -1.3265002 -0.3981308
000020 07 ea 62 3e bc 5a 32 3f 99 f8 2d 3f 8f c1 78 3e
       0.22159587 0.696697 0.67957455 0.24292587
000030 30 4d 98 be 43 4b fe 3e 80 46 10 bf ee ec 77 be
       -0.2974639 0.49666795 -0.56357574 -0.24211475
000040 b7 21 05 bf 17 f0 1d be 6c a6 a8 3f 4c b8 e8 3e
       -0.5200457 -0.15423618 1.3175788 0.45453107
000050 fe 59 c2 bf 5a 22 0b be 39 cf c3 bf ea 0e b6 3e
       -1.5183713 -0.13587323 -1.5297614 0.35558254
000060 9d 3b 14 be e5 be 0f c0 67 d9 ad 3e b3 04 82 3f
       -0.14475866 -2.2460263 0.33954927 1.0157684
000070 c1 61 a0 be 8c 98 2a bf 0f c4 50 3e 51 25 03 3d
       -0.3132458 -0.6663902 0.2038729 0.03201801
000080 92 b4 9b 3f 39 d7 d4 bf 6a 47 8c be b8 6b dc 3e
       1.2164481 -1.6628181 -0.27398235 0.43050933
000090 5a b2 a0 bf d7 a7 8f be b9 47 06 c0 88 70 79 3f
       -1.2554429 -0.2805774 -2.0981276 0.97437334
0000a0 51 be 99 bf 43 75 ae bf 49 85 5d be 67 f2 68 3f
       -1.2011205 -1.3629535 -0.21632876 0.90994877
0000b0 ce 57 93 3f 46 7b c0 bd fb 77 f8 3e d8 a8 04 c0
       1.1511171 -0.093985125 0.48529038 -2.0728054
0000c0 69 af ad bf aa 1d 17 bf e6 b8 99 bf 0e 6a a6 3d
       -1.3569156 -0.5902964 -1.2009552 0.08125697
0000d0 06 81 9e bf 52 e8 ae be e3 44 d4 bf ae f6 24 bf
       -1.2383125 -0.3416162 -1.6583523 -0.64438903
0000e0 0e 9e 07 3f 79 b4 54 3f db ac b4 3e 39 94 70 3f
       0.5297555 0.8308788 0.35288128 0.9397617
0000f0 24 fa b3 bf cf a0 d9 3f ab 8f 0f c0 7a 71 3e bf
       -1.4060712 1.70022 -2.2431438 -0.743919
000100 1a c0 e8 bd cc 38 bc bf 26 a4 cc 3d d0 81 07 bf
       -0.113647655 -1.4704833 0.09992246 -0.52932453
000110 e8 d8 68 3f 61 0a 49 be ed 1e 83 bf dc e8 0a bf
       0.9095597 -0.19632865 -1.0243813 -0.54261565
000120 1d c5 59 bf cc ca e5 be 1e 6d ce be 1a f6 3f 3f
       -0.85066396 -0.44881284 -0.40317625 0.74984896
000130 bf 20 44 3e fe 18 89 be 76 2e ac bf e4 5e aa bf
       0.19153117 -0.2677688 -1.3451679 -1.3310208
000140 fa 44 1a 3f 47 7b ac 3d a4 38 de be e0 71 24 be
       0.602615 0.08421951 -0.43402588 -0.16059065
000150 b4 e8 11 bf 12 1d ef 3d 6f ab de 3e 6f 6b 91 be
       -0.569957 0.116754666 0.43490168 -0.28402278
000160 5c 31 74 3f 2f 6f e6 bf c0 b8 8a bf 96 03 60 be
       0.95387816 -1.800268 -1.0837631 -0.21876368
000170 16 91 dc 3f 86 61 50 3e 4b 8b a4 bd 09 f8 01 3e
       1.7231777 0.20349702 -0.080343805 0.12692274
000180 22 9f 14 3f 42 96 48 3e b7 fb 49 3f d2 90 0d bf
       0.5805532 0.19588569 0.7889971 -0.55299103
000190 36 e2 0f 3f e9 a3 70 bf 89 90 e7 be 2d a3 ea 3d
       0.56204545 -0.9400011 -0.4522746 0.114569046
0001a0 c7 20 79 c0 24 dd 1b 3e 02 e8 2a bf 26 af 97 3f
       -3.8926256 0.15221077 -0.66760266 1.1850326
0001b0 c0 47 9c be 65 16 d2 3e 05 35 de 3e c1 43 02 bd
       -0.3052349 0.4103271 0.43399826 -0.031802896
0001c0 c4 e9 88 bc a0 14 83 bf a3 46 f2 be ef 29 ec 3d
       -0.01671303 -1.0240669 -0.47319517 0.11531436
0001d0 99 da b4 3d 83 24 be bf ad f1 da bd 48 e4 38 3f
       0.08830757 -1.4854892 -0.10690627 0.7222333
0001e0 c9 0c cc be d1 50 b5 be ce 39 0e 3d a1 d1 ff 3e
       -0.39853504 -0.3541322 0.034723096 0.49964622
0001f0 0e 74 3a 3f e3 a8 5d 3f e1 09 08 bf 41 cf 24 bf
       0.72833335 0.86585826 -0.53140074 -0.64378744
000200 78 19 c8 bf db 25 8f 3f 23 b5 75 3d ea df b4 be
       -1.5632772 1.1183428 0.0599872 -0.35327083
000210 94 db d5 3f 0b 30 ca bd 8a ae c8 bc 80 a3 58 3f
       1.6707635 -0.09872445 -0.02449729 0.8462448
000220 c6 40 78 be e8 36 e8 be c1 46 15 3f 46 c8 19 3f
       -0.24243459 -0.4535439 0.58311087 0.6007122
000230 15 97 da 3e 1a d5 01 be 26 bc 46 3f e3 27 20 3f
       0.4269339 -0.12678948 0.7763084 0.6256086
000240 19 b7 33 3f 2d bf 0a be a8 5c 40 bf bd 3c 4b 3f
       0.7020126 -0.1354949 -0.7514138 0.79389554
000250 47 88 8d bf 23 51 b6 bf cf 32 9a bf b3 46 1f 3f
       -1.1057214 -1.4243511 -1.2046756 0.62217253
000260 f6 c0 4c 3e 45 11 b1 bc 81 f4 e8 3e bc c5 68 be
       0.19995484 -0.02161468 0.45499042 -0.2273168
000270 e7 cf 88 3e b9 0d 10 c0 2a c0 c2 be 3e b5 19 3f
       0.26721117 -2.2508376 -0.38037235 0.6004218
000280 e1 3a 4f 3f 8f 84 9d bd 4f 38 3d bf e9 59 db 3d
       0.8094922 -0.07691299 -0.73914045 0.107105084
000290 93 0b 49 bf 05 52 3d bf e2 3c 75 3f 84 c6 39 be
       -0.78533286 -0.73953277 0.95796025 -0.18142134
0002a0 70 cf 1b 3e 2a ca 1b bf 47 69 c7 bf 77 b1 1c 3f
       0.1521585 -0.6085535 -1.5579003 0.6120829
0002b0 21 59 e8 bf b7 4a c1 3e ae 1e 75 bf 70 91 74 bf
       -1.81522 0.37752315 -0.9574994 -0.9553442
0002c0 a7 e9 a5 be ae ee fc be af e6 cf be ea d2 18 bf
       -0.32404825 -0.49400848 -0.40605685 -0.5969683
0002d0 9d 2a be 3e 5a 44 09 c0 e2 26 6a 3f 18 54 0d bf
       0.37141886 -2.1447968 0.9146558 -0.5520644
0002e0 e9 06 08 c0 39 00 9c bf 09 e1 51 3f 4f f1 89 be
       -2.1254218 -1.2187568 0.81984 -0.26941916
0002f0 86 f3 3f 3e f2 75 fe bf 39 59 2b bf a0 4a 34 c0
       0.1874524 -1.9879744 -0.6693302 -2.8170547
000300 03 62 03 c0 fc 9f ad 3e 01 45 88 be aa 31 9a bd
       -2.0528572 0.3391112 -0.26615146 -0.07529004
000310 60 34 ea bf 2a 8a 33 3e 8c 4a 92 3f 85 29 29 3f
       -1.8297234 0.17533174 1.1429 0.6607898
000320 ab 5b 85 3e 90 77 19 c0 dd 46 f8 be 85 62 91 3e
       0.260465 -2.3979225 -0.48491564 0.28395477
000330 ef d2 35 3e f3 c1 e6 bf b0 81 f5 3e 1c a6 cf be
       0.17756246 -1.8027939 0.47950506 -0.4055642
000340 01 03 45 3e a0 37 f1 3d 74 f2 49 3f ed e9 4e 3f
       0.19239427 0.11778188 0.7888558 0.8082569
000350 bf b5 a4 3d 81 d4 82 3f af 66 80 be 40 5f df bf
       0.08042478 1.0221101 -0.2507834 -1.7450943
000360 bb af 27 be 69 e2 38 bf 83 96 f9 bf a9 f6 af 3e
       -0.1637563 -0.72220474 -1.9499058 0.34367874
000370 41 9d af be f5 a0 91 bf b1 90 a5 be f8 3b 13 3f
       -0.34299663 -1.1377245 -0.32336953 0.5751338
000380 53 bc a4 be c9 8c 01 bf 08 54 f6 3e f7 56 08 c0
       -0.3217493 -0.50605446 0.48110986 -2.130308
000390 9e f9 f7 3d 86 e7 ad be 45 b8 11 3f 6e 22 bd 3d
       0.121081576 -0.339657 0.569218 0.092350826
0003a0 47 47 33 bf 16 18 01 3f 4f 8a a7 3f 85 23 e4 3c
       -0.70030636 0.5042738 1.3089083 0.027848968
0003b0 5b ea fe bf 8a 48 7a 3e bb 34 52 3e c4 c4 13 bf
       -1.991527 0.24441734 0.20527928 -0.57722116
0003c0 b4 7f 8d 3e 51 22 af 3e 8c 1b 09 3d 6a b3 3f c0
       0.27636492 0.3420587 0.033473536 -2.9953256
0003d0 db af 63 be 23 1f 92 bd e3 f3 5b 3f 2d f0 50 3f
       -0.22235052 -0.07134845 0.85919017 0.8161648
0003e0 2c 90 ab be c0 32 10 40 43 04 55 c0 1f 58 14 c0
       -0.33508432 2.2530975 -3.328385 -2.3178785
0003f0 bc 88 37 bc 2a 21 52 3f 01 89 09 3f a7 7e 15 c0
       -0.011202034 0.82081854 0.53724676 -2.3358552

fc2.bias f4 [64]
000000 f9 f7 8b 3e ac 8c b0 3e cc 24 4e 3e 20 61 2b bf
       0.27337626 0.34482324 0.20131224 -0.66945076
000010 a5 da 82 3d 3a 5b 62 3c 71 c3 49 3f c6 cd 09 be
       0.063893594 0.013815695 0.78813845 -0.13457403
000020 f5 50 f8 3e 26 8d c6 3a e4 8f aa be 90 eb 0f 3e
       0.48499265 0.0015148267 -0.33312905 0.14054704
000030 6e 52 02 be d0 cb 58 be 67 5f 3f bd 86 76 ca bd
       -0.12726757 -0.21171498 -0.046721842 -0.09885888
000040 04 c5 0b 3e cf 7f 78 be f4 20 da be db d9 a5 3e
       0.13649374 -0.24267505 -0.42603266 0.32392773
000050 4b 58 30 bf 1f ef 7c 3e 56 13 df be 0d 41 62 3f
       -0.68884724 0.24700592 -0.4356944 0.8838051
000060 fc e1 5d bc df 9d a7 be ac ee 04 3f 0c 55 0f be
       -0.013542648 -0.32737634 0.51926684 -0.13997287
000070 07 61 55 be 7a e2 83 3e 5a a5 a3 3e ed 63 25 bf
       -0.20837794 0.25758725 0.3196209 -0.646056
000080 70 e9 de be 72 d6 8a 3d b5 8d d9 3d 1a 9c a4 bd
       -0.43537474 0.067791834 0.106227316 -0.080375865
000090 7f 50 01 bf 13 e6 82 bf 34 76 7f bd 1a 9b 4b 3e
       -0.5051345 -1.0226463 -0.062368587 0.19883385
0000a0 c0 83 71 3d df 5f 9a 3e d2 83 60 39 f8 6f b6 be
       0.058963537 0.3015127 0.00021411412 -0.356323
0000b0 f7 8c 3e be ff 13 84 bc db 62 d1 be 9c a3 fb bd
       -0.18608461 -0.016122816 -0.40895733 -0.122870654
0000c0 20 16 e7 3e 3b 53 fd 3e 6d c6 4c be b7 d3 c2 be
       0.45134068 0.49477562 -0.19997568 -0.3805215
0000d0 51 41 d4 be ae d6 9f bd e7 9f a8 be 14 cf 59 be
       -0.41456082 -0.07804619 -0.32934496 -0.212704
0000e0 20 b3 e5 bd 26 23 31 bf 4c 61 c8 3e d0 13 35 3d
       -0.11215806 -0.6919426 0.39136732 0.044208348
0000f0 2b 78 a7 bc 94 84 a7 be f7 97 06 bf 35 02 c5 be
       -0.020443043 -0.32718337 -0.5257563 -0.38478246

fc3.weight f4 [64, 64]
000000 22 17 c7 bd 7c b6 9b bf a0 18 27 bf a8 1f 7c 3f
       -0.09721209 -1.2165065 -0.6527195 0.98485804
000010 10 1d 84 bf 33 15 89 be 7b f4 f5 3e c9 48 52 bf
       -1.0321369 -0.26773986 0.48038086 -0.8214231
000020 a2 0f a1 bf 08 6b 33 bf 76 6c 21 bf e9 64 d3 be
       -1.2582896 -0.7008519 -0.63056123 -0.41287926
000030 6d 3d 28 3d 7d 86 06 bf 7b cb 96 bd 0f 01 03 3f
       0.041074205 -0.5254896 -0.073630296 0.5117349
000040 19 58 16 3f 0a 52 32 bd 1e ce 8b bf 04 d6 a2 3d
       0.58728176 -0.04353527 -1.0922277 0.079509765
000050 bf bc 56 be 5f ed d6 bd 78 da 81 bf b1 3a 3c be
       -0.20970438 -0.10494494 -1.0144796 -0.18381764
000060 4b ff 26 bf 73 94 d2 be e7 ac 55 be 17 db d5 bd
       -0.65233296 -0.41128883 -0.20866738 -0.10442179
000070 dd d1 ad 3e b2 0a b2 bd 16 f2 03 3f e1 df e7 bf
       0.33949175 -0.08693446 0.5154127 -1.8115197
000080 0f ee c2 be 1f 32 24 3f 77 d4 ab 3d c5 2e 2a be
       -0.3807225 0.6413898 0.08390134 -0.16619404
000090 a0 5d 5b 3c f3 25 48 3e 7b d9 b8 bf aa 18 8b 3e
       0.013389021 0.19545726 -1.444137 0.27167255
0000a0 0d 22 04 3f b6 01 75 3f 5d db f6 be b7 57 4d bd
       0.5161446 0.95705736 -0.48214236 -0.05013248
0000b0 9c de b5 bd b4 ae a7 3e 2d ef 4b 3e e3 50 3b 3f
       -0.0888035 0.32750475 0.19915457 0.731703
0000c0 31 71 c3 bf 22 fe f6 bd 89 d7 a7 3d f5 0e 84 3e
       -1.5268918 -0.12060191 0.08195407 0.2579266
0000d0 8a a7 04 3e 05 b5 a4 bd 43 12 82 be ed 60 bf be
       0.12954536 -0.08042339 -0.25404558 -0.37378636
0000e0 c2 ad b9 bf c9 05 c7 be 64 4a 0c 3f 76 6f dd bf
       -1.4506152 -0.388716 0.5480101 -1.729964
0000f0 f6 71 1e 3f bc de 00 bf cf 43 26 3f 99 c4 00 be
       0.6189264 -0.50339866 0.6494722 -0.12574996
000100 30 03 72 3f ff a5 e9 bc 67 d8 ad be 9d 61 63 3e
       0.94536114 -0.028521536 -0.33954164 0.22205205
000110 ee 07 19 3f 04 1e 92 bf 5f 59 fc be 26 5c 22 c0
       0.59777725 -1.141541 -0.49286935 -2.5368743
000120 67 a0 94 3f 07 44 ae be d2 ee d7 bd 57 be 93 bf
       1.1611451 -0.34036276 -0.10543598 -1.1542462
000130 de c9 5c bf 81 4e 11 3f 79 06 df be b9 69 d7 bf
       -0.86245525 0.5676041 -0.43559626 -1.6829139
000140 79 9c 04 bf 5f ea 96 3c 2e fe 7e be d8 4d 2a 3f
       -0.5180126 0.018422304 -0.2490165 0.6652503
000150 16 d1 9c bb 57 0c 01 bf f3 9f 46 3e 4e 34 96 3e
       -0.004785667 -0.50409454 0.19396953 0.2933678
000160 a1 45 d2 bd 87 43 4e bf c1 83 0e bf 8e 35 25 bc
       -0.10267187 -0.8057179 -0.5566979 -0.010083569
000170 30 18 f9 3e bb 1f 6a bf d6 dc c9 be 3f 61 6d bf
       0.48651266 -0.91454667 -0.39426297 -0.9272651
000180 90 42 20 3e 26 1d 3c 3e e6 35 84 3e 1d 7b 1a be
       0.15650392 0.18370494 0.2582237 -0.15086026
000190 8b 12 87 3e ac 3e 61 be 83 4f 84 3d 8e 0f 20 bf
       0.26381335 -0.21996564 0.06460478 -0.62523735
0001a0 f8 fe 25 bf 66 20 26 c0 04 0e 2d bf a5 fa da bd
       -0.64842176 -2.5957274 -0.6759951 -0.10692338
0001b0 b8 15 50 bd bc ff 0d c0 06 b8 be bf e7 8f 53 c0
       -0.050801963 -2.2187338 -1.489991 -3.305658
0001c0 b5 81 0d c0 17 ab fb bf 70 e7 35 bc 02 48 c7 3f
       -2.2110417 -1.9661587 -0.011102542 1.556885
0001d0 22 42 f5 bf 63 de 05 bc 87 a8 80 3f 8a 03 05 bf
       -1.9160807 -0.008170697 1.005143 -0.51958525
0001e0 de 03 52 3f 66 54 84 3e 34 79 82 bc 84 0f 20 3f
       0.8203715 0.2584564 -0.015926935 0.62523675
0001f0 de 45 16 3f 45 8d e7 bd 39 ba bd be 92 04 57 be
       0.5870036 -0.11306242 -0.3705614 -0.20997837
000200 57 05 a0 3f ef 7f bc 3f 85 bd bf bd 1b 6c 2e be
       1.250163 1.4726542 -0.0936232 -0.17033426
000210 91 5a 38 3f a3 40 b0 be 76 3d 3e 3f 31 2d 80 3e
       0.72013193 -0.34424314 0.7431253 0.25034478
000220 1e f4 53 3e 97 c6 c8 be ad e4 b8 3d e5 4d ce be
       0.20698592 -0.39214012 0.090279914 -0.40293804
000230 14 83 b4 3e 8f 52 74 bf 46 2f 1b bf 64 a7 88 bf
       0.35256255 -0.95438474 -0.6061901 -1.0676084
000240 75 64 51 bf b0 c0 f5 3d dc 9a 3f bf 8e 78 fc be
       -0.8179391 0.11999643 -0.7484567 -0.49310726
000250 71 41 8a 3f b8 1e aa bf 85 08 c1 bf c1 2b cb be
       1.0801221 -1.3290625 -1.5080725 -0.3968182
000260 3f d6 be be fa 8f 83 3d 86 43 e5 bf 7c d5 eb bd
       -0.37272832 0.06423946 -1.7911232 -0.11515328
000270 ad 63 aa bf 49 db 01 c0 94 87 8c bf 9e bc 74 3f
       -1.3311669 -2.029009 -1.0978875 0.95600307
000280 ff bd 94 3d 72 ad 3f bf 39 71 9c 3f 97 c1 32 bf
       0.072628014 -0.7487403 1.2222053 -0.69826645
000290 43 ef 02 bf aa 9a 31 bf b2 92 bf 3f bc dd 67 bf
       -0.51146334 -0.69376624 1.4966643 -0.90572715
0002a0 b6 58 99 3f 58 52 11 be 01 1a 00 be 30 54 af bf
       1.1980197 -0.14191568 -0.1250992 -1.3697567
0002b0 7c 2a cd 3d ba 6b 4d bf e5 4e 0c 3e f0 62 a1 bf
       0.10017869 -0.802425 0.13701971 -1.2608318
0002c0 3b d3 23 c0 ce bb f0 bf cc 42 a3 bd 43 49 56 be
       -2.5597675 -1.8807313 -0.07971725 -0.20926385
0002d0 d8 03 70 be 3c 5d 09 bd 14 9b 4c bf d2 58 d7 bf
       -0.23438966 -0.03353618 -0.7992413 -1.6823981
0002e0 f0 97 d9 bd 46 0f 40 3d cc 58 53 bf b4 a3 a1 bf
       -0.10624683 0.046889566 -0.8255737 -1.2628083
0002f0 f1 8a 9a 3e cc a6 7f be c5 37 8d 3e 01 f5 09 3c
       0.3018413 -0.24965972 0.2758161 0.00842023
000300 9b 84 0c 3c 87 c9 9c be 70 94 4d c0 b0 6b 51 bf
       0.0085765375 -0.30622503 -3.212185 -0.81804943
000310 e8 d0 3a 3f 01 bc 8d 3e f0 b7 d6 3e 41 a3 59 3f
       0.72975016 0.27682498 0.41937208 0.8501473
000320 7e e9 21 3f 74 31 a6 bf bc 70 19 be 2e c2 9e bf
       0.63246906 -1.2983842 -0.14984411 -1.2403009
000330 07 2a 23 bd 57 d6 1c bf 5b 55 12 be 58 04 84 bf
       -0.039835002 -0.61264557 -0.14290373 -1.0313826
000340 5e df c4 bf 3c 0b 01 bd 7a c5 08 bf e8 1d 60 3f
       -1.5380666 -0.031504855 -0.53426325 0.87545633
000350 fc 04 08 c0 2d 1d 17 bf 46 5e da 3e d1 7d 09 bd
       -2.1253042 -0.59028894 0.4265005 -0.033567254
000360 62 bd bf 3c d1 73 bf be 15 82 09 bf d0 1d 68 3d
       0.023405734 -0.37393048 -0.53714114 0.056669056
000370 88 60 77 be df f5 03 bf 58 4b 7e bf 35 03 58 bf
       -0.24157917 -0.51547045 -0.99333715 -0.84379894
000380 a2 65 7b bf 9e 56 c3 3f 7c ed 0f 3f ef d4 81 bf
       -0.98201954 1.5260808 0.5622175 -1.0143107
000390 3d b6 84 bf 45 53 9a bf e7 de ca 3f ab 35 dd bd
       -1.0368115 -1.2056662 1.5849274 -0.10801252
0003a0 81 07 27 3f bf 3a c4 bf 32 6e 3c 3d e2 8f 9e 3f
       0.65245825 -1.5330428 0.046003528 1.238766
0003b0 3e 25 78 3d de fb 90 bf 2d 7c 2d c0 25 c7 46 bf
       0.060582392 -1.1326864 -2.710704 -0.7764762
0003c0 83 a7 10 bf 58 24 a3 bf 7b 32 38 bd a7 e9 30 bf
       -0.565056 -1.2745466 -0.044970017 -0.69106525
0003d0 8e 75 f3 bf 9e e6 a2 bd 0c 51 1c 3f f7 a8 d2 bf
       -1.902025 -0.07954143 0.6106117 -1.6457814
0003e0 b9 7c 26 40 19 b2 1a 3e a1 a3 82 bf d5 24 8f 3f
       2.6013625 0.15107001 -1.0206186 1.1183115
0003f0 0e ff c1 bf d8 da ad be 23 6d 20 3f 2e 76 9f be
       -1.5155962 -0.33956027 0.6266653 -0.3114485

fc3.bias f4 [64]
000000 2e dc 43 3f f4 da 19 3e 83 15 03 3e 09 ba db be
       0.7650784 0.1502493 0.12801175 -0.4291537
000010 d6 7d 38 3f 07 86 5b bf 6d 30 16 3f 73 02 13 3e
       0.7206701 -0.85751384 0.5866764 0.14356403
000020 76 65 03 3f 30 c8 51 be 2c a8 32 bb f7 ac 34 bf
       0.5132669 -0.20486522 -0.0027260883 -0.70576423
000030 d4 db b7 3f 06 56 8d 3f 60 af 4e bf cb a9 65 be
       1.4363961 1.1041877 -0.8073635 -0.22428052
000040 a7 d9 9f 3d 7c b7 58 bf a4 f3 cf be 2f 28 8a 3f
       0.07805186 -0.84654975 -0.4061557 1.0793513
000050 79 e9 2f 3f 9d da 39 bf 01 eb 5d bf 1a 4a 06 bf
       0.68715626 -0.725992 -0.8668671 -0.5245682
000060 80 55 29 bf e5 f9 e7 3e 6a e0 fe bd 9d 9c 05 3d
       -0.6614609 0.45307842 -0.12445147 0.03262006
000070 df 84 bb 3d f7 d6 3f 3e 07 d2 ff be 41 0c 54 3e
       0.091562025 0.18734346 -0.49964926 0.207078
000080 4a d2 85 be 38 85 e4 bd 4f b4 b8 bd 2f 8f 7e 3f
       -0.26137 -0.11158222 -0.09018766 0.9943723
000090 e8 48 c3 be fb 75 29 3f e9 b5 2f bf c7 f8 9e 3e
       -0.3814156 0.6619565 -0.6863695 0.31049177
0000a0 5b 47 5a 3d ec 35 1f be 66 3b 4e be c4 38 41 bf
       0.053290706 -0.15547913 -0.20139846 -0.7547724
0000b0 d1 c4 05 3f 8e f3 5f be 80 02 77 be f0 e3 bc be
       0.52253443 -0.21870252 -0.24122047 -0.36892653
0000c0 99 26 f4 be f7 ca 88 3e ac e0 26 bf 9c 33 aa bd
       -0.47685698 0.2671735 -0.6518657 -0.08310625
0000d0 92 34 7e be d4 01 4d be 4e 6b cb 3e 26 29 38 be
       -0.24824741 -0.20020229 0.39730304 -0.17984447
0000e0 ef 2e ba 3d 5c f2 90 3e e7 ae e8 3e 49 fb 23 be
       0.09090983 0.28309906 0.4544594 -0.16013826
0000f0 37 b2 2f 3f e3 0e 8c bd 12 d6 cf 3e 06 6f 56 3f
       0.6863131 -0.06838777 0.4059301 0.8376316

q_out.weight f4 [1, 64]
000000 2f b4 cf 3e 11 ab 35 c0 71 2c 80 c0 56 24 bd bf
       0.40567157 -2.838566 -4.005425 -1.4776714
000010 ca 9f 97 3e c9 01 8b c0 84 fb a3 3e 03 22 bb 3e
       0.29614097 -4.343968 0.3202783 0.36549386
000020 46 20 b2 3e 42 42 82 3c fe 11 8c bf 59 5f ea bf
       0.34790248 0.015900735 -1.0942991 -1.8310348
000030 f9 09 31 3f 73 ba 2c 3f 5b 03 e1 bf 6e ae 5e 3c
       0.6915584 0.67472 -1.7579149 0.013591392
000040 43 b8 bb 3f 4a c5 24 c0 8b 26 07 bf 18 bd cb 3e
       1.4665607 -2.5745416 -0.52793187 0.39792705
000050 b7 8d e0 3e 28 d1 2e c0 e2 90 80 c0 6b 46 9f 3e
       0.4385812 -2.731516 -4.017686 0.31108412
000060 8c 98 25 c0 be bf 41 bf 27 62 45 c0 c0 04 f1 bf
       -2.5874357 -0.756832 -3.0841157 -1.8829575
000070 63 cd f8 3e 67 7d 7e c0 a0 a9 57 bf 73 f8 22 3f
       0.48594198 -3.976404 -0.842432 0.63660353
000080 c3 07 1d 3f cd 15 24 3c 94 71 31 3f 58 4e db 3e
       0.6133997 0.010014963 0.6931393 0.4283321
000090 9c c7 e0 bf 24 6f e6 3e 51 b1 5a c0 07 f7 8c c0
       -1.7560916 0.4500667 -3.4170725 -4.4051547
0000a0 3d c7 76 c0 1d 9d d2 be 2b ea 03 3d 0f 81 1f c0
       -3.8559105 -0.41135493 0.03220574 -2.492252
0000b0 f7 89 ef 3e 1d 8f 34 c0 d9 f8 53 c0 87 1c 96 bf
       0.46784946 -2.821235 -3.3120635 -1.1727456
0000c0 14 bf 6d 3e 7e 55 8d c0 0c 4f 4c c0 4a 95 03 bf
       0.23217422 -4.416686 -3.1923246 -0.5139967
0000d0 77 d1 12 3c e1 1b 91 bb 59 f3 e2 3e ab fa c4 bc
       0.008961073 -0.0044283723 0.44326285 -0.024045309
0000e0 61 4b 45 c0 df 26 cd bf 9d 53 44 c0 43 99 f2 bc
       -3.0827258 -1.6027488 -3.0676033 -0.029614097
0000f0 41 cf 0c bf 3f a8 fa bf a7 0c a8 3e 2e 30 a2 3f
       -0.55003744 -1.9582595 0.32822153 1.2670953
