Assets/Python/maddpg/model/simple_oneagent/agent_0/actor_params.pkl (torch, 43201 bytes, 8 tensors)

fc1.weight f4 [64, 24]
00000000: ef47 dabe b0bc 9dbd 553b 3dbe 4675 883d
00000010: c427 52bc 43e2 7f3a 967a 2f3e 2acd b03d
00000020: 37aa 8fbe e969 5d3e b93c c53d dec7 95be
00000030: b5d0 0f3d 5096 6cbb d6ff 6f3e 1d99 533e
00000040: 5cba 573a 68f8 1bbe 5ca4 23bc 893d d8bd
00000050: 6436 62bd b7b2 373e 894b 3a3d f876 643e
00000060: db2d ecbc f512 f03d fe17 8fbe 3113 3cbe
00000070: 05d4 b83d 68dc d3be 3357 04bd f9dc 7c3e
00000080: 0972 bc3c 5e84 27be 0229 85bd c431 8f3e
00000090: 7e0d 483e 4037 7b3e a5ca 923d ba66 d5bd
000000a0: 02fc 933c 32bf 2cbd 0488 babd 56f0 7c3e
000000b0: 5004 18be c3ea 67be 32e3 cf3e 9a48 4cbe
000000c0: acd5 fd3d 06be 553d 2b4d f23a dc66 c23c
000000d0: 4a9b 00be 1977 57bc 3ccb 3ebd 873a 723d
000000e0: 6e24 f9bd 45bd 30be c788 d0be 64df dc3d
000000f0: 8214 f8bd f6ef 56be 73b0 293c 813e a4be
00000100: 87b9 a4bd c8c2 ba3e eb0d 8fba 017f 18bb
00000110: bd84 ec3d 46d9 bfbe 3e74 68be feca 163e
00000120: 4d04 463e 5a38 103f c463 9abe 9996 fd3c
00000130: 617f 43be 42a2 0ebe 873c 493d 5455 aa3e
00000140: ab5c 4e3e dc53 91bd b4d6 ca3c 5368 bc3d
00000150: 676a a73d 67cb 4a3e 77eb f23d ad59 8bbc
00000160: 96b1 1b3e a23c 8cbc c200 2f3d 7fd2 483d
00000170: 78de 013e b571 85bd 06d8 283e 9a1f 373e
00000180: a624 b13e ff16 95be 23d7 673e a767 843d
00000190: 4d0b 903e 8538 f93d 5b55 293e 2f5f 2bbe
000001a0: 35fb a8be c8ca 4139 ddcf 753e 89f8 24bc
000001b0: f56e 35bd 9f71 21bc 69aa 76be ae77 2bbc
000001c0: 40ac a13d 4137 6fbe da42 17be 1d97 00be
000001d0: 2d12 1a3e 134e c13b c7a9 053d e7e3 2c3c
000001e0: 1fcc c13e e64b a03d 0f40 a0be d679 4f3e
000001f0: 3239 c5bc 314e 983d 60df f23b b4b5 393c
00000200: 05e8 71bd f189 c23d 384c 073e 45ae 4d3d
00000210: d1fd 95be e97d 8abd ca9b 8dbc a315 9a3d
00000220: 6ff5 273e 266e 5ebe bbec 46be 6fa7 913e
00000230: 0156 9bbd 67a8 283e 2acc 073d 72a3 91bd
00000240: 6684 043f f8d7 9e3e 5a9e 38be b902 003d
00000250: 203c dabd a800 b23e 76e3 5ebd 83d7 853d
00000260: 03e4 bb3d fa88 933e 18c8 16bd ef7a aa3e
00000270: e657 bebd edca a83c 93c1 c8bc 61ae 123e
00000280: fc02 6d3d 5901 4fbe ae7d 533e 1261 3d3e
00000290: e88e 513d d095 063e f123 a7bc adec 4b3e
000002a0: ffaf acbe 47f7 923d c218 c5be 7605 743e
000002b0: cce7 453d 9b66 9cbe 8cf2 ab3d 6d5f fabd
000002c0: 1ea9 b6bd 4c91 63bc eaa9 0a3e 1d4b 7c3d
000002d0: 143f 763e e717 4e3d 7509 303e 5ca6 8e3d
000002e0: 0d5e cabd 82df 94bd 1c73 ba3d 9c6e fd3d
000002f0: 11b4 32bd f5f3 77be 028d 653e 7340 823e
00000300: d041 803c e31a 3a3e dcac 863e 8b94 853d
00000310: 14c3 fb3b 2936 52bd 0a8f 86bd faad 9abd
00000320: a78a 9c3d ebfb ce3d 783c 89bd ffcb 933e
00000330: fc1c 423e ce32 d7be ee3f 3fbe a1ed 0b3e
00000340: c9f8 afbe bdd9 1f3e 60a1 94bd d8b8 17be
00000350: ff41 a8bc bb02 e4bc 82c9 8ebe c6f6 033e
00000360: 0061 813d a137 013e afea 46be 994c 483e
00000370: ad44 88bd 86e4 283d e123 353e 4b3b 88be
00000380: 3dcf a9bd 5e46 2a3e 8ebc 3e3d 54a0 5c3e
00000390: 362a a0bc 1e8e 91be a518 a1be 5d3e b8bd
000003a0: eedf 12be 6313 a2be 35cf efbc ea65 dfbd
000003b0: 8acc 61bc a5fc 2abd c1cc d5bc 0783 6c3e
000003c0: 15f1 24be 328a 0ebe 5e46 11bd f0b7 fa3e
000003d0: 5341 6f3d 9e40 fc3d cf8d 283c a01c 17be
000003e0: ee72 ec3d e644 8e3d ec9f 0ebd 7674 20bb
000003f0: cbc3 543e 77d5 86bd f274 073e e045 4a3e
-0.42633006 -0.07702005 -0.18479665 0.06662993 -0.012826864 0.00097611937 0.17136607 0.08632882
-0.2805955 0.21622433 0.096307226 -0.2925405 0.035111148 -0.0036100335 0.23437437 0.20663877
0.0008229369 -0.15231478 -0.009987917 -0.10558612 -0.055227652 0.17939268 0.045482192 0.22311008
-0.02883046 0.11722366 -0.27947992 -0.18366696 0.090248145 -0.41379094 -0.032309722 0.2469367
0.023003595 -0.16359088 -0.06501962 0.27967656 0.19536397 0.24532795 0.071675576 -0.10419984
0.018064503 -0.042174526 -0.09107974 0.24701056 -0.14845395 -0.22648148 0.40603024 -0.1994957
0.1239427 0.052183174 0.0018486133 0.023730688 -0.12559238 -0.013150954 -0.04658054 0.059137847
-0.121651515 -0.172597 -0.40729353 0.10784796 -0.121132866 -0.20989975 0.01035701 -0.32078937
-0.08043199 0.3647673 -0.0010914182 -0.002326906 0.11548755 -0.37470454 -0.22700593 0.14725873
0.19337578 0.56335986 -0.3015424 0.0309556 -0.1909156 -0.13929084 0.04912999 0.33268225
0.20152538 -0.07096073 0.024760582 0.09199586 0.081745915 0.19804154 0.118613176 -0.017010534
0.15204462 -0.017118756 0.042725332 0.04902887 0.12682521 -0.065158285 0.16488656 0.17883149
0.34598273 -0.29119107 0.22640662 0.064650826 0.28133622 0.12168983 0.16536467 -0.16735528
-0.33004156 0.00018481456 0.24005075 -0.010069021 -0.04429527 -0.00985375 -0.24088444 -0.010465546
0.07894182 -0.23360921 -0.14771596 -0.12557645 0.15045996 0.0058991998 0.032632615 0.010552383
0.37851045 0.078269765 -0.31298873 0.2026132 -0.024075124 0.07436789 0.0074118823 0.011334825
-0.05905916 0.094989665 0.13212669 0.050215025 -0.2929521 -0.06762297 -0.0172862 0.07523658
0.16402219 -0.21721706 -0.19426243 0.28448054 -0.07584763 0.1647049 0.03315369 -0.07111253
0.51764524 0.31024146 -0.18029156 0.031252597 -0.10655999 0.34766126 -0.054416142 0.06535246
0.09174349 0.28815442 -0.036811918 0.33296916 -0.09294109 0.020604575 -0.024506366 0.14324333
0.057864174 -0.20215358 0.20653412 0.1849406 0.051161677 0.13143086 -0.02040288 0.19914503
-0.33728024 0.07176071 -0.3849545 0.23830208 0.04831676 -0.30547032 0.083958715 -0.12225232
-0.08918975 -0.013889622 0.1354138 0.06159507 0.240475 0.050315764 0.17191108 0.06965324
-0.0988122 -0.07269193 0.091039866 0.12374613 -0.043628756 -0.24214156 0.22417071 0.25439796
0.015656382 0.18174319 0.26303756 0.06522473 0.0076831672 -0.051321182 -0.06570251 -0.07552715
0.07643633 0.10106643 -0.067009866 0.28866574 0.18956369 -0.42030948 -0.18676731 0.13664867
-0.34369496 0.15610404 -0.07257342 -0.14816606 -0.020539282 -0.027833333 -0.27888113 0.12887105
0.063173294 0.12618877 -0.19425462 0.1956047 -0.06653724 0.041233562 0.17689468 -0.26607737
-0.08291481 0.16628405 0.04656654 0.21545535 -0.019551378 -0.2842874 -0.31464115 -0.0899627
-0.14343235 -0.31655416 -0.029273609 -0.109081104 -0.013781676 -0.041744847 -0.02609861 0.23096858
-0.1610759 -0.13919905 -0.035467498 0.48968458 0.058411907 0.12317012 0.010287716 -0.14757013
0.115453586 0.06946735 -0.034820482 -0.0024483479 0.20777814 -0.06583684 0.13228205 0.19753218

fc1.bias f4 [64]
00000000: 6f34 223e 3dd6 533e 5876 19be 7042 243e
00000010: 3d2d 333e 667b 9a3e 6a21 6a3d 46de 9ebd
00000020: af7d 473e 7229 743d 05a3 f2bd 3ffd cabd
00000030: ce1a ba3d ca55 3c3e 7ad1 c8ba 2ad0 eebb
00000040: 7b74 5f3e 9932 9ebb 1959 d9bc b905 febc
00000050: 30c8 f93d 23d3 08be cc5b c43b 8882 01be
00000060: d06a 023d f862 7ebd b895 923e 5475 103e
00000070: a428 2b3e 81cf 5e3e 491a 6b3c bd39 06be
00000080: a028 383d ef87 793e b030 2d3e 28c0 d53d
00000090: 1b30 763d b60c b7bd 0151 e63d 2322 1abd
000000a0: 17b1 b33e 5301 083e a497 8f3d 7d33 e63c
000000b0: 6e83 5d3c 4cea 463e ac73 573d edc4 663d
000000c0: 05f9 6bbd 8374 233e d5e0 2d3e a83c 413d
000000d0: 32af 1ebe 4ded 893e cde9 5c3e c1be e3bd
000000e0: f7e7 a43b 53b3 3d3e c027 df3d 4295 8a3e
000000f0: e825 023e 8d3e dd3b 7f85 283d 3fa5 0a3c
0.15840314 0.20687194 -0.14986551 0.16040969 0.17497726 0.3017227 0.057160772 -0.07757239
0.19481538 0.059609838 -0.118475 -0.09911584 0.09087144 0.18392101 -0.0015321218 -0.0072879987
0.21821778 -0.004827809 -0.026531743 -0.031008588 0.12196386 -0.13361792 0.0059923884 -0.1264745
0.031840146 -0.062106103 0.2862985 0.14107257 0.16714722 0.21758844 0.014349529 -0.13107963
0.044960618 0.24368261 0.16913104 0.104370415 0.06010447 -0.08937971 0.11245919 -0.03763021
0.35096046 0.13281755 0.07011345 0.028100723 0.013520105 0.19425315 0.052600548 0.056340147
-0.05761053 0.15962414 0.16980298 0.047176987 -0.15496519 0.2693886 0.21573563 -0.11120368
0.005032535 0.18525438 0.108962536 0.27067 0.12709773 0.0067518414 0.041142937 0.008462249

fc2.weight f4 [64, 64]
00000000: 4931 84be a318 96bc f8a3 863d 769e 3e3e
00000010: 551f 48be 2879 2ebe b7bd 0c3e 0f8a d0bc
00000020: 1fca 093e d9d8 a13d f5e9 813e ae56 29be
00000030: 51a6 8ebe c2fb 34be 928b e63d c8ee 4f3e
00000040: b44a f9bc f67c 6cbe efd0 4f3e 4585 b63e
00000050: 51c5 51be 7fe2 5abe d364 113d ee4a 1d3e
00000060: c4ea f8be 0269 1cbe 87e1 873d 3280 ce3d
00000070: 8da8 593c 6285 26bd ce31 36bd 0518 253d
00000080: 0033 093c 3368 42bb 332e 8fbe bb51 df3d
00000090: 53e8 633e ab62 523e ea47 4b3e 6a81 f9bc
000000a0: 2d6c 11bb eddf 94bc 61dc 6dbe c46d 643e
000000b0: af35 8fbd 2ac4 073c a249 cebe 2b23 c9bd
000000c0: 244e 8d3d 9f47 ddbe 61bb 153e 3cef 9a3e
000000d0: 1fa8 02bf c156 f8bc 557a ac3d fb04 27bd
000000e0: 44ed 7e3e 32a2 843e ed6a 083e 83e4 273e
000000f0: 5b1b 46be e502 95be b145 c3bc 807d d1bd
00000100: 0a73 23be e481 a43d 0749 18be ea29 3d3e
00000110: cf42 79be 6701 a03d 2b45 b63d dab9 cc3d
00000120: c05a 473e f81f a1bd d866 8ebe 684e a5bc
00000130: cbee cdbd 4b3e 1d3e 4324 883c 5e81 bcbd
00000140: 14bd 0c3e 7ac9 76be dbeb 7f3e 327a 913e
00000150: 4e70 a53d 12d2 adbd 4ff3 fcbc 0e2f 90bd
00000160: 220d be3e 7b5d 493e 9b4f 91bd 299b 233e
00000170: ab72 17be e62f 813e 92c7 febc 2bdd aebd
00000180: b741 503e 7caa 12be 029e 24be fe29 693c
00000190: af70 e8bd 60cc 923e 3ff2 4a3d 39e4 823d
000001a0: 6806 633e 5fe4 9abb 97bc 363d 6df9 2d3d
000001b0: 7c41 06be e970 063d 8059 21be b665 56be
000001c0: 37cf 3b3e 27c6 4f3d c61a fabb b75b cfbc
000001d0: 9994 183a a6b8 0b3e 86c3 3dbd f096 603e
000001e0: 9b13 df3d f864 dc3d 621c dcbb 54a1 063e
000001f0: e3f8 c83d f90f d9bd bcbd 5b3e 1258 f2bd
00000200: 49cc ba3e 5e9c f43d 3d84 ca3d 37eb 3abb
00000210: 028d fc3c 2f1a bd3e 1e5b 0bbd 897c 03bd
00000220: 3d64 a7bd ea17 343e 4bf6 2d3c 565a 0a3f
00000230: d1c3 d8bd 8c65 16be 0132 98be 5152 803e
00000240: 1478 c53d 6d98 873e d2fb 283e 39c8 b3be
00000250: 388e 1bbd 7aaf 14be 504d 5b3e 920f 8e3c
00000260: 50f0 cf3d a2d4 adbd fb4a bbbc 9723 7abd
00000270: b76c 033e 7e13 09bf aa01 d4bc 83f8 1a3d
00000280: 54da 223e 189f afbd 80da c9be 2dd4 b2bd
00000290: 1497 073e a932 abbd b6e0 8f3e 2a82 d3bd
000002a0: 81c4 0e3c 24d8 84be a134 e6be 57a9 1a3e
000002b0: e16e 2dbe beb3 1dbd bb72 b2be 3675 133e
000002c0: aefb ad3d 32c1 5abe 0b6f b0be 8b6a 9a3e
000002d0: eed3 913d d7a8 b5bd 9979 ae3b e9f2 f63d
000002e0: d884 36bd f001 c83d 5bdb 203e 6b49 3dbd
000002f0: 31a2 a5bc f658 2abe 4926 8abe 1dc5 ba3c
00000300: b807 133e 9d19 d33c 0802 fc3d db85 97bd
00000310: 7a90 703e 3e12 82be 1d96 ca3d a24f ad3d
00000320: 205e 383d 9e5c b63d 8dd3 c0bc 9013 56bd
00000330: 539f 983e ed51 c2bc 2d5c e03d 84f6 dabc
00000340: 28a3 593c a66c 5bbe 3405 aebd c546 0ebf
00000350: 9146 fbbd 72c2 dcbd 1017 bb3c 3022 353d
00000360: 274f 77bd 4a4c 9a3e 6b7d 2e3e ab74 0abe
00000370: 3290 b53d 42d9 bcbd da9c a43d fb9a ed3d
00000380: ab2e 023e 5211 6bbc ea91 493e b71c 853d
00000390: b963 013d 8560 f4bc b972 1cbe 8dd2 c8bd
000003a0: 645b 53be d919 0b3d c885 763d dc70 90bc
000003b0: 8d8f 5f3d 1cdd e7bc 3bf1 953e 9f23 07bd
000003c0: 58aa 08bf 2e2c bd3c 320c d93d b488 743d
000003d0: d519 7f3e 3783 9bbd 656b 68bd 9a1e bebe
000003e0: 0459 893d dc0a 28be b2b2 7bbe dc9c 40bd
000003f0: ea64 4dbd 99c4 093e 31de cdbe 6481 203e
-0.25818852 -0.018322295 0.06574243 0.18615136 -0.19543202 -0.17038405 0.13744245 -0.025456456
0.1345601 0.079026885 0.25373808 -0.16536972 -0.27861264 -0.17674163 0.1125709 0.20305932
-0.030431129 -0.23094544 0.20294546 0.35648552 -0.20485426 -0.21375464 0.035496544 0.15360615
-0.48616612 -0.15274432 0.06634813 0.10083045 0.013284815 -0.040654548 -0.04448109 0.04030611
0.008373976 -0.0029664158 -0.27964935 0.10904261 0.22256593 0.20545451 0.19851652 -0.030457217
-0.0022189722 -0.018173182 -0.23228599 0.22307497 -0.06992661 0.008286515 -0.40290552 -0.09821161
0.0689967 -0.43218705 0.1462226 0.30260646 -0.5103778 -0.030314805 0.084217705 -0.040776234
0.24895197 0.25904995 0.13322039 0.16395764 -0.19346373 -0.2910377 -0.023836942 -0.10229015
-0.15961853 0.08032587 -0.14871608 0.1847302 -0.24341892 0.078127675 0.088999115 0.09996386
0.19468212 -0.07867426 -0.2781284 -0.020178989 -0.10055312 0.15355794 0.016618853 -0.09204362
0.13744003 -0.24100295 0.24992315 0.2841354 0.08078061 -0.08487333 -0.030877737 -0.07040225
0.37119395 0.19664566 -0.07095262 0.15977158 -0.14789836 0.25231856 -0.031101022 -0.08538278
0.20337568 -0.14322847 -0.160759 0.014231203 -0.11349618 0.2867155 0.04954743 0.06391186
0.22170413 -0.004726931 0.044613447 0.0424742 -0.13110918 0.032822523 -0.15756798 -0.20937237
0.18340765 0.050726082 -0.007632586 -0.025312288 0.00058204826 0.13644657 -0.046329044 0.21932578
0.10892411 0.10761446 -0.0067172507 0.1314748 0.098130964 -0.1059875 0.21459097 -0.11833204
0.36483982 0.11943887 0.09888504 -0.0028521547 0.030828957 0.3693404 -0.034022443 -0.032101188
-0.08173416 0.17587247 0.010617803 0.5404409 -0.10584224 -0.14687175 -0.2972565 0.25062802
0.09642044 0.2648348 0.16502312 -0.35113695 -0.037977427 -0.14520064 0.21416211 0.017341409
0.10153258 -0.08487822 -0.022862902 -0.061069097 0.1283444 -0.5354537 -0.0258797 0.037834655
0.15903598 -0.085752666 -0.39424515 -0.087318756 0.13241225 -0.08359272 0.28101128 -0.10327561
0.008713842 -0.25946152 -0.44962028 0.1510366 -0.16936828 -0.038501494 -0.34853157 0.14400181
0.0849527 -0.2136276 -0.3445972 0.3015941 0.071205005 -0.08870094 0.005324554 0.1205805
-0.044560283 0.097659945 0.15708677 -0.046212595 -0.02021894 -0.16635498 -0.26982334 0.022799069
0.14358413 0.02576905 0.12305075 -0.07398578 0.23492613 -0.25404543 0.09891913 0.084624544
0.04501164 0.08904384 -0.023538375 -0.05226475 0.29809055 -0.023720706 0.10955081 -0.026728876
0.013283528 -0.21428165 -0.08497086 -0.55576736 -0.12269319 -0.10779275 0.022838145 0.044222057
-0.06037822 0.3013633 0.1704003 -0.13521068 0.08865394 -0.09221126 0.080377296 0.11601826
0.12713115 -0.014347391 0.19684568 0.064996175 0.031589244 -0.02983118 -0.15278138 -0.098057844
-0.20640332 0.033960197 0.060186177 -0.01763194 0.05458026 -0.028303675 0.29285607 -0.032992955
-0.53384924 0.023092356 0.10598029 0.059700683 0.24912198 -0.075933866 -0.056743044 -0.37132722
0.067064315 -0.16410393 -0.24579886 -0.047024593 -0.050145067 0.13453902 -0.4020858 0.15674359

fc2.bias f4 [64]
00000000: 8b37 b4bd 4684 923d 517e 813d f0f1 993d
00000010: 3890 2ebd a962 eb3d 128c 853d dab8 c1bb
00000020: c2b1 633c fe67 063e 0ea0 733d cec5 8e3d
00000030: 903c a9bb e457 0dbd 22b0 283e 5576 21bd
00000040: 7a2d c03c 9535 9f3d a7c8 df3d 3bcb 1e3d
00000050: d58d 113e e90e 523d 0dac 5e3d 0812 083e
00000060: 46da b93d f7eb a0bd d3dc a13d aee8 a03d
00000070: 0a7d e43d 8f34 663b e484 413d 6c3b a03d
00000080: b841 e13c d506 1f3d 83c1 62bd fdb4 423e
00000090: 1c80 a03d 6dc7 15bd 684d 953b deb8 21bd
000000a0: 7fdc 90ba 0004 293d 96ef 2fbd ca1f c8bc
000000b0: de96 cb3d 1590 8e3d d765 5d3d 3143 ca3c
000000c0: a8b5 593e 2c7a 833c d123 123e 7771 2fbd
000000d0: fe44 d73d eb92 933d 775a 903d 8cd4 87bd
000000e0: 2265 3e3e c88b fb3d ba3c 0f3d 65d9 913d
000000f0: 728b aebd 44b2 2a3e 710b 253d 8cb0 1e3e
-0.087996565 0.071541354 0.06322921 0.07516849 -0.042618006 0.11493427 0.06520857 -0.0059119286
0.013897361 0.13125607 0.059478812 0.06971322 -0.0051646903 -0.034507647 0.1647344 -0.03941949
0.023459185 0.07773892 0.10926943 0.038768034 0.14214261 0.05128375 0.0543633 0.13288128
0.090748355 -0.07857507 0.07903447 0.0785688 0.11156662 0.0035126542 0.047245875 0.07823834
0.027497157 0.038824875 -0.05536033 0.19014354 0.07836935 -0.03656714 0.0045563467 -0.039482944
-0.0011052041 0.04126358 -0.042953096 -0.02442922 0.09940885 0.06961075 0.0540522 0.024690242
0.21260703 0.016049467 0.14271475 -0.042832818 0.10511206 0.07205757 0.07048505 -0.06632337
0.18593267 0.122825205 0.034970023 0.07121543 -0.08522691 0.16669565 0.040294115 0.15497035

fc3.weight f4 [64, 64]
00000000: 971f f6bd cd15 cebc 247f 483d 5682 dcbd
00000010: 5032 9f3d 112c a23d 7b98 083d e22f 023d
00000020: 9e57 b03d f08b c13d 471a cbbd 9bb4 39bd
00000030: dc8e 12bd 30a7 32bd 29ec 75bd 3131 18be
00000040: 26d2 ad3d 1743 b83d 5261 b93d e787 53bd
00000050: cbf3 bdbd dbac ad3d 8ff5 2bbd 3b35 f7bd
00000060: a881 5cba b606 0cbd 5b82 953c bd37 a73d
00000070: 672b c73c 2dcd 383d f00b 6d3d dcb9 f63c
00000080: ebff 19be e501 75bd c8f6 aa3d 191d 8d3d
00000090: c735 b2bd a97b 553c 20da 7a3b 3697 97bd
000000a0: 4d81 76bd 985a 1cbe 194c 903d f93a 7fbd
000000b0: 35e4 d0bd e2b6 06be c6e9 f4bd e092 5f3d
000000c0: 58f4 0fbe baee c83d 8b76 93bd b840 48bd
000000d0: 457a a43d 9dc8 7cbd 6c59 56bd f896 6ebd
000000e0: eb2b 01be 9b17 bdbd ba7a b43d 82b4 c2bd
000000f0: c97b 133c 5575 58bd f0f0 213d 8888 f5bb
00000100: 249d ee3e 64e7 62be 92e2 663e 9f56 e9bd
00000110: 1a53 3e3d ffce 49be 9cc0 39be 5174 86be
00000120: 1a22 40be 29ec 96bd 3612 8ebe 7e1c bc3c
00000130: e853 e5bd c74a ccbe f393 2f3e 586f 543e
00000140: 876e 1cbd 4516 6f3d cbe1 a7bd ddcd 8ebd
00000150: afb8 b83e d1f4 edbd 4b24 7dbe f2bc c33d
00000160: 3336 863d 3969 003f f4e9 273e 2200 333e
00000170: bd99 393e 7787 213e c86c 2abe 7846 233e
00000180: daef d53c 0150 553e 94a1 acbd 6911 263e
00000190: 29f7 b63e e391 76bd 69a2 263e be9a 95be
000001a0: 2363 a53e 17c9 843d eb5c cebd 888e ce3e
000001b0: b531 92be 9347 48be faf5 853e 77ce 80bd
000001c0: a970 8abe 7fc5 653e 86e5 cdbd 0a8c 40be
000001d0: 7cbc f63c d5c5 003f c61e 143e 760b fbbe
000001e0: 0c75 253d 3e26 963d 9d39 3d3e 4339 cd3e
000001f0: 2e9b 19be 58dc b33e 97cd 05bd 7d5b a43d
00000200: e820 ea3e 5182 d0bd c438 333e 752a 48be
00000210: 8611 79bd 775e 973c 9450 acbe 5f1b 853e
00000220: 2604 eebb efd6 1f3c c99e acbd f176 8e3d
00000230: e19c c9bc 5211 67bd 9d72 933e e4b2 7c3e
00000240: 431d 0e3d c158 f7bc c686 4cbe 129c cb3d
00000250: 8749 133f 00ff 253e 7af6 323d 8ec1 733d
00000260: 8e52 493e e108 ee3e 1d87 1d3d edf3 a83e
00000270: 3322 0c3e 2ce0 1c3e 02d0 4c3e 964f a03a
00000280: 184b 4e3c e8db 093e 41b2 3cbe 8cf9 dfbb
00000290: af84 f33e 683f 9cbd 23e1 3f3e fe06 83bd
000002a0: 2c35 5f3e b72f b33d 50e5 053d 714c a23e
000002b0: eda6 b1be 7429 38be b7a9 803e 395d 003d
000002c0: 0dcc 123e fca5 49bd 653d c1bc bbb7 8f3d
000002d0: 7a98 b2bd ad58 103f ee04 29bd 1507 51be
000002e0: 9d80 a93a 8494 753d 3574 793e 444a 0b3f
000002f0: 4492 edbd a8f8 ff3d a853 62be bbd5 6c3d
00000300: c6c1 573e 734d b6bc c758 a6bd 1106 873d
00000310: c807 663e 8440 3a3e 2cae 9f3d cc24 19bf
00000320: b860 1abe d5c0 96bc 3c6f 353e 5368 8b3e
00000330: 62cf 213e 535a 09bf f012 103e 9117 523d
00000340: 4d14 dfbe 504c a43e 52ea 553b ae7f c63d
00000350: 4faf 66be 8eb4 55be 7e2d d63d c7bf f3bd
00000360: 0c4c e93d 69b4 5ebe 3711 203f 597f e4bc
00000370: 3c28 aabc 5a99 0d3e f3e3 01bd e9ef 303e
00000380: 8bd8 0c3e b38b 1b3e 2a5c 363e b461 5c3e
00000390: 6c14 2ebd 8957 55bd 954c 4dbe 81f5 ef3c
000003a0: 4fd9 893d 49c4 773d d37f 5f3d b0c5 883d
000003b0: d4bd 5cbe fedd 973d 561f 33bc 603d 003d
000003c0: 1126 ddbe 4e42 e73d 4f3b 753e 457d 08be
000003d0: 406f 91bd ac22 69bd 1e34 5a3e 624b 9ebe
000003e0: c47b a93c a89f 8a3e 7769 14be c897 4ebe
000003f0: fc83 97bd 86f2 793e 54bb 693d 4a1a ba3d
-0.12017744 -0.02515688 0.048949376 -0.10767047 0.07773268 0.07918561 0.03334854 0.031783946
0.08610462 0.09450519 -0.099171214 -0.045338254 -0.035780773 -0.043616474 -0.060039673 -0.14862515
0.08487348 0.08997171 0.090517655 -0.05164328 -0.092750154 0.08480235 -0.04198223 -0.120707
-0.0008411654 -0.034186088 0.018250635 0.08164928 0.024312688 0.045117546 0.057872713 0.030117922
-0.15039031 -0.05981626 0.08347851 0.068903156 -0.087016635 0.013029971 0.0038276985 -0.07401888
-0.060181905 -0.15268934 0.070457645 -0.0623121 -0.10199777 -0.13155702 -0.11958651 0.05458343
-0.14058053 0.098111585 -0.07200345 -0.048889846 0.080311336 -0.061714757 -0.052331373 -0.058249444
-0.1261441 -0.09233018 0.08812471 -0.095070854 0.009001681 -0.05284627 0.039536417 -0.0074930824
0.46604264 -0.22158581 0.22547367 -0.11393475 0.04646597 -0.19707869 -0.18139881 -0.26260617
-0.18763009 -0.07369263 -0.2774827 0.022962805 -0.111976445 -0.399008 0.17146282 0.207456
-0.038191345 0.058370847 -0.081973635 -0.06972859 0.36078402 -0.11618961 -0.24720876 0.09557523
0.065533064 0.5016056 0.1639784 0.1748052 0.18125053 0.15774332 -0.16643059 0.1594485
0.026115347 0.208313 -0.08429256 0.16217579 0.35735443 -0.060197722 0.16272892 -0.2921962
0.32302198 0.06483667 -0.100763164 0.40343118 -0.28553548 -0.19558553 0.26164228 -0.0628938
-0.27039078 0.2243862 -0.10053544 -0.1880342 0.030119173 0.5030187 0.14464864 -0.49032182
0.040394828 0.07331513 0.18479009 0.4008275 -0.15000603 0.35129046 -0.03266677 0.080252625
0.4572823 -0.10181106 0.17502123 -0.19547446 -0.060807727 0.018477662 -0.33655226 0.25997445
-0.007263678 0.009755834 -0.08428723 0.0695628 -0.024610939 -0.056413002 0.2879838 0.24677616
0.034695875 -0.030193688 -0.19973287 0.099418774 0.5753407 0.16210556 0.04369209 0.05951076
0.19660398 0.4649115 0.038458932 0.329986 0.13684921 0.1531989 0.20001224 0.001223075
0.012591146 0.13462794 -0.18427373 -0.006835168 0.47562167 -0.07629281 0.18738227 -0.06397818
0.21797627 0.08749335 0.032689393 0.31698945 -0.34697667 -0.17984563 0.25129482 0.031338904
0.14335652 -0.04923056 -0.023588846 0.07017466 -0.08720489 0.5638531 -0.041264467 -0.20412858
0.0012932007 0.05995609 0.24360736 0.54410195 -0.116001636 0.12498599 -0.22102225 0.057821017
0.21070012 -0.022253728 -0.08122402 0.06592954 0.22463906 0.18188673 0.077968925 -0.5982177
-0.15075958 -0.018402496 0.17718214 0.2722803 0.15801767 -0.5365345 0.14069724 0.051292006
-0.43570176 0.32089472 0.0032640886 0.09692322 -0.22527812 -0.20869657 0.10457896 -0.11901813
0.11391458 -0.21748509 0.6252627 -0.027892755 -0.020771138 0.1382803 -0.03171153 0.17279018
0.1375448 0.1519001 0.17808595 0.21521646 -0.042499945 -0.052085433 -0.20048745 0.02929187
0.067309014 0.060489926 0.054565262 0.06678331 -0.21556789 0.074153885 -0.010932764 0.03130853
-0.43193105 0.112919435 0.23948406 -0.13329037 -0.071012974 -0.05691783 0.21308944 -0.30916888
0.020688899 0.27074933 -0.14493357 -0.20175087 -0.07398221 0.24408922 0.057063416 0.090870455

fc3.bias f4 [64]
00000000: 5a02 15bd c92b 4ebd 439f 953d d270 32bd
00000010: 8bb4 0bbc fd13 ca3d 3e7f 21bd 76ba dabc
00000020: 49a3 ba3d ca79 903c 866d d7ba 7368 5d3c
00000030: 1b1e 8fbc fb9c f93d d157 963d d4ba db3d
00000040: a8d9 0c3e 6c73 713d 3af6 dd3d 63d3 163e
00000050: 37d3 a23d 7fa8 e43d 8fa5 8c3d cc8b 8ebd
00000060: 63d5 523c 7a10 21bc 4682 e23d 075d 8fbd
00000070: 1762 9bbb fa92 f3bc c170 00be 3ce9 4ebd
00000080: d958 a8bd 3988 9bbd 493f abbd 0c2d 1cbc
00000090: e72a a13a abdd 273e ffd3 0cbd 34c4 3ebd
000000a0: 3d89 073d cd87 8abc e4b2 cebd d814 733d
000000b0: 30f1 3d3d 0849 14bd 3840 db3d 0ecc de3d
000000c0: c8da 8b3b 4381 b53c 314d 0f3e 67ac b93c
000000d0: fac0 50bd 3166 223e 8e8d 353c 72a5 ccbc
000000e0: 8a4c a6bb b72f e13d d17e 053e e0fc a2bd
000000f0: 6eeb b0bd 2807 e73d 2a95 5abb 228d 093e
-0.036379196 -0.050334726 0.073057674 -0.043564625 -0.0085269315 0.09867094 -0.03942799 -0.02670024
0.091131754 0.017636199 -0.0016435839 0.013513672 -0.01747041 0.12188145 0.073409684 0.10728994
0.13754904 0.058947966 0.108379796 0.14729075 0.07950442 0.111649506 0.06867515 -0.06960258
0.012868258 -0.0098305885 0.11060004 -0.070001654 -0.004741918 -0.02973317 -0.12543012 -0.0505154
-0.08220071 -0.07594342 -0.0836168 -0.009532224 0.0012296111 0.16393153 -0.034381863 -0.046573833
0.033089865 -0.016910458 -0.100927144 0.05934605 0.046372592 -0.03620246 0.10705608 0.10878764
0.004268024 0.022156363 0.1399429 0.022665216 -0.050965287 0.15859295 0.011081113 -0.024981234
-0.005075042 0.10995429 0.13036658 -0.07958388 -0.08638655 0.11280662 -0.003335307 0.13432744

action_out.weight f4 [3, 64]
00000000: 0229 e2bd 28b4 14bf c770 c1be 39f8 38be
00000010: 745b d0bd 9084 da3e 9e34 3dbe dd4f 243d
00000020: 4177 1d3f 16d8 99be 0d54 633e cdc8 45be
00000030: 6012 28be fe29 653e 2f10 cc3d 8c52 2f3f
00000040: 34d9 97be de2c 63be edcc 6b3e f908 d73d
00000050: e189 69be 0aaa 023f 0db5 a43e f433 b6bd
00000060: 3d8e afbd 2e82 7bbe d2d1 d2bd ac83 1d3f
00000070: 0feb 953e cbbe 8ebe b543 7d3d 7e14 e83c
00000080: 9705 59be ccd1 c53e 3074 8f3e 7253 143e
00000090: a640 aabe e0fc e03c 9123 2f3e a40c 853e
000000a0: f6f1 263d 2344 9b3c b285 bf3e 7161 b33e
000000b0: d15e f0bc dcc5 e7bd 7309 8c3b 7c79 983f
000000c0: 41d0 82be 1e73 16bd fe5e 3abe c95d 8dbe
000000d0: 0b68 863e 45a9 debe cab2 45be 8f7e 3dbd
000000e0: dc2d df3d dcfe 8c3e 7dc2 01bd b0dd fdbd
000000f0: a5da 5e3f fa92 073f e09c 283f 37dd 273f
00000100: e513 edbb 25ac 6e3e 4748 373e 0b0a 263e
00000110: fc88 8e3e befb fc3e 1b2a 083f efa6 78bd
00000120: e65c f9bd 8300 8dbe 381c b53e d042 8dbe
00000130: d4eb 233f 721d 713e 2f76 993d 135e b2be
00000140: 9cd7 cf3e 35bb f63e 9466 aa3e 8ea4 82bd
00000150: 94d9 aebe db44 83bd eda8 763e dc83 f3bd
00000160: a8a2 1bbe a8c8 84be f7ed 70be 68b3 0dbb
00000170: 1cd3 e5be b5a8 71be 49a5 ccb9 1320 dbbd
00000180: 596e e3be 7554 b83d d154 12bf 3272 27be
00000190: 4a56 863e 4346 ba3e a048 03bf 1260 f83d
000001a0: c754 bb3d 6f1a 093f df93 98be ff01 eabe
000001b0: d574 76bd d881 6a3d 3967 28be 894a abbd
000001c0: a7dd 1b3d 79d4 91be 0eda 543d 83f8 063d
000001d0: c063 d53c 23e4 573e 7217 fb3e 3051 5a3d
000001e0: 8988 f3be 6d2b 2abd 7b57 503f 2bd5 b0be
000001f0: 8c55 16be ddeb abbc 7420 0abf 7771 d63e
00000200: a169 05bd edaf 30bd 9814 96be 6ecb d73e
00000210: 2aa5 b83e 419e 8cbe 763a e6bd 1297 ad3d
00000220: 71c9 59be acee fbbd 639e c93c ed60 02be
00000230: c53e f03d b5b6 923e 725b d7be e650 0a3b
00000240: 0d1a 98bd e35d b9be 0c7b ebbd 4552 f6be
00000250: ab9c fbbd 8b99 44be 1eb2 0e3e 9f9a 43bd
00000260: 6c84 a03e 8ea2 943e 56b0 b3be bde3 97be
00000270: ae85 bf3d 12e1 6dbe b800 b6bd dfd0 e9bd
00000280: 42a9 2a3e c2a6 ee3e 7426 debe 7ac2 4d3f
00000290: 70a0 5e3e e969 c83e 26a2 d03e 8481 91be
000002a0: 3ab6 e43d 97f9 c6bd 0a0a d23e 2985 843d
000002b0: 21be c2bd 40b8 093b 71eb bf3e 60d9 f2bd
000002c0: f469 b83e 0cd0 9dbe c053 f83e 9136 c63e
000002d0: 4840 d53e ebf8 fdbc 3f24 6ebe 9b2c 953d
000002e0: bcc8 0abe 0b53 c93e fdee 5cbe ce1c 94be
000002f0: cd4e 2bbe 7ad8 5d3e e9ca 0cbe 655d 34bf
-0.11042978 -0.58087397 -0.37781355 -0.1806344 -0.10173693 0.42679262 -0.18477103 0.040115226
0.6151009 -0.30047673 0.22200032 -0.1931488 -0.1641326 0.223793 0.09964024 0.6848533
-0.296579 -0.22185084 0.23027392 0.10499758 -0.22806503 0.5104071 0.3216938 -0.08896628
-0.08572052 -0.24561378 -0.10293926 0.6152904 0.29280898 -0.27879938 0.06183215 0.028330084
-0.21193539 0.38636625 0.28018332 0.14484957 -0.33252448 0.02746433 0.17103411 0.25986207
0.040758096 0.018953389 0.3740669 0.3503528 -0.029342087 -0.113170356 0.0042735874 1.1912074
-0.2554951 -0.036730878 -0.18200299 -0.27610615 0.26251253 -0.43488517 -0.19306484 -0.046263274
0.10897419 0.27538192 -0.03167962 -0.12395799 0.87052375 0.52958643 0.6586437 0.6557192
-0.0072350376 0.23307855 0.17898665 0.16214769 0.27838886 0.49410814 0.5318925 -0.060706075
-0.12175922 -0.27539453 0.35373092 -0.27590036 0.6403172 0.23546389 0.07493245 -0.34837398
0.40594184 0.48189703 0.33281386 -0.063790426 -0.34150374 -0.064096175 0.24087878 -0.118903846
-0.15198767 -0.2593434 -0.23528276 -0.0021621827 -0.44887626 -0.23599513 -0.0003903306 -0.10699477
-0.44420126 0.09000484 -0.5716067 -0.16352156 0.26237708 0.3638173 -0.5128269 0.12127699
0.09147029 0.5355596 -0.29800317 -0.45704648 -0.060170013 0.057252735 -0.16445626 -0.08363826
0.03805318 -0.28482416 0.051965766 0.032951843 0.026048541 0.21083121 0.49041325 0.053300083
-0.47565106 -0.04154532 0.81383485 -0.34537634 -0.14681071 -0.020986492 -0.5395577 0.41883442
-0.03257144 -0.043136526 -0.29312587 0.42147392 0.3606351 -0.27464488 -0.11241619 0.0847608
-0.2126825 -0.123013824 0.024611657 -0.12732287 0.11730722 0.2865502 -0.42061955 0.0021105348
-0.07426844 -0.36204442 -0.11498079 -0.48109642 -0.122857414 -0.19199197 0.13935134 -0.04775488
0.3135103 0.2903027 -0.3509547 -0.29665938 0.09351669 -0.23230389 -0.08886856 -0.11416792
0.16666129 0.466116 -0.43388712 0.8037487 0.2174089 0.39143303 0.4074871 -0.28419125
0.111675695 -0.09715574 0.41023284 0.06470711 -0.095089205 0.0021014363 0.37484315 -0.11857867
0.36018336 -0.3082279 0.48501396 0.38713506 0.41650605 -0.031002482 -0.23256014 0.072838984
-0.13553137 0.3932117 -0.21575542 -0.28928226 -0.16729279 0.2166461 -0.13749279 -0.7045501

action_out.bias f4 [3]
00000000: b944 6cbd 1217 cb3c 1878 363d
-0.057682727 0.024791274 0.044548124
