Assets/Python/maddpg/model/simple_oneagent/agent_0/critic_params.pkl (torch, 43467 bytes, 7 tensors)

fc1.weight f4 [64, 27]
0	0x3f2f3da6	0.68453443
1	0x3f31efaa	0.69506323
2	0x3f02aeef	0.5104818
3	0xbd298bc7	-0.041393068
4	0xbf2d1c40	-0.6762123
5	0xbe4ec275	-0.20191367
6	0xbf4d1049	-0.80102974
7	0xbe9aca8e	-0.30232662
8	0xbec572d7	-0.38564178
9	0xbc90e490	-0.017687112
10	0xbf1e9580	-0.6194687
11	0x3e454418	0.19264257
12	0xbf4fe73a	-0.812122
13	0x3ebb7d72	0.36619145
14	0xbf22c5a0	-0.635828
15	0xbeab7aae	-0.33492035
16	0x3e40aec3	0.18816666
17	0x3b0b2620	0.002123244
18	0xbf153653	-0.5828602
19	0xbe59388d	-0.21212979
20	0x3e3b17c7	0.18270789
21	0x3dd6f8d3	0.10496678
22	0xbe7760a3	-0.24157958
23	0xbdccda68	-0.10002595
24	0x3e93d025	0.2886974
25	0x3e160312	0.14649609
26	0x3dc0ff4d	0.09423695
27	0x3e5a4b02	0.21317676
28	0xbf3dfba8	-0.7421212
29	0x3e873c35	0.26413122
30	0x3ec50e00	0.38487244
31	0xbd2b4cf7	-0.041821446
32	0x3f0efce1	0.5585461
33	0xbf198fd2	-0.5998508
34	0x3fa9acdf	1.3255881
35	0xbecc9c74	-0.39963114
36	0x3e29ea47	0.16593276
37	0xbf9295d6	-1.1451976
38	0x3ea8dbbd	0.32980147
39	0x3e440a45	0.19144543
40	0x3ea54b57	0.32284042
41	0xbf120413	-0.57037467
42	0x3d8d1f41	0.06890727
43	0xbe90983f	-0.28241155
44	0x3d50a52f	0.05093878
45	0xbe7b851b	-0.24562494
46	0x3eca0c52	0.39462525
47	0xbec8c29d	-0.39210978
48	0x3d386608	0.04501918
49	0x3f490338	0.78520536
50	0x3e497440	0.19673252
51	0xbe2f7f67	-0.17138444
52	0x3c1a3cd9	0.009413921
53	0xba859d1c	-0.0010193917
54	0xbd8e384e	-0.06944333
55	0xbe450ced	-0.19243212
56	0x3df361e7	0.11883908
57	0xbd1da53f	-0.03848767
58	0xbefcb2cb	-0.49355158
59	0x3a36c7bc	0.0006972512
60	0xbeb03561	-0.34415725
61	0x3f9939cc	1.1970763
62	0xbef18b2b	-0.4717649
63	0x3eaadee3	0.33373174
64	0xbf3320b7	-0.69971794
65	0x3f307be5	0.6893905
66	0xbf5e6ab8	-0.8688159
67	0xbef75a5a	-0.4831112
68	0xbe686327	-0.22694074
69	0x3d813530	0.06308973
70	0xbe1de2e0	-0.15418577
71	0xbdb7258c	-0.089427084
72	0xbf495c17	-0.7865614
73	0x3f23c854	0.6397755
74	0x3d5cd590	0.053914607
75	0xbeadb682	-0.33928305
76	0xbf615370	-0.8801794
77	0xbe4b3cc7	-0.19847403
78	0x3ece3bc5	0.40279976
79	0xbe7c0106	-0.24609765
80	0x3e1c479c	0.15261692
81	0x3e360121	0.17773868
82	0xc010c8c0	-2.2622528
83	0xbf2e2964	-0.6803191
84	0xbecb0c0d	-0.39657632
85	0x3e765041	0.24054052
86	0x3dc7be95	0.097531475
87	0x3e385e10	0.18004632
88	0x3f65bbe1	0.89739805
89	0xbe961d01	-0.29319003
90	0xbda59ddd	-0.08086751
91	0x3eaaf8dd	0.33392993
92	0xbd4c2646	-0.049841188
93	0x3cd22cc8	0.025656119
94	0x3e57c52a	0.21071306
95	0x3edc742c	0.43057382
96	0xbdab93b5	-0.08377782
97	0x3fb6045e	1.4220083
98	0x3e857872	0.26068455
99	0x3e25f220	0.16205645
100	0x3f39ac39	0.72528416
101	0xbe2fbecd	-0.17162628
102	0x3ec6672d	0.38750592
103	0x3f7168fc	0.9430082
104	0x3ea94a36	0.3306443
105	0x3cefc56c	0.029268943
106	0x3cac7e64	0.021056361
107	0xbd606089	-0.054779563
108	0x3f2aafff	0.666748
109	0xbf794876	-0.9737619
110	0xbe236b0a	-0.15958801
111	0x3f107570	0.56429195
112	0x3e2a836d	0.16651697
113	0x3eb1c8c9	0.347235
114	0x3f5d2430	0.8638334
115	0x3ead09a8	0.3379643
116	0xbf5a7ce6	-0.8534683
117	0x3e3493ad	0.17634459
118	0xbd6d1162	-0.057877906
119	0xbfa24385	-1.2676855
120	0x3e117790	0.14205766
121	0xbe8b17b4	-0.27166522
122	0x3e0ddaf9	0.13853063
123	0x3d4c85b6	0.049932204
124	0x3f36e064	0.7143614
125	0xbe0293da	-0.12751713
126	0x3ce38f46	0.027778279
127	0xbf0dc254	-0.55374646
128	0x3ed0e15a	0.4079693
129	0xbea3f011	-0.32019094
130	0xbe67f249	-0.22651018
131	0xbf92c6f1	-1.1466962
132	0xbd1f2f0d	-0.03886323
133	0x3de96020	0.113952875
134	0x3e4be5d3	0.1991189
135	0xbf7ac7e0	-0.97961235
136	0xbfde23ba	-1.7354653
137	0xbde4f7e1	-0.11180092
138	0x3e89ee56	0.26939648
139	0xbce8f6cd	-0.028437996
140	0x3e86e0f9	0.26343516
141	0xbd93dc59	-0.07219762
142	0x3e91ecb7	0.28500912
143	0xbe605869	-0.21908726
144	0xbec763b3	-0.38943252
145	0x3e1da291	0.15394045
146	0xbea06953	-0.31330356
147	0x3e33d6e0	0.17562437
148	0x3f938245	1.152413
149	0xbf146ae1	-0.57975584
150	0x3f7148e3	0.9425184
151	0x3e0a57f7	0.13510118
152	0x3cdc0c7a	0.026861418
153	0x3eb8bc72	0.36081272
154	0x3f2bcb10	0.67106724
155	0xbeea9575	-0.45817152
156	0x3f0f22a8	0.55912256
157	0xbed62de4	-0.41831887
158	0x3e78fb56	0.24314627
159	0xbe823009	-0.25427273
160	0x3d59dacc	0.053187177
161	0x39ec14de	0.00045028975
162	0xbeb9a3b7	-0.36257717
163	0xbd927236	-0.0715069
164	0x3eff3292	0.4984327
165	0xbe660b09	-0.22465147
166	0x3fb47d4c	1.4100738
167	0x3d909a4b	0.07060679
168	0x3eccd13e	0.4000339
169	0xbf6ea857	-0.93225616
170	0xbec7b4f7	-0.39005253
171	0x3ebcd73b	0.36882958
172	0x3f96ef8f	1.1791857
173	0xbed12871	-0.40851167
174	0x3ed125ff	0.408493
175	0xbc9c0a04	-0.019047745
176	0x3e8d6b39	0.27620867
177	0x3d9d9683	0.076947235
178	0x3e9c2cf7	0.30503055
179	0xbeb2fc99	-0.34958342
180	0x3ea6f54b	0.3260902
181	0x3e5a330d	0.21308537
182	0x3ee2030a	0.44142944
183	0xbf4bfc53	-0.7968189
184	0xbf1f336f	-0.62187856
185	0xbf1cc524	-0.6123831
186	0x3e2222dc	0.1583361
187	0xbdac6e21	-0.08419443
188	0x3defccfe	0.11709021
189	0x3edb9302	0.42885596
190	0xbe46fe03	-0.19432835
191	0xbf9373c7	-1.1519707
192	0xbe0aa71d	-0.13540311
193	0xbc0625be	-0.008187709
194	0x400c56f1	2.1928065
195	0xbef04ef3	-0.46935233
196	0xbe83d545	-0.2574865
197	0x3dba7f36	0.09106295
198	0xbf09fd9b	-0.53902596
199	0xbddd33ae	-0.10800873
200	0x3dd9d189	0.10635669
201	0xbf802886	-1.0012367
202	0x39a218e6	0.000309176
203	0xbcbbaa98	-0.022908494
204	0x3da77d4c	0.08178195
205	0x3ec8eb99	0.39242247
206	0x3e138add	0.14408441
207	0xbeaa0417	-0.33206245
208	0xbeed747a	-0.46377927
209	0x3f85b039	1.0444404
210	0x3e01284a	0.12613025
211	0xbd71f4c7	-0.05907133
212	0x3eb9ee70	0.36314726
213	0x3e1992b8	0.14997375
214	0x3d2402f4	0.04004188
215	0xbe9602e4	-0.2929908
216	0xbe43771f	-0.1908841
217	0x3f578e80	0.8420181
218	0x3f082f17	0.53196853
219	0x3dfcb81f	0.12339806
220	0xbf3508f4	-0.70716786
221	0x3c9b51f0	0.01895997
222	0xbcbdf479	-0.023187863
223	0x3f8bca6c	1.0921149
224	0xbf8db79a	-1.1071656
225	0x3ee3bfeb	0.4448236
226	0xbfa165f2	-1.2609236
227	0xbef0805c	-0.4697293
228	0x3dede735	0.11616365
229	0xbf37de41	-0.7182351
230	0xbe9b810d	-0.30371895
231	0xbea10d78	-0.31455588
232	0x3e88982d	0.266786
233	0xbf2045e6	-0.62606657
234	0xbdb7f619	-0.08982486
235	0xbf12b516	-0.57307565
236	0xbd9dee88	-0.07711512
237	0x3e89dfc3	0.2692853
238	0x3e19b2b3	0.15009575
239	0xbe800a6f	-0.2500796
240	0x3d664dcd	0.05622654
241	0xbdba94dc	-0.09110424
242	0x3e5ddcd8	0.21666276
243	0x3eb06139	0.34449175
244	0xbf284fac	-0.6574657
245	0x3ee87b2c	0.45406473
246	0x3e257742	0.16158774
247	0xbdd7b7fe	-0.105331406
248	0x3cc464ff	0.02397394
249	0xbdfd487c	-0.12367341
250	0x3f4d85c9	0.80282265
251	0x3f0336e1	0.51255614
252	0x3dcd24f3	0.10016813
253	0xbf970b07	-1.180024
254	0x3ecd3640	0.40080452
255	0x3ccb5be6	0.024824094

fc1.bias f4 [64]
0	0x3ce5ee30	0.028067678
1	0x3c501079	0.01269924
2	0xbe22dc51	-0.15904357
3	0x3cbd03e8	0.023073152
4	0xbeddb983	-0.43305597
5	0x3ebca321	0.36843207
6	0x3bfe2360	0.007755682
7	0x3de54987	0.11195665
8	0xbe18103a	-0.1484994
9	0xbede5653	-0.43425235
10	0xbeac0378	-0.33596396
11	0xbeafd12f	-0.34339282
12	0x3cd771e2	0.02629942
13	0x3e1f5cb3	0.15562706
14	0xbed20f1e	-0.41027158
15	0xbe004955	-0.12527974
16	0xbf225fe3	-0.6342756
17	0xbbd13038	-0.006383922
18	0x3cf7a8d8	0.030231878
19	0xbdf89f80	-0.12139797
20	0x3d7e9dbd	0.06216215
21	0x3b8576d1	0.004073002
22	0x3d99d758	0.07511777
23	0xbe810d26	-0.25205344
24	0xbe19b0b3	-0.15008812
25	0xbeb4e34d	-0.35329667
26	0xbeebdc2b	-0.46066412
27	0xbe3b5c00	-0.18296814
28	0xbf088ebc	-0.53342795
29	0xbe99fcae	-0.30075592
30	0xbe1de16d	-0.15418024
31	0x3e6d397f	0.23166464
32	0xbe8a3e53	-0.27000675
33	0x3c8f1b6e	0.017469134
34	0xbe9238fa	-0.28559095
35	0xbd623b1c	-0.055232152
36	0x3e79a153	0.24377947
37	0xbe1d8a72	-0.15384844
38	0x38d2b9c9	0.000100481855
39	0xbdccb76c	-0.099959224
40	0xbee64f8a	-0.44982558
41	0x3dc20db3	0.09475269
42	0xbdf95b80	-0.12175655
43	0xbe497ef7	-0.1967734
44	0x3cc06f54	0.023490585
45	0x3e331447	0.17488204
46	0x3c841285	0.016122112
47	0x3dcd63f0	0.10028827
48	0xbe1555ec	-0.14583558
49	0x3d9f8ba3	0.077903055
50	0xbe45e70b	-0.19326417
51	0xbe9ee7e6	-0.310363
52	0x3cb959b6	0.022625785
53	0xbe9eb8d4	-0.31000388
54	0xbd40a6d1	-0.04703409
55	0xbe288b60	-0.16459417
56	0xbe07c115	-0.13257249
57	0xbd16220e	-0.03665357
58	0xbe0cb82e	-0.13742134
59	0x3c995c11	0.018720658
60	0xbe8f3357	-0.27968857
61	0xbe194077	-0.14965998
62	0x3e833984	0.25629818
63	0xbd560676	-0.052252255

fc2.weight f4 [64, 64]
0	0x3f5411ba	0.8283955
1	0xbf105304	-0.5637667
2	0xbe866a6a	-0.26253062
3	0xbcf17fd7	-0.029479904
4	0x3f5a7cfa	0.8534695
5	0xbd0c806f	-0.03430217
6	0x3e9cfa10	0.30659533
7	0xbd8e58f1	-0.06950558
8	0x3e22d4f0	0.15901542
9	0xbf69a927	-0.9127373
10	0xbed6bce6	-0.41940993
11	0xbcc9e1c8	-0.024643794
12	0xbecc4b1e	-0.3990106
13	0xbe84ed94	-0.25962508
14	0xbe71dd36	-0.23619542
15	0xbe454754	-0.19265491
16	0xbe900792	-0.28130776
17	0x3db02be9	0.08602125
18	0x3ee7794f	0.4520974
19	0xbe999045	-0.2999288
20	0x3d0b0ca0	0.033947587
21	0x3e6d4208	0.2316972
22	0x3e6873d3	0.22700433
23	0xbe1c4856	-0.15261969
24	0x3cc18992	0.023625169
25	0xbe2360c6	-0.15954885
26	0x3e9febe0	0.31234646
27	0x3dbb82a9	0.09155781
28	0xbff19350	-1.8873081
29	0x3f08f893	0.53504294
30	0x3e5d6ffa	0.21624747
31	0x3dc0ffb2	0.0942377
32	0x3e8c65ae	0.27421325
33	0x3e9639da	0.29341012
34	0xbde86cf0	-0.11348903
35	0x3caeb304	0.021325596
36	0x3edcb577	0.43107197
37	0x3e9fbb3c	0.31197536
38	0xbe6c28e6	-0.23062477
39	0x3ee18a5c	0.44050872
40	0xbf3c0ba3	-0.73455256
41	0x3ef3eea0	0.47642994
42	0xbe595c99	-0.2122673
43	0xbd8a89de	-0.06764577
44	0xbf32371d	-0.69615346
45	0x3df4a451	0.11945403
46	0xbd43c4ef	-0.047795232
47	0x3d3963d3	0.045261215
48	0x3da95517	0.08268183
49	0xbe767bf5	-0.24070723
50	0x3f0b6ab3	0.54459685
51	0x3d4dfa5d	0.050287593
52	0x3e338cba	0.17534152
53	0xbf20905f	-0.6272029
54	0x3e9a16f0	0.30095625
55	0xbe87a51e	-0.26493162
56	0xbc163042	-0.009166779
57	0xbdc98cc4	-0.09841302
58	0x3d238a31	0.03992671
59	0xbeb32cdd	-0.34995165
60	0x3ea4f82a	0.32220584
61	0x3ee1f03e	0.44128603
62	0x3f2954d4	0.6614506
63	0xbd91a452	-0.0711142
64	0x3c37cd42	0.011218371
65	0xbde94553	-0.11390176
66	0xbf227964	-0.6346648
67	0xbd4c670b	-0.049902957
68	0xbeca3204	-0.39491284
69	0xbec0aeb7	-0.37633297
70	0x3f1256d0	0.57163715
71	0xbefbbeaf	-0.49168918
72	0xbd17d2fd	-0.03706645
73	0x3da8d9fd	0.08244703
74	0x3f1bd609	0.60873467
75	0xbe6259eb	-0.22104613
76	0x3f11f0c9	0.57008034
77	0xbd071332	-0.03297729
78	0xbe01993b	-0.12656109
79	0x3ee43d5c	0.44578063
80	0x3f04bea0	0.5185337
81	0x3b4b3beb	0.0031011056
82	0xbe55eb32	-0.20890501
83	0x3e89835a	0.26858026
84	0x3e4b6fc8	0.1986686
85	0x3ea8d8bb	0.32977852
86	0xbf0203c8	-0.5078702
87	0x3f2c9a1e	0.67422664
88	0xbf77bd12	-0.96772873
89	0x3e6567a2	0.22402814
90	0x3f25d5fe	0.6477965
91	0x3e173b32	0.14768675
92	0xbe84ef4d	-0.25963822
93	0x3e4898c5	0.19589527
94	0x3c1ce641	0.009576381
95	0x3f18eb45	0.5973399
96	0x3e2def23	0.16985755
97	0x3e9a3a2c	0.30122507
98	0xbeec3eaf	-0.46141574
99	0xbe83a9b9	-0.25715426
100	0xbef71f98	-0.48266292
101	0xbc84be12	-0.016203914
102	0xbe74d125	-0.23907907
103	0xbf1be1f5	-0.6089166
104	0xbef82749	-0.48467472
105	0xbf4e9e39	-0.8071018
106	0x3f507dbd	0.8144186
107	0xbf9f11b0	-1.2427273
108	0xbfdcd515	-1.7252527
109	0x3ed03d9e	0.4067201
110	0xbf66c1b3	-0.9013931
111	0x3ea7bb96	0.32760304
112	0x3f3a6b20	0.7281971
113	0xbf5a15fa	-0.85189784
114	0x3f5514ee	0.8323506
115	0xbe9abd4d	-0.3022255
116	0x3c43d859	0.011953437
117	0xbf3874d6	-0.7205328
118	0xbd302f82	-0.043014057
119	0xbfd02698	-1.6261778
120	0x3e52424b	0.20533101
121	0xbcb788d4	-0.022404112
122	0xbfa26e81	-1.2689973
123	0xbf2f1e1a	-0.68405306
124	0x3dcd22d1	0.10016406
125	0x3ea4e9e4	0.32209694
126	0xbe779779	-0.24178876
127	0xbe95afc4	-0.2923566
128	0x3e2ef533	0.17085724
129	0x3eaa2b16	0.33235997
130	0x3d9778ad	0.07396064
131	0xbc75833c	-0.014984902
132	0xbe080ba0	-0.13285685
133	0xbfa017df	-1.2507285
134	0x3dd19036	0.10232584
135	0xbf4c7738	-0.79869413
136	0x3ebc812f	0.3681731
137	0x3e6f928a	0.23395744
138	0xbf11c6dd	-0.56944066
139	0xbf3415f9	-0.7034603
140	0xbf215334	-0.6301758
141	0xbf9b9ee4	-1.2157865
142	0x3e02fa80	0.1279087
143	0xbed5b598	-0.41740108
144	0x3f950cc6	1.1644523
145	0xbeeb3356	-0.45937604
146	0xbeade4e4	-0.33963692
147	0xbe578780	-0.21047783
148	0x3f0de78a	0.55431426
149	0xbf0222b1	-0.50834185
150	0xbe6f5a19	-0.23374213
151	0x3e60e954	0.21964008
152	0xbe95c6f1	-0.29253343
153	0xbde97ee7	-0.11401158
154	0xbdc9fb26	-0.09862356
155	0xbf378024	-0.716799
156	0xbf36599d	-0.7123049
157	0x3ea9c04e	0.3315453
158	0xbfa8ffa1	-1.3203012
159	0x3f8b5939	1.0886604
160	0x3f365a0a	0.7123114
161	0x3e884b22	0.26619822
162	0xbe4f52ca	-0.20246425
163	0xbd033fd5	-0.032043297
164	0xbf5c011b	-0.85939187
165	0x3e2c9a29	0.16855682
166	0xbe233e66	-0.15941772
167	0xbfa25e20	-1.2684975
168	0x3cd031dd	0.025414402
169	0xbf5de8a5	-0.8668311
170	0xbebb42a9	-0.36574295
171	0x3de9ca04	0.114154845
172	0xbeb5112d	-0.35364667
173	0x3eb5e545	0.3552648
174	0x3f1d367a	0.6141125
175	0x3ed2eaec	0.41194856
176	0x3e6bec58	0.23039377
177	0x3eefadd3	0.46812305
178	0xbe382cf3	-0.17985897
179	0xbea7f76e	-0.3280596
180	0xbf901376	-1.1255939
181	0x3eaf46de	0.34233755
182	0xbf6a692f	-0.9156675
183	0xbf12ee98	-0.57395315
184	0x3ec952c9	0.39320973
185	0xbebd9e38	-0.37034774
186	0x3fc540bf	1.5410384
187	0xbd0f23e3	-0.034946334
188	0x3f009db1	0.5024062
189	0x3ecb6e32	0.3973251
190	0xbf3133ee	-0.69219863
191	0xbe235459	-0.15950145
192	0x3c38399a	0.011244202
193	0xbea20eba	-0.3165186
194	0x3e9755f9	0.2955778
195	0x3f44052c	0.7657039
196	0x3f3b1b6b	0.7308871
197	0x3f4da4e0	0.80329704
198	0x3ec2aab0	0.3802085
199	0x3f893a50	1.072092
200	0x3f261c0d	0.6488655
201	0x3e34b6dd	0.17647882
202	0xbf5da72e	-0.8658322
203	0x3e91d3ca	0.28481895
204	0xbdc276ed	-0.094953395
205	0xbe8725fe	-0.26396173
206	0xbeb34a9f	-0.3501787
207	0xbc4f7a97	-0.012663505
208	0xbe1b6777	-0.15176187
209	0x3f286f7c	0.6579511
210	0x3e5fbdb8	0.21849716
211	0x3f437b04	0.7635958
212	0xbf8f56a0	-1.1198311
213	0xbf50f42d	-0.8162258
214	0x3e07292f	0.13199304
215	0x3e96d8be	0.29462236
216	0x3ea9de29	0.33177307
217	0x3eb5e931	0.35529473
218	0xbe2f3de3	-0.17113452
219	0x3e2e914e	0.17047617
220	0xbf01f23e	-0.5076026
221	0xbe907d51	-0.2822061
222	0xbe35a1d8	-0.1773752
223	0xbe74372a	-0.23849168
224	0x3f6c16c6	0.9222225
225	0x3de42bb5	0.11141149
226	0x3e5531f8	0.20819843
227	0x3e1ebecc	0.1550247
228	0xbe9b6876	-0.30353135
229	0xbc75ce42	-0.015002789
230	0xbdc2bc0e	-0.09508525
231	0xbeadb476	-0.33926743
232	0x3e0185c0	0.12648678
233	0x3f413b7b	0.75481385
234	0xbe6cc731	-0.2312286
235	0x3ec4adc1	0.38413814
236	0x3e962dee	0.29331917
237	0xbf6295ff	-0.88510126
238	0x3e6c38f5	0.23068602
239	0xbe1d192e	-0.15341637
240	0xbd5e4e01	-0.05427361
241	0xbeceb721	-0.4037409
242	0x3efdb2ef	0.49550578
243	0xbe9a14da	-0.30094033
244	0x3ec8fba9	0.392545
245	0x3f962b58	1.1731977
246	0x3e52d69f	0.20589684
247	0xbc700438	-0.014649443
248	0x3dba12c0	0.090856075
249	0xbe34a063	-0.17639308
250	0x3e97c974	0.29645884
251	0xbde9a836	-0.11409037
252	0xbf1d1451	-0.61359125
253	0xbec0d391	-0.37661412
254	0xbe8df52f	-0.27726123
255	0x3ded085e	0.115738615

fc2.bias f4 [64]
0	0x3f1f7962	0.6229459
1	0x3e0bddfe	0.13658902
2	0xbd831cf1	-0.064020045
3	0x3ec7e7b5	0.39043966
4	0xbe514224	-0.20435387
5	0xbdad6455	-0.084664024
6	0xbead17e0	-0.33807278
7	0x3ec627fb	0.38702378
8	0xbc8d01cc	-0.01721277
9	0xbd8d9078	-0.06912321
10	0x3e92b9ce	0.28657383
11	0x3e4a0f56	0.19732413
12	0xbe59ee57	-0.21282326
13	0x3d4c672f	0.04990309
14	0xbdd6ce29	-0.10488541
15	0x3e13ea3c	0.14444822
16	0xbe7161cf	-0.23572467
17	0xbda276ce	-0.079328164
18	0x3ed3d5fa	0.4137419
19	0x3e4d1a44	0.20029551
20	0xbe009d23	-0.12559943
21	0xbd5c2a69	-0.053751383
22	0xbecbbbe0	-0.39791775
23	0xbeb51b73	-0.35372505
24	0xbe1b8b94	-0.15189964
25	0xbddcb029	-0.107757874
26	0x3ef8d4db	0.48599896
27	0x3e2a4666	0.16628417
28	0xbe4be41a	-0.19911233
29	0xbd292d0d	-0.04130273
30	0x3eace718	0.3377006
31	0x3cb6590b	0.022259256
32	0xbd2451d0	-0.040117085
33	0xbe684366	-0.2268196
34	0xbd85ceb2	-0.065335646
35	0xbe0706e1	-0.13186218
36	0x3d98d30d	0.0746213
37	0x3ce8a4ef	0.028398959
38	0xbe278652	-0.16359833
39	0x3e70df74	0.2352274
40	0xbd402599	-0.046910856
41	0xbdf08baa	-0.11745389
42	0xbde542db	-0.11194392
43	0x3bca5d3e	0.006175666
44	0xbeb4eef1	-0.35338548
45	0xbe1d46fe	-0.15359113
46	0xbe54942d	-0.2075965
47	0xbe14980c	-0.14511126
48	0xbe255b8b	-0.16148202
49	0x3ca6d003	0.02036286
50	0xbe0b5b24	-0.13608986
51	0x3d84c6e0	0.06483245
52	0x3f034273	0.5127327
53	0x3b1249c7	0.0022321807
54	0x3d8c0ef9	0.06838793
55	0xbf0972df	-0.53690904
56	0xbeaf41d1	-0.342299
57	0xbdc16b6c	-0.09444317
58	0x3e0f101e	0.13970992
59	0x3f14ff2e	0.58201873
60	0x3dc8a95d	0.097979285
61	0xbe5514be	-0.20808694
62	0x3e1eaf70	0.15496612
63	0xbddf911c	-0.10916349

fc3.weight f4 [64, 64]
0	0xbd301035	-0.042984206
1	0xbdf8e0c5	-0.121522464
2	0xbcd8ac2e	-0.02644929
3	0xbe270371	-0.16309907
4	0xbcbf7be2	-0.023374502
5	0x3c86be76	0.01644824
6	0x3dd66846	0.10469107
7	0xbd0cbbd5	-0.034358818
8	0x3b69c18d	0.0035668344
9	0x3b936b53	0.004498878
10	0xbd331b20	-0.04372704
11	0xbdf335f0	-0.11875522
12	0x3deb92ed	0.11502633
13	0xbdcc2f70	-0.099699855
14	0x3c96d52a	0.018412191
15	0xbd9af6ec	-0.07566628
16	0x3dc59866	0.09648208
17	0xbdfb26b0	-0.122632384
18	0xbe1bb9ac	-0.15207547
19	0xbda42e56	-0.080166504
20	0xbde9e76e	-0.11421095
21	0x3d03a3c8	0.032138616
22	0xbd15dcfc	-0.0365877
23	0xbc73ad18	-0.014872812
24	0xbda6e34e	-0.08148824
25	0xbda334be	-0.07969044
26	0x3cf017f5	0.029308299
27	0xbd2d38fe	-0.04229068
28	0x3d38af1e	0.04508888
29	0xbd6e21ef	-0.05813783
30	0xbd8f8afd	-0.07008932
31	0x3c976270	0.018479556
32	0xbdeabfb6	-0.11462347
33	0x3d383658	0.0449737
34	0xbdd90fb3	-0.105986975
35	0x3c6c42d9	0.014420235
36	0x3d06345c	0.032764778
37	0xbde40661	-0.11134029
38	0x3d1c5178	0.038163632
39	0xbd86aaf0	-0.065755725
40	0xbdebecbd	-0.115197636
41	0xbdc222e9	-0.09479315
42	0xbd791b76	-0.060817204
43	0x3d6d1894	0.057884768
44	0xbc1ad040	-0.009449065
45	0xbe0801e2	-0.13281968
46	0xbdabb532	-0.0838417
47	0xbe112f13	-0.14178114
48	0xbd259fa7	-0.04043546
49	0xbda4d22e	-0.08047901
50	0xbddc963a	-0.10770841
51	0xbda7615e	-0.08172868
52	0xbbf80130	-0.007568501
53	0x3d87eb2c	0.06636652
54	0xbd887b0a	-0.06664093
55	0x3d34b1b4	0.044114783
56	0x3d9c15c6	0.076213405
57	0xbdaed978	-0.085375726
58	0xbe1456b8	-0.14486206
59	0xbe500f72	-0.20318392
60	0xbe0b158c	-0.13582438
61	0x3a2e269a	0.00066433253
62	0xbd203a64	-0.039118186
63	0x3ba8229d	0.0051310793
64	0xbdbc6b2f	-0.09200131
65	0xbd0e3221	-0.034715775
66	0xbe55bab6	-0.20872006
67	0xbd899803	-0.06718447
68	0x3b56f849	0.0032801798
69	0xbe1dad56	-0.15398154
70	0x3d5fd330	0.054644763
71	0xbccbc2c2	-0.024873141
72	0xbdd05acc	-0.10173568
73	0x3c8342c3	0.016023045
74	0xbc689a29	-0.014196911
75	0xbcd84f78	-0.026405081
76	0xbce05468	-0.027383998
77	0xbdb7a768	-0.08967477
78	0xbd18b4e8	-0.0372819
79	0x3da3070a	0.07960327
80	0x3da37f26	0.07983236
81	0xbb61d574	-0.0034459503
82	0xbd07b670	-0.03313297
83	0xbcebfcf7	-0.028807146
84	0x3dacba9d	0.08434031
85	0x3c023acc	0.007948589
86	0xbe44b346	-0.19209012
87	0xbc82999d	-0.01594239
88	0xbe3fc0c3	-0.18725877
89	0xbd943b76	-0.07237904
90	0xbda815a4	-0.082072526
91	0xbe2901ca	-0.16504589
92	0xbe0e552e	-0.13899681
93	0x3db6b80e	0.089218244
94	0x3d62a41e	0.055332296
95	0xbe0344ca	-0.1281921
96	0x3d56f764	0.052482024
97	0xbe82466c	-0.25444353
98	0xbdcef4ba	-0.10105272
99	0xbcef81f0	-0.029236764
100	0x3d36a6a4	0.044592515
101	0xbd8f2f6f	-0.06991469
102	0x3bc3bf23	0.005973713
103	0xbdc449b8	-0.09584373
104	0x3dd222b6	0.10260527
105	0xbe2c0fd6	-0.16802916
106	0x3d300bc4	0.04297997
107	0xbd77768d	-0.060415793
108	0xbdd62d7d	-0.10457895
109	0xbdbe649a	-0.09296532
110	0x3dff8c5e	0.12477945
111	0xbd1d891e	-0.038460843
112	0xbc3f06c4	-0.011659328
113	0xbce9596e	-0.028485026
114	0xbe0b9cc3	-0.13634019
115	0xbda97095	-0.082734264
116	0xbd11bc5c	-0.035580024
117	0x3b1aa1d8	0.0023595002
118	0xbe19d825	-0.15023859
119	0x3d7df97c	0.062005505
120	0x3d7c05dc	0.061529025
121	0x3d2c1138	0.04200861
122	0x3cdf45f7	0.027255042
123	0xbe91f6bc	-0.28508556
124	0xbd496843	-0.049171697
125	0x3d733b3f	0.059382673
126	0xbe595ede	-0.21227595
127	0x3c17c511	0.009263293
128	0xbf195e35	-0.59909374
129	0xbfc77a27	-1.5584153
130	0xbfc08a6e	-1.5042245
131	0x3f134d65	0.5753997
132	0x3f1682de	0.5879344
133	0x3f17ac4b	0.59247273
134	0x3e1df1ef	0.15424322
135	0xbf2a799e	-0.66591823
136	0x3f8fb609	1.1227428
137	0x3f0b1557	0.54329437
138	0x3b9bfb48	0.0047601797
139	0xbef50446	-0.47854823
140	0xbd7b8cc5	-0.061413545
141	0x3f48b266	0.78397214
142	0xbf027d05	-0.50972015
143	0xbfb9c945	-1.4514548
144	0xbe7352c3	-0.2376204
145	0xbe59d137	-0.21271215
146	0x3d20547c	0.03914307
147	0xbe9a28bb	-0.301092
148	0x3fa9b513	1.3258384
149	0xc0136dd9	-2.3035796
150	0x3f31330c	0.69218516
151	0x3e65172e	0.22372124
152	0xbfa77152	-1.3081458
153	0xbcdfdc66	-0.027326774
154	0x3bae9a60	0.0053284615
155	0xbface3c3	-1.3507007
156	0x3eb1341b	0.34610066
157	0x3f3d7c31	0.74017626
158	0xbe76f097	-0.24115215
159	0x3e18f679	0.14937772
160	0x3d326d90	0.04356152
161	0xbf90ebe3	-1.1321987
162	0x3d835991	0.06413568
163	0x3aab0d78	0.0013050279
164	0x3e8e7789	0.27825573
165	0xbf80720c	-1.0034804
166	0x3f9eb8e4	1.2400174
167	0x3d13db25	0.036097664
168	0x3f85fe90	1.0468311
169	0xbf6f5380	-0.93486786
170	0x3f773eae	0.96580017
171	0x3eb9e86b	0.36310133
172	0xbed3edde	-0.41392416
173	0x3e45fcba	0.19334689
174	0x3f20acbe	0.62763584
175	0x3d7e9f73	0.06216378
176	0xbe3a2d7e	-0.18181416
177	0x3f59e2db	0.8511178
178	0xc030d2ae	-2.7628589
179	0x3e794ea7	0.2434641
180	0xbeede5f2	-0.46464497
181	0x3f6f81a8	0.93557215
182	0xbfb9d1aa	-1.4517109
183	0xbe831627	-0.25602838
184	0xbf012dcc	-0.50460505
185	0xbd9b1b5f	-0.0757358
186	0xbee1f26a	-0.4413026
187	0xbe980979	-0.29694727
188	0xbf1e5548	-0.6184888
189	0xbfa72187	-1.3057107
190	0xbf371df9	-0.7153011
191	0xbe5d6f83	-0.2162457
192	0xbe37c196	-0.17944941
193	0xbe16d253	-0.1472867
194	0xbd7011fe	-0.05861091
195	0xbcbde393	-0.023179805
196	0xbc096940	-0.00838691
197	0xbe12f952	-0.1435292
198	0x3d9dd53e	0.07706688
199	0x3c762d23	0.01502541
200	0xbd14d305	-0.036334056
201	0xbddff16b	-0.10934719
202	0xbdd4f5b6	-0.10398428
203	0xbcd80b3f	-0.02637255
204	0xbcef3c18	-0.02920346
205	0xbd85851e	-0.06519531
206	0xbd472e55	-0.04862817
207	0x3df30adc	0.11867306
208	0xbdd39dc2	-0.10332824
209	0x3cc8db8d	0.024518752
210	0xbc493840	-0.012281477
211	0xbb506322	-0.003179737
212	0x3d6b3df4	0.05743213
213	0xbd7d6f9d	-0.06187402
214	0xbdd4e730	-0.10395658
215	0xbde03342	-0.10947277
216	0xbc9a45f0	-0.018832177
217	0x3c3c3c30	0.011488959
218	0xbda0f42d	-0.07859073
219	0xbd1ddc81	-0.038540367
220	0xbc8cc742	-0.017184857
221	0xbdb550a4	-0.088532716
222	0xbd204b73	-0.039134454
223	0x3d4e5da0	0.050382257
224	0xbd9e2b58	-0.07723111
225	0xbdfb8635	-0.12281457
226	0xbd91fdcc	-0.07128486
227	0xbdf392df	-0.11893248
228	0x3cb1e6c5	0.021716485
229	0xbcb7a6ee	-0.022418465
230	0xbd25a432	-0.040439792
231	0xbca1ce1a	-0.019751597
232	0xbcec6145	-0.028854975
233	0xbd8cec2a	-0.06880982
234	0xbd7b8940	-0.06141019
235	0xbdeec0ba	-0.116578534
236	0x3c84e9b4	0.01622472
237	0x3c47b387	0.012188799
238	0x3d13b168	0.03605786
239	0xbe2b797e	-0.16745564
240	0x3c087d00	0.008330584
241	0xbdce0fa2	-0.100615755
242	0xbd44d112	-0.048050947
243	0xbd587b76	-0.052852117
244	0xbe120b6a	-0.14262167
245	0xbd91016e	-0.07080351
246	0x3c131884	0.008978013
247	0x3dcfe126	0.101503655
248	0xbdfcc56e	-0.12342344
249	0x3d9a44ae	0.07532631
250	0x3cc9a5d8	0.024615213
251	0xbde801dc	-0.1132848
252	0xbde53661	-0.111920126
253	0x3c5120e4	0.012764189
254	0x3c1b385a	0.0094738845
255	0x3ce846e3	0.028354114

fc3.bias f4 [64]
0	0xbdbad2e7	-0.09122258
1	0xbe666438	-0.22499168
2	0x3d9a0bbf	0.07521772
3	0xbde2cd37	-0.11074298
4	0xbe56890e	-0.2095072
5	0x3e3b39cf	0.18283771
6	0xbeaef8a8	-0.34174085
7	0x3e881c4e	0.26584095
8	0x3fbafb76	1.460799
9	0x3f88a1bd	1.0674359
10	0xbcfea54b	-0.031084677
11	0xbd895bd8	-0.06706971
12	0xbe1145a9	-0.1418673
13	0xbe0111dc	-0.12604469
14	0xbf10d9b4	-0.5658219
15	0x3f7aae5f	0.9792232
16	0x3d60e1dd	0.0549029
17	0x3f9e3572	1.236006
18	0x3d2512ae	0.040301017
19	0xbe1ee604	-0.15517431
20	0xbe12c295	-0.1433204
21	0xbe9e6657	-0.30937454
22	0xbe777055	-0.24163945
23	0xbe7e7493	-0.24849157
24	0x3f73a347	0.95171016
25	0x3f9c4095	1.2207209
26	0x3fa16836	1.2609928
27	0x3f9b75c5	1.2145315
28	0xbd2ca8de	-0.04215323
29	0x3ea68979	0.32526758
30	0x3e294242	0.16529182
31	0xbe2a7070	-0.16644454
32	0x3fac479a	1.3459351
33	0x3a99a9f5	0.0011723625
34	0x3f97a921	1.1848489
35	0x3f9a1746	1.2038352
36	0x3c829edf	0.015944896
37	0x3e9d97d8	0.3077991
38	0x3f969d87	1.1766824
39	0x3e16e7f6	0.14736924
40	0x3f018cd9	0.5060554
41	0x3fba51e3	1.455624
42	0x3fb71a84	1.4304967
43	0x3fa600ee	1.2969034
44	0xbe1cd028	-0.1531378
45	0x3d6332e8	0.05546847
46	0x3f95e8cf	1.1711673
47	0x3e098e8b	0.13433282
48	0x3fa1cd6f	1.2640818
49	0xbf0af7f6	-0.5428461
50	0xbe3be30a	-0.18348327
51	0x3f82623b	1.0186228
52	0x3fac6c8a	1.3470623
53	0x3f7011f0	0.9377737
54	0xbe286c42	-0.16447547
55	0x3f5dea67	0.86685795
56	0x3fb3448f	1.4005297
57	0xbe2600e6	-0.1621128
58	0x3d195e1f	0.037443276
59	0xbcd4a423	-0.025957173
60	0xbe2c78b5	-0.16842921
61	0xbf210179	-0.6289287
62	0xbcc6ed19	-0.024282979
63	0xbe05fc7d	-0.13084598

q_out.weight f4 [1, 64]
0	0xbc8306cb	-0.01599445
1	0x3b3786ec	0.0028004004
2	0xc01ff34d	-2.499225
3	0x3cb8d4a5	0.022562334
4	0xbea7ff29	-0.3281186
5	0xbffa123a	-1.9536812
6	0xbfbd96ac	-1.4811606
7	0xbfe3251c	-1.77457
8	0x3e5ff7e6	0.2187191
9	0x3eaf93ec	0.34292543
10	0xc009ce9f	-2.1532362
11	0xbffc6e28	-1.9721117
12	0xbfb999db	-1.4500078
13	0xc03be19f	-2.9356458
14	0xbf999ff3	-1.2001938
15	0x3e1f7996	0.15573725
16	0xc01889c5	-2.3834088
17	0x3cd6f38c	0.02623918
18	0xbfb9b14c	-1.4507232
19	0xbea5348e	-0.3226666
20	0x3c2ac7a7	0.010423577
21	0xbfe2ae2b	-1.7709402
22	0xbe8052e1	-0.25063232
23	0xc02466d7	-2.5687768
24	0xbf71a3c5	-0.9439052
25	0x3ce1dfe0	0.027572572
26	0x3d1224a6	0.035679482
27	0x3e7815f9	0.24227132
28	0xc027e5c1	-2.623398
29	0x3e83a614	0.25712645
30	0xbfca15a0	-1.578785
31	0x3ddd1d3f	0.10796594
32	0x3d7857fa	0.060630776
33	0xc0250fa4	-2.5790796
34	0x3e264f12	0.162411
35	0x3e2f8e42	0.17144111
36	0xc01aec8a	-2.4206872
37	0x3e82aff9	0.2552488
38	0x3de9056c	0.11377987
39	0x3e26da5b	0.16294234
40	0xbfda4471	-1.7052137
41	0x3e3b2af2	0.18278101
42	0x3e1c4d1a	0.15263787
43	0x3e0379ad	0.12839384
44	0xbee79281	-0.4522896
45	0xc02d31a7	-2.7061555
46	0x3dfcc4fd	0.1234226
47	0xc018f6b6	-2.390058
48	0x3e12d0f7	0.14337526
49	0xc0118ed1	-2.2743418
50	0x3cb776cb	0.022395512
51	0x3e579ec0	0.21056652
52	0x3e375296	0.17902598
53	0x3db7fb6d	0.089835025
54	0xbfd26aa5	-1.6438795
55	0x3e0bb2da	0.13642445
56	0x3dba0081	0.09082127
57	0x3bbafbf9	0.005706307
58	0x3f15fc20	0.5858784
59	0xbfca5c98	-1.5809507
60	0xbfed12d8	-1.8521376
61	0xbfe88089	-1.8164226
62	0xbb954f4e	-0.004556573
63	0xc0258c78	-2.5866985
