Assets/Python/maddpg/model/simple_twoagent1117_collider/agent_0/actor_params.pkl (torch, 43969 bytes, 8 tensors)

fc1.weight f4 [64, 27]
000000 37 35 6b 3e 0e b7 07 3f 8e 5e b9 3e 9a 88 d9 3d
       0.22969519 0.53013694 0.36204952 0.10621758
000010 a1 7b 08 be aa 62 97 3d 9a 96 2d be 19 70 d6 bd
       -0.1332841 0.073918656 -0.16951981 -0.104706
000020 fb 54 67 be c8 5f 72 3e 0b e3 43 bd d0 26 0b 3e
       -0.22591011 0.2366935 -0.047823947 0.13589025
000030 62 74 34 3d c1 6d 01 3e c8 ff e6 3b fe 28 b9 3d
       0.044056304 0.12639524 0.0070495345 0.09041022
000040 43 a7 a2 be 8a ef 3e be 61 c9 9d 3b 4f 61 82 3c
       -0.31768236 -0.18646064 0.004815266 0.015915541
000050 57 fe 83 3e f5 ca da 3d 59 42 11 3e f1 77 aa 3d
       0.25779983 0.10683242 0.14185466 0.08323658
000060 67 4b b2 bc 3a 6a 3d be 18 93 13 be a6 b3 1e 3d
       -0.02176447 -0.18497553 -0.1441158 0.038745545
000070 9d b5 d3 3e 5f c4 59 be e8 f8 99 3e f4 5a cf 3e
       0.41349497 -0.21266316 0.30072713 0.4049908
000080 90 45 a4 3d 2a 51 59 be 7e 06 b3 bd 8d 61 82 3e
       0.080210805 -0.21222368 -0.08741473 0.2546505
000090 4c e8 d5 bd 73 26 1e bd 6d 1e 83 3e 0b 27 ea bd
       -0.10444698 -0.038610887 0.2560915 -0.11433228
0000a0 b6 a7 87 3e 19 b8 eb 3d d3 f5 36 be 18 5c 6f 3d
       0.2649514 0.11509723 -0.17867212 0.058437437
0000b0 8d cc 97 3e 07 0c ca be 94 d4 ab bd 53 0d bf 3d
       0.29648247 -0.394623 -0.083901554 0.09328713
0000c0 d5 fd 31 3e f3 56 f3 3d 22 1b 93 3e 52 0d 2c be
       0.17381985 0.118818186 0.28731638 -0.16801956
0000d0 cb f7 ab bd 74 01 41 3e 1d 14 5e be 89 27 e6 bd
       -0.08396872 0.1884821 -0.2168736 -0.112380095
0000e0 8a aa 49 3d 37 7a f0 3d ef ea 87 3c b2 84 ba be
       0.049234904 0.11742061 0.016591517 -0.36429363
0000f0 eb 3b d4 3e 4a 37 b5 3e f2 9b c6 be ea 58 dd 3d
       0.41451964 0.35393745 -0.38790852 0.10807975
000100 45 6e 58 3e bd 62 8d bc 17 fe 84 3e bc d6 19 3e
       0.21135814 -0.017258996 0.25975105 0.15023321
000110 d8 ac 21 be 5e 0b 65 3e a8 68 a7 3e ab 9c e1 bc
       -0.15788591 0.22367617 0.32697034 -0.027540525
000120 c1 13 b5 3e 3f 22 88 3d 52 4f 16 3d aa 00 48 3e
       0.35366634 0.06647157 0.03669674 0.19531503
000130 6b b9 86 3e 11 09 87 be 3d 01 2d 3e 8c 1f 54 be
       0.26313338 -0.26374105 0.16895004 -0.20715159
000140 59 c2 9a be 21 41 a5 be 1c 0d a9 bd b0 d4 81 3e
       -0.302264 -0.32276252 -0.082544535 0.2535758
000150 b2 05 78 3e aa 05 ba bc bd 29 09 bd 40 4d 82 3d
       0.24220923 -0.022707779 -0.03348707 0.063623905
000160 69 94 b0 3d d9 04 c4 be df dd 41 be f0 9f 58 be
       0.08622057 -0.38284948 -0.18932293 -0.21154761
000170 b0 44 ff bd e4 f9 b6 3d 5e ad 06 be 0b c7 a2 bd
       -0.12464273 0.089343816 -0.13152072 -0.07948121
000180 b8 e8 93 3e 9b c1 c0 3e ff 7a 10 be 4c 3c 55 3d
       0.28888488 0.3764771 -0.1410942 0.052059457
000190 80 6b 97 bd 69 b6 8a be 12 9a ff 3b 3b 3d 44 3e
       -0.07393551 -0.27092293 0.007800349 0.19163983
0001a0 23 af a3 bd 09 30 0b bc 71 e4 9b be 15 22 f2 3d
       -0.07992389 -0.008495339 -0.30447724 0.11822907
0001b0 a8 00 14 3d 7f f0 29 3e 03 f0 db be de 49 28 3e
       0.03613344 0.16595648 -0.42956552 0.16434428
0001c0 71 08 61 3c 1e 22 2f bd 34 bc 94 bc b4 23 bb bd
       0.013734923 -0.042757146 -0.018156148 -0.09137669
0001d0 99 4a 05 be 9a e4 bd bd 08 f6 0b be 7e 89 52 3d
       -0.13016738 -0.09272118 -0.13668072 0.051400654
0001e0 56 05 56 3e 8e c6 a2 be 1b 8b a8 3e b9 2a 07 be
       0.20900473 -0.3179211 0.3291863 -0.13199891
0001f0 da 57 70 be 21 54 50 be 48 e9 67 3c f9 e5 f0 bd
       -0.23471013 -0.20344593 0.01415474 -0.11762614
000200 dd 0d 05 bd 1e fb 23 3e b6 13 3a bd 06 3d ad 3c
       -0.032483924 0.16013762 -0.045428954 0.021147262
000210 31 72 50 bd 67 f6 cf 3d e8 e3 05 3d 47 4f 00 be
       -0.05089015 0.101544194 0.03268805 -0.12530242
000220 4c 42 78 3f 45 0b 95 bd 10 8d a5 bd 02 7c 8e bd
       0.9697616 -0.0727754 -0.08083546 -0.06957246
000230 db 08 f0 3d c4 72 6f bc 39 04 05 3f 4a ae e7 bc
       0.11720439 -0.014614765 0.5195957 -0.02828135
000240 9e db 31 3d 3f 14 94 bd 14 ba c8 bd 4b 50 ed 3d
       0.043422334 -0.07230424 -0.098011166 0.1158758
000250 57 6e 9e bd 6a 69 f7 3c 47 0d 05 3e 70 6f bb bd
       -0.077358894 0.030201633 0.12993346 -0.091521144
000260 f0 61 f4 3d ec 1e d0 bc f6 92 75 be 2b fd 53 3e
       0.119327426 -0.02540537 -0.23981842 0.20702045
000270 1b cd 9f bd a0 91 28 be fe b4 86 3e d6 98 fc 3d
       -0.07802793 -0.16461802 0.2630996 0.12333839
000280 34 06 97 be a3 8f 41 3d 2f 53 11 be 66 72 62 3d
       -0.2949692 0.047256123 -0.14191888 0.05528488
000290 4e e4 49 3f e9 19 8b bd f7 99 dc 3c 5e 53 d0 bc
       0.7886399 -0.06792051 0.026928885 -0.025430378
0002a0 2a 9e bc bc 30 c3 b3 3d e5 07 4f 3c ce 3c 19 be
       -0.023024637 0.087774634 0.01263616 -0.14964601
0002b0 05 ee 15 be ba fe 47 be 89 7e 1f be 20 f4 be bd
       -0.14641578 -0.19530764 -0.15575613 -0.09323907
0002c0 4f 41 2c be 7c 90 9d bd 0c 5d 07 3e 38 fb b1 3d
       -0.16821788 -0.07693574 0.13219088 0.08690494
0002d0 10 22 17 be a2 3d d0 3d 98 72 a5 bd ed 8f 3f 3c
       -0.14759088 0.101680055 -0.08078498 0.011692029
0002e0 82 30 fb bd da 93 8a bd d0 29 58 be 75 d4 30 be
       -0.122651115 -0.06766482 -0.211097 -0.17268546
0002f0 33 e1 ca 3d 46 0d 99 3e 2d 32 6c 3f ca f9 b9 be
       0.099062346 0.2989294 0.9226406 -0.36323386
000300 03 82 11 be 38 21 52 3e e4 70 42 3d 61 5f ec 3d
       -0.14209752 0.20520484 0.047470942 0.115416296
000310 47 54 73 3e a8 a5 51 bc 76 13 56 be ea e6 45 3e
       0.23762618 -0.012795843 -0.20905861 0.19326368
000320 93 2b a6 bd 2d 4a 98 be 20 4b 83 3e 20 94 58 3e
       -0.0811378 -0.29744092 0.25643253 0.21150255
000330 19 95 62 bd 88 c5 d1 3e 4e bc 48 be d0 cb 2d 3e
       -0.05531797 0.40971017 -0.19603083 0.1697228
000340 ec d9 46 3e ad ee f0 bd 5b 6c cf bd 4c 38 c9 3e
       0.19419068 -0.11764274 -0.10128089 0.39300764
000350 e6 0c d7 3d 73 56 ee bd 69 28 98 3e 4a 40 f7 bd
       0.10500507 -0.11637583 0.2971833 -0.12072809
000360 05 12 a7 3e ce 4f b2 3d cf fc d0 3e 47 79 80 be
       0.32630935 0.08706628 0.40817878 -0.25092527
000370 1c 62 10 3e 75 a1 56 be 34 c3 cf 3d d0 72 63 be
       0.14099926 -0.20960028 0.10144654 -0.22211766
000380 b2 ea 97 3d 6c 74 66 be 25 81 e7 bc 76 c6 4a 3e
       0.074178115 -0.22505349 -0.028259823 0.1980227
000390 64 5c d2 bd ec 48 ad 3e be 7b dd bc 11 0f 7f 3c
       -0.10271528 0.33844697 -0.027036544 0.015567557
0003a0 92 5b 94 3c dd 58 79 3d 1f a3 97 3b 4d 7a 2c 3e
       0.01811007 0.060875762 0.0046276 0.16843529
0003b0 0b e3 5c 3e 11 16 92 3e 57 18 da bd 21 0f 30 be
       0.21570985 0.2853246 -0.10649174 -0.17193271
0003c0 2b 54 91 be b3 ce 23 3e a7 00 68 bd 9c 3e a7 be
       -0.28384528 0.15996818 -0.056641247 -0.32664955
0003d0 85 6e 38 bf 48 c7 10 be cb a1 ae be 4a 76 c5 be
       -0.7204364 -0.1413852 -0.34107813 -0.3856681
0003e0 0f 5e 58 3e a3 3e 55 be 9b dd 1f be da 5e f4 bd
       0.2112963 -0.20824675 -0.1561188 -0.11932154
0003f0 04 2b 3f be 73 a2 ec 3e 5c 3a 0e bc 01 9c b1 be
       -0.18668753 0.4621769 -0.008680906 -0.34689334

fc1.bias f4 [64]
000000 a9 7f 43 3e 61 ba 2b be e8 4b 32 3e f0 ef 7f 3d
       0.19091667 -0.16770317 0.17411768 0.06248468
000010 2b 31 e0 3d 2e 52 96 bd d4 b9 56 be d6 00 2e 3d
       0.10946878 -0.07339893 -0.20969325 0.042481266
000020 72 d2 30 3e 58 9c d7 3d ab fb 8d 3e 92 d5 57 3d
       0.17267779 0.10527867 0.2773107 0.05269391
000030 a4 0d 62 be b5 8e 09 3e a0 31 5d 3e 55 2f 56 3d
       -0.22075516 0.13433345 0.21600962 0.052291233
000040 e5 ae 7d bd f9 5e bb 3b 24 be df bd 06 1a cb 3d
       -0.06193437 0.0057181087 -0.10924938 0.09917073
000050 1c 5c b1 bd 03 04 81 3d 73 26 a2 3e 2e 1f 35 3e
       -0.086601466 0.06299593 0.3166996 0.17687675
000060 86 69 5b 3b 49 a1 34 3e fd 62 00 bd ac ca 21 3e
       0.0033479645 0.1763965 -0.031344403 0.1579997
000070 d2 dd a2 3e c7 89 4b bd ac 73 1b bd 8e 67 07 be
       0.3180986 -0.04969194 -0.03795211 -0.13223097
000080 9e 5e a2 bd 90 56 8f 3d ad e4 5c 3e 13 bc a0 bc
       -0.07928203 0.06998932 0.21571608 -0.01962093
000090 c8 c7 1c 3d 31 90 17 bd 99 45 63 bd 71 ee 6a bd
       0.038276464 -0.037002746 -0.055486295 -0.0573563
0000a0 0b 4f 77 bd f5 26 0f 3e 72 bf 6a 3d b9 73 9f bc
       -0.060378116 0.13979705 0.057311483 -0.01946436
0000b0 31 55 13 be 1a a0 1d 3c 2d 86 17 bd ab d0 2a be
       -0.14387967 0.009620691 -0.036993194 -0.16681163
0000c0 30 a6 b5 3e 54 9b 7a 3d a3 78 d8 bb 42 2a 16 3e
       0.35478354 0.06118329 -0.006606178 0.14664558
0000d0 32 09 67 3e 4e a4 69 3e a2 87 94 3c f2 02 8f 3e
       0.22562101 0.22816584 0.018131081 0.27931935
0000e0 f7 fa 6f 3e 34 2e 82 3c 1d 21 59 3e 13 49 db bd
       0.23435579 0.015891172 0.21204038 -0.10707297
0000f0 ae 3e 07 be 36 62 a0 3d 20 2d ba bd a3 37 58 bd
       -0.13207504 0.07831232 -0.09090638 -0.052787434

fc2.weight f4 [64, 64]
000000 16 4a 23 3e 7c fa 30 3d 8d e5 90 3e ec 6b 96 bd
       0.1594623 0.04320763 0.28300133 -0.07344803
000010 90 f7 9e 3e db 73 50 bd 82 11 92 be fc 57 83 3e
       0.3104825 -0.05089174 -0.28528982 0.25653064
000020 b1 3f db 3d af eb 3e 3e b1 d1 6a bc 0a 8a 06 bc
       0.107055075 0.18644594 -0.014332221 -0.008211622
000030 32 90 7e be 06 90 78 bd 69 fe 0c be 56 0e a4 be
       -0.24859694 -0.060684226 -0.13768925 -0.32042187
000040 b2 b9 15 3e 90 82 ae bd ee 01 e7 3e ea 44 14 3e
       0.14621618 -0.085209966 0.4511866 0.14479414
000050 9a d5 d9 3d 24 c7 a8 bd 8d 27 3a 3e 80 32 31 3d
       0.106364444 -0.08241108 0.1817915 0.04326105
000060 07 eb 09 3e 53 a1 87 3d 8d 6f d8 3e 64 48 04 3d
       0.13468562 0.06622567 0.42272606 0.0322956
000070 eb 7b 26 3e a2 a9 0e 3d 67 7e 84 3d 16 a7 e2 3d
       0.16258208 0.034829743 0.06469422 0.11067025
000080 50 b5 38 3c 2a b0 13 bd 90 f7 69 3e 19 81 8b 3e
       0.011273697 -0.036056675 0.22848344 0.2724693
000090 37 82 9e be 9f 53 8c 3e 3c 12 2b bd b6 c0 c5 bc
       -0.3095872 0.27407548 -0.041765437 -0.024139743
0000a0 db a8 cb bd c0 9e f9 bc e0 44 82 bd 3d a0 52 3e
       -0.09944316 -0.030471206 -0.06360793 0.20568939
0000b0 b4 7a 25 bd 44 46 06 3e 4c f6 8f 3e 0e 42 35 be
       -0.040400222 0.13112742 0.28117597 -0.17700979
0000c0 92 1d 2e 3e e9 af 26 bd 3c 1a 4c bd 82 92 7a 3d
       0.17003468 -0.040695105 -0.049829707 0.061174877
0000d0 c5 57 34 3e 3e 86 58 3e 30 49 68 bc 26 f7 af 3d
       0.17611606 0.2114496 -0.0141776055 0.08592062
0000e0 4d 5a f7 3d 14 9d 5e 3d 92 93 c9 3d 0d a0 71 bd
       0.120777704 0.05434902 0.098426 -0.058990527
0000f0 43 9e 8f 3e 54 e7 ce 3d 23 07 03 be e9 ee a6 be
       0.28050432 0.10102716 -0.12795691 -0.3260415
000100 5f 97 c7 3d 5d e0 67 3e 87 0e 96 3d 95 76 34 3e
       0.097456686 0.22644182 0.073269896 0.1762336
000110 40 5f ad bd 00 d8 3a bd b0 ce 89 bc 1e df 01 be
       -0.08465433 -0.04561615 -0.01682219 -0.12682769
000120 e2 cb 80 3c 4e 74 dc be 0a c4 7c be 44 28 0c 3e
       0.015722219 -0.43057483 -0.24684158 0.13687235
000130 ba b4 6f 3c bd b7 3f bf 0c a4 11 3e 59 a4 50 3e
       0.014630491 -0.7488974 0.14222735 0.20375194
000140 15 3a 0a 3e 57 7d 2e 3e dc c2 28 bf c4 ea 92 3e
       0.13498719 0.17040001 -0.6592233 0.28694737
000150 95 3b ee 3d 3f 52 26 3e 08 3c 0a bf 7f 59 2f 3e
       0.11632458 0.16242312 -0.5399785 0.17123984
000160 51 73 7f be 10 b8 4a 3e 9e 18 25 bd 89 fd d6 3e
       -0.24946333 0.19796777 -0.04030668 0.41990307
000170 02 8c c4 3d bb 2c 93 3d 86 d4 9e 3d 0d 21 4e 3e
       0.09597017 0.07186266 0.077553794 0.20129795
000180 5f 5f 6b 3e 7e 99 70 3d 5b b5 3b 3e ef 27 00 be
       0.229856 0.05874013 0.183309 -0.12515233
000190 af 13 39 3e 9b 20 14 bf ae ef 30 be 99 cf bc 3e
       0.18073915 -0.5786225 -0.1727893 0.36877134
0001a0 09 2a 03 3e 14 9b 24 be fc 73 d2 3e a2 45 3a 3e
       0.12809004 -0.16074783 0.41104114 0.18190625
0001b0 7c a2 a9 bd 8e 35 08 bf e7 39 ab 3e d5 39 1a 3e
       -0.082829446 -0.5320672 0.33442613 0.15061124
0001c0 7e 47 5c be 4a db 59 3e 2e 23 11 3e 89 77 ce 3e
       -0.21511647 0.21275058 0.14173576 0.40325573
0001d0 14 01 b2 3d 7d bb d1 3c c0 42 9a bd ea 02 25 bc
       0.08691612 0.025602097 -0.07532263 -0.010071496
0001e0 5f 8e 8e 3e 83 05 65 3e 20 a0 1d 3e 84 28 2f 3e
       0.27842996 0.22365384 0.15393114 0.17105299
0001f0 f7 22 04 be ad a5 2f be 46 15 29 be b3 a9 17 3e
       -0.12903963 -0.17153044 -0.16512021 0.14810829
000200 7b 2f 70 3e bb 54 4e be 63 75 03 3e b3 a9 82 be
       0.23455612 -0.2014951 0.12837748 -0.25520095
000210 dc 62 d2 3d 0a 6e 90 3e c1 8c 11 3f e0 de 72 bd
       0.10272762 0.28208953 0.568554 -0.05929458
000220 2c 30 d6 3c be 4c 79 3d e8 a6 dd bd ed 9e 8f bd
       0.026146017 0.060864203 -0.108228505 -0.070127346
000230 31 96 5b 3e 3e f4 cb 3d b3 7d d8 3b 0a ed 12 3f
       0.21444012 0.09958695 0.0066067814 0.5739294
000240 e2 5f 2c bf 25 18 8e bd 2e 9c 29 be 18 b2 99 3d
       -0.67333806 -0.06938199 -0.16563484 0.07504672
000250 69 41 87 be 77 53 9e 3d 8a 7d 62 bd c3 20 9f be
       -0.2641709 0.077307634 -0.055295505 -0.31079683
000260 c0 80 03 3a c9 e5 37 3e 69 e5 4a 3d 8e 87 0d be
       0.00050164387 0.1795875 0.04953519 -0.13821241
000270 8a fe 75 bd c2 c7 c5 bd de 84 44 be 12 c6 ad 3e
       -0.0600572 -0.096572414 -0.1919131 0.33940178
000280 b6 9c 0c 3e 32 f7 72 3d d7 b7 ee be 32 4f 97 3e
       0.13731655 0.059317775 -0.46624634 0.2955261
000290 14 6f c8 3d a1 b0 f0 be ef a3 d6 bd f7 09 1d be
       0.097868115 -0.47009757 -0.104804866 -0.15335833
0002a0 ec a4 84 3d 4b 93 c9 3d 75 0a 63 3e 73 d3 25 bd
       0.06476769 0.09842547 0.22171958 -0.040484857
0002b0 83 17 a7 3d f2 fc 29 3e c4 59 11 3d 1e 35 eb 3c
       0.081587814 0.16600397 0.035485998 0.028711852
0002c0 3d 3d 33 bd d3 55 2f be b3 05 97 bc 4e 89 22 bd
       -0.043759573 -0.17122583 -0.018435335 -0.039681725
0002d0 63 bc 01 be 2c 70 f7 bd 8c e5 9b 3e 65 23 c3 3c
       -0.1266952 -0.12081942 0.30448568 0.023820588
0002e0 e5 5b e2 be b0 79 d8 bd c0 e7 ab 3e 77 71 71 3e
       -0.44210735 -0.10570085 0.3357525 0.2357844
0002f0 6b 23 e4 be 3e c0 59 be 24 c0 9b 3d aa 22 ad bd
       -0.44558272 -0.21264741 0.07605007 -0.08453877
000300 7c 0d 84 3e 81 a5 a5 3e 4d 14 cb bd 57 2e 21 3d
       0.25791538 0.32352832 -0.099159814 0.039350834
000310 df f6 08 3e 2d 49 ef be 83 9b 0f 3e 7d d5 2c 3e
       0.13375424 -0.46735516 0.14024167 0.16878314
000320 9e be 36 3e c3 44 39 be 36 38 ac bd 16 37 b0 be
       0.17846152 -0.18092637 -0.08409159 -0.34417027
000330 fb fd 1e 3d b3 00 93 3e 2d f7 e6 3d 4f 9d 0f be
       0.038816433 0.2871147 0.11277614 -0.14024852
000340 ef e2 e2 3b e5 ab e8 3d 81 f3 a9 3e cb 46 13 bf
       0.0069240252 0.11360911 0.3319359 -0.57529896
000350 69 45 31 3e 8e a8 aa 3d 31 22 ca 3b 1f f8 62 bc
       0.17311634 0.083329305 0.0061686267 -0.013853102
000360 24 87 18 3e 08 7b 02 3d aa 13 31 bf a8 4c 1c 3d
       0.14895302 0.031855613 -0.6917063 0.038159043
000370 d4 77 53 bc b0 7d 7b 3d a5 4a 6f 3e d3 f4 4d bc
       -0.012906987 0.06139916 0.23368318 -0.012570578
000380 d4 c5 29 be a6 eb be bd 20 bd b5 bd 35 8f d9 bd
       -0.16579372 -0.0932229 -0.08873963 -0.10623018
000390 ab 13 b0 be a1 eb 83 bd e8 b6 e5 3c a4 9a 90 be
       -0.34390005 -0.06441427 0.028041318 -0.2824298
0003a0 55 67 fa be c1 1e e3 be 53 a3 60 bd a5 19 38 3e
       -0.4890696 -0.443594 -0.054843258 0.17978533
0003b0 55 93 d4 bd 5f 5c 26 3e dd 9d 3f be aa c8 43 3d
       -0.10379664 0.16246174 -0.18712564 0.04779879
0003c0 91 c7 13 3e a6 12 aa 3e e6 e0 42 3e a4 08 25 bb
       0.14431597 0.33217353 0.19031104 -0.0025182152
0003d0 7f 8b 1e bd 34 b9 e3 3d 64 47 81 3e a2 8a 60 3e
       -0.038707253 0.11119309 0.2524978 0.21927884
0003e0 ad 44 26 3e 2e 7c e5 bd 84 cd 80 bc 97 ef 03 bf
       0.16237135 -0.11205326 -0.015722997 -0.5153746
0003f0 31 e5 a6 bd 0f 0b 66 3e c7 2a b5 3e 15 a5 a6 3d
       -0.081491835 0.22465156 0.353842 0.08136956

fc2.bias f4 [64]
000000 b5 ef 03 3e fd 7c 9a bc 1f 6b f1 3d 8d 5b 84 bc
       0.1288441 -0.018858427 0.1178801 -0.016156936
000010 da 25 0a 3e 9b 24 9e bc 54 e4 29 3d d2 56 57 3c
       0.13491002 -0.019304564 0.041477516 0.013143258
000020 d5 e8 55 3d d0 e0 27 3d 69 c8 f3 3d 1b 39 18 bc
       0.052224 0.040985882 0.119034596 -0.009290959
000030 9d 70 46 3c f3 70 72 3d c7 d2 8f bd 97 71 c8 3d
       0.01211181 0.059189748 -0.070226245 0.097872905
000040 52 b4 46 3e e2 73 27 3d 44 84 24 3c a8 e5 8a 3c
       0.19404724 0.040882 0.0100413 0.016955212
000050 8d 5c ff bc 1b 61 e8 3d f5 03 af 3c f9 7d 8f 3d
       -0.031172061 0.113466464 0.021364192 0.07006449
000060 d6 2f b2 bc 4d b0 1b 3e d5 a3 03 3e 15 41 8a bc
       -0.021751326 0.15203972 0.12855466 -0.016876737
000070 3a 19 44 bd 2a 3a 04 bd 6b 6f c6 bd d6 05 d7 bc
       -0.04787562 -0.032282032 -0.0968922 -0.0262479
000080 8b f6 ff 3b 12 60 4a 3e 1c 1e ef 3d 1b 1c 36 3e
       0.0078113726 0.1976321 0.11675665 0.17784159
000090 bf 5e 43 bd a0 51 ea 3c 72 28 a3 3d 6a 75 9f 3b
       -0.04769778 0.028603375 0.07966699 0.004866292
0000a0 ae b6 93 3d 9e db 33 3e cd 23 ec 3d 1c f5 ed 3d
       0.07212578 0.17564246 0.11530266 0.116190165
0000b0 bc 13 1a be 97 a9 3e bc 58 48 bc bc 27 20 fc 3d
       -0.1504659 -0.011637113 -0.022983715 0.1231082
0000c0 d1 2f 5e 3d b5 5c 3d 3e 3d 3d ff bd 25 aa 19 3d
       0.05424482 0.18492396 -0.12462852 0.037515778
0000d0 ae 39 74 3c a6 cb 0c 3e 05 c8 be 3d c5 73 2d 3e
       0.01490633 0.1374956 0.093154944 0.16938694
0000e0 4b c5 97 bd 98 af 34 3d ac f2 92 3d ca 94 0b bc
       -0.074106775 0.04411277 0.07175192 -0.008519361
0000f0 e7 69 60 3d a6 b2 00 3e 94 64 ab 3c 7c ef d7 3d
       0.054788496 0.12568149 0.020921983 0.10543725

fc3.weight f4 [64, 64]
000000 92 f4 ae bd 8b aa bf 3e 1c 0e df 3a 9f aa da be
       -0.08542742 0.374348 0.0017017755 -0.427083
000010 45 0d 0e 3e df 61 ad 3e d6 c1 c2 3e e7 0d fe 3d
       0.1387225 0.33863732 0.3803851 0.124049954
000020 35 b3 62 3d 2d 7f be bd 56 b1 07 3e 19 13 6e 3d
       0.055346686 -0.093016006 0.13251242 0.05812368
000030 f7 32 d3 3d b8 d7 ae 3e 2f f7 1c bf 16 0d c1 bc
       0.10312455 0.34148955 -0.6131467 -0.02356581
000040 7f a5 5a be cd 14 43 be fc 7f 87 3c f6 1f 98 3e
       -0.21352194 -0.19050904 0.01654052 0.29711884
000050 58 ff d0 3e 3f ac 30 3e 7b 34 86 be 34 0a 84 be
       0.40819812 0.17253207 -0.26211914 -0.25789034
000060 89 26 47 3e 3f b0 ee 3d 98 e6 c4 be c5 40 bf be
       0.19448294 0.1165471 -0.3845718 -0.37354103
000070 84 cf 4e 3e a7 a7 81 3e 20 f2 37 3e d8 f5 86 3e
       0.20196348 0.2532322 0.17963457 0.2635944
000080 1d 49 97 bd fc 86 d4 3d ce bc bc be be 23 c2 3b
       -0.07386992 0.10377309 -0.36862797 0.005924671
000090 9b 3f 54 3e 06 ce 94 3e f3 28 f2 3e 79 7d f1 3e
       0.20727389 0.29063433 0.47296867 0.4716604
0000a0 ac b5 31 bf 31 61 f9 be df 84 a5 bd e7 99 a9 3e
       -0.69417834 -0.48706964 -0.08081984 0.3312523
0000b0 34 51 dd be 91 49 21 3f 3d 74 44 3e b8 47 4e bd
       -0.43226016 0.6300288 0.19184966 -0.050361365
0000c0 e7 5c d5 3d a4 cb 8d bd 81 a2 d4 be b5 f4 d1 3e
       0.1041811 -0.06923607 -0.4153023 0.4100701
0000d0 22 2e 3e be 19 92 d9 3c 8c 17 83 3e 01 6d 9d be
       -0.18572286 0.026558923 0.25603902 -0.30747226
0000e0 c5 c1 f4 3e 1d e7 c3 3d 9a 81 45 bf d8 88 95 3e
       0.47804084 0.09565566 -0.7715088 0.29205966
0000f0 05 4c dc 3e 5f e4 94 bd af 80 5e 3e 65 66 ed bd
       0.43026748 -0.07270121 0.21728776 -0.11591796
000100 2f 72 83 bb 4c b9 d1 3d 4b 18 af 3e b7 48 b2 be
       -0.0040114145 0.10240421 0.34198222 -0.34821102
000110 f7 43 80 3e 1d d2 80 bf ac db 01 bc aa f8 c0 be
       0.25051853 -1.0064121 -0.007925909 -0.37689716
000120 b5 d7 d0 3d e6 2c 54 3e 31 a6 6c be 84 a1 0a 3e
       0.10197393 0.20720252 -0.23110272 0.13538176
000130 82 23 87 3e 27 59 8b 3e 30 5e ec be fd 87 6c 3d
       0.26394278 0.27216455 -0.4616561 0.057746876
000140 e2 a6 f8 bd ed fc 23 be bd 31 d6 3c 79 e9 ef 3d
       -0.12141205 -0.16014452 0.026146764 0.11714453
000150 10 33 b0 3e dd 6f 71 3e 9b da 59 be fe 46 16 be
       0.34413958 0.23577829 -0.21274798 -0.14675519
000160 17 f8 1f bd a3 c8 20 3d 5e 45 0e bf 7e 62 c6 be
       -0.039054956 0.039253842 -0.55574596 -0.3874702
000170 dd 4e 1a 3e e5 54 26 3e 5b f5 03 3e 96 b4 33 be
       0.15069146 0.16243322 0.12886564 -0.17549357
000180 ea 4b 9f 3e 5d fe 95 3e 4d 74 6c 3e 3c c6 65 bd
       0.31112605 0.29295626 0.2309124 -0.056097254
000190 dc 47 c8 3d cb d2 87 be 8b 8c ad 3e f5 80 68 3e
       0.09779331 -0.2652801 0.33896288 0.22705443
0001a0 9b b3 81 be b2 1b 46 be e2 9e d2 bd bc 9c 93 3e
       -0.2533234 -0.19346502 -0.10284211 0.28830516
0001b0 63 46 54 bf e0 08 03 3f 53 66 0f bf fb 73 fb 3c
       -0.829199 0.5118542 -0.5601551 0.030694952
0001c0 b7 ce e4 bc 7a bc b3 3d b0 0d b2 3c 5d 7a c5 3e
       -0.0279306 0.087761834 0.021735042 0.38569918
0001d0 4b 84 be be 7d f3 8c 3e fd 69 17 3d be 73 cf bd
       -0.37210307 0.27529517 0.036966313 -0.10129498
0001e0 53 61 46 3e 5c 49 01 3f 63 3d c2 bf ea f0 b6 3e
       0.19373064 0.5050256 -1.5174984 0.35730678
0001f0 37 8d 73 3e 1a bb b6 be a6 03 4d bd 82 23 a9 3d
       0.23784338 -0.35689622 -0.050052308 0.08258726
000200 5c 03 7d bd b9 32 ff 3e fc 74 65 be c1 b2 01 3f
       -0.061770782 0.49843386 -0.22407907 0.5066338
000210 62 63 76 bc 6e 91 5e 3f 03 1f 1d 3f af 6b 05 3f
       -0.015038343 0.8694066 0.61375445 0.5211744
000220 7f 99 bc bd 06 8e 43 be 4b df d1 be cf 72 26 be
       -0.092089646 -0.19097146 -0.40990672 -0.16254734
000230 fe 16 3e 3d 8d b0 04 3e ad 8d 3e bf 2a 14 7e 3c
       0.046408646 0.12957974 -0.7443493 0.015507737
000240 4c d9 ed 3d 03 14 57 be c0 8e ea bd 70 68 83 3f
       0.11613712 -0.21003728 -0.11453009 1.0266247
000250 c7 3c d8 be 97 3d ec 3d 0d b0 22 be 7c 8b 52 3e
       -0.4223387 0.11535185 -0.1588747 0.20561022
000260 ed 38 1d be c6 d6 ce 3d f9 a9 e6 bd 9b 25 ab be
       -0.15353747 0.100995585 -0.112628885 -0.33427128
000270 cc e9 41 be d4 ee ef bd 8f 23 0f be 23 17 84 3e
       -0.18936843 -0.11715475 -0.13978408 0.25798902
000280 9f a6 36 bf f1 f2 c3 3d f1 14 dd be 86 b1 5c 3c
       -0.71347994 0.09567822 -0.4318004 0.013470059
000290 9f e2 3d be 02 58 02 3e cc d3 f4 bd a8 9d 39 3e
       -0.1854348 0.12728885 -0.119544595 0.18126547
0002a0 cf fe 32 bf ec 1f e5 be 90 93 a0 be 60 c8 e0 3e
       -0.6992006 -0.44750917 -0.3136258 0.43902874
0002b0 d4 5e 30 3e aa cf c7 bd ea d3 30 3f 40 45 25 bd
       0.17223674 -0.09756406 0.69073355 -0.040349245
0002c0 5d 87 01 3e 31 9d 97 bd 52 9e 64 3d d6 b6 0c 3f
       0.12649293 -0.07403029 0.05581505 0.54966486
0002d0 20 4b a9 bd 8b 87 04 be aa cb 02 3e 1c 7f 01 3e
       -0.08266282 -0.1294233 0.12773004 0.12646145
0002e0 49 57 7b be 0a a9 0e bf e6 fd 69 be 3e 82 c8 3d
       -0.24545015 -0.55726683 -0.22850761 0.09790467
0002f0 84 5b f8 be 5e 22 85 3e a4 b4 2a 3e d5 8d 3c 3d
       -0.4850732 0.26002783 0.16670471 0.0460337
000300 e2 e0 1c 3e b8 a9 8b be 30 1a a7 3e b7 e6 ec bd
       0.15320161 -0.27277923 0.32637167 -0.11567443
000310 10 f1 17 3f 66 dd 63 bf 0d fb 2b 3e e0 67 3e bf
       0.5935221 -0.890097 0.16794987 -0.7437725
000320 b5 df 57 3e b3 09 b1 3e e2 ba be be 57 95 87 3e
       0.21081431 0.34577712 -0.37251955 0.26481125
000330 15 46 6b 3e c2 95 1c be ac 1f 7a 3d dc e6 6b bc
       0.22975953 -0.15291503 0.06106536 -0.014398303
000340 12 b1 61 3d 67 c9 bd be dc 41 a9 be 84 00 fc 3e
       0.055100508 -0.3706772 -0.3305806 0.49219143
000350 4b 95 6c 3d f2 ac 35 3f fc 4b 89 3d 8c e0 45 3e
       0.057759564 0.7096702 0.06703946 0.19323939
000360 f6 3e b6 be 24 05 d0 bd d9 eb f5 be 38 c7 21 be
       -0.3559491 -0.101572305 -0.480315 -0.15798652
000370 33 c0 60 3e a1 16 58 3b 1e 76 31 bd c1 bf d5 3e
       0.21948318 0.0032972472 -0.043325536 0.4174786
000380 fa c1 98 3d 8d 11 ac 3e fc 72 55 3d 60 99 93 3e
       0.07458873 0.3360714 0.05211161 0.28827953
000390 29 ed cc 3d b2 95 11 be 85 99 0b 3f 2e 9e 7d be
       0.10006172 -0.1421726 0.5453113 -0.24767372
0003a0 da c0 e5 bd 75 0c bd 3b 0d a0 ad bc 33 59 d7 3d
       -0.11218424 0.0057693073 -0.021194482 0.1051506
0003b0 90 be 2f bf 23 86 db 3d ca ba 0d bf 57 8f a8 bd
       -0.6865015 0.10718944 -0.5536314 -0.08230465
0003c0 36 96 b0 bd d5 af ad 3e e8 13 5b be b8 73 3a bc
       -0.086224005 0.33923212 -0.21394312 -0.011380129
0003d0 cd e5 fe be 24 9a 89 3d 10 fd 10 be c7 82 6e 3e
       -0.497847 0.06718853 -0.14159036 0.23292075
0003e0 bc 49 ad bd b3 91 2c 3e 29 fc 20 bf d2 88 0f 3e
       -0.08461329 0.16852455 -0.62884766 0.14017037
0003f0 76 9e ad be 2c 6c 2a be 01 f3 6a be fe 23 13 3e
       -0.3390996 -0.16642827 -0.22944261 0.14369199

fc3.bias f4 [64]
000000 3a 84 c6 3d 2e 5a 03 3e 5e 9f 3b 3c 35 12 75 3e
       0.09693189 0.1282737 0.01145157 0.23932727
000010 f2 6b a1 3d ec e0 0c 3e 1a 80 ba 3b eb 78 da 3d
       0.07881917 0.13757676 0.0056915404 0.106675945
000020 2e 57 26 3e 87 f8 b7 3b f0 5b c1 3d 9e 8c ff 3d
       0.16244194 0.0056143436 0.09441364 0.124779925
000030 6b 3d 09 3e 6b d1 6e 3d 36 e5 a2 3d 23 7a 8c 3c
       0.13402335 0.058305185 0.07953875 0.017148083
000040 2e c6 25 3e 58 4e e0 3d 46 46 9e bd 58 80 92 3c
       0.16188881 0.10952443 -0.07728247 0.017883465
000050 f6 58 03 3e 84 7f dd 3d b8 ed 12 3e dd 29 6a 3c
       0.12826905 0.10815337 0.14348495 0.014292208
000060 03 1e bc 3d b7 c0 db 3d e9 75 ac bd 27 a9 2f 3d
       0.09185412 0.10730117 -0.08420927 0.042885926
000070 d3 4f 03 3e 08 5f 7a 3d 74 5b 31 3e ec 52 8c 3d
       0.1282342 0.061125785 0.17320043 0.068517536
000080 89 bb 2d bd 3f c1 80 bd 0e cf 9c 3d 68 02 69 3d
       -0.042415176 -0.06286859 0.0765668 0.05688706
000090 7a bc b1 3d f0 e3 f2 bd 5d 8f c0 bc fe 5a 8e 3c
       0.08678527 -0.11859882 -0.023505861 0.017377373
0000a0 d0 4e 45 3d 52 dd 10 3e 57 4b 4a bd 4f 66 44 3c
       0.048170865 0.14146927 -0.049388256 0.011987283
0000b0 9e 29 36 3e e3 06 34 3e b0 ba e0 3d 90 88 99 bd
       0.17789313 0.17580752 0.10973108 -0.0749675
0000c0 9d da 64 3d ec 47 26 3e f8 ca 2b 3e 11 82 9b bc
       0.05587255 0.16238374 0.16776645 -0.018982919
0000d0 54 2e 0c 3d 23 38 d9 bd 36 1f b7 3b 55 33 a1 3c
       0.03422387 -0.1060641 0.0055884374 0.019677797
0000e0 91 25 a1 3c 80 b7 2c 3e 5e 53 7e 3d 7b 54 3d 3e
       0.019671233 0.16866875 0.062091224 0.18489258
0000f0 17 0f 8b 3b 8b 20 ab bc 26 f3 05 3e d5 14 50 bd
       0.004243742 -0.020889541 0.13081035 -0.050801117

action_out.weight f4 [3, 64]
000000 48 ed 76 be 6e 38 a8 3e dd 49 fe be e1 b5 52 3f
       -0.24113953 0.32855552 -0.49665728 0.82308775
000010 96 dd 94 bf 4e 04 07 3e c5 c7 3e be 35 f0 50 bf
       -1.1630123 0.13185236 -0.18630894 -0.81616527
000020 31 7c 4d 3f ee ec a3 3e a5 40 b3 bf ba 31 fc be
       0.80267626 0.320167 -1.4004103 -0.49256688
000030 30 fa f6 3e 6a dd a9 be 8f bf 09 bf 02 82 ce be
       0.48237753 -0.33176738 -0.5380792 -0.40333563
000040 b6 5f cd 3e 3b dc 40 be 36 66 11 be 51 fe 10 bf
       0.40112084 -0.18834011 -0.14199147 -0.56638056
000050 4f 42 d5 3f ac 41 a9 be 8a 8e ab 3e 0a 5e ee 3d
       1.6660861 -0.33057916 0.33507186 0.1163903
000060 41 f5 ff bc 85 60 9e 3e 19 4a 7a 3d 5d 36 3b bf
       -0.031244876 0.30933014 0.06110582 -0.73129827
000070 8b e3 c6 3e 22 a4 da 3e 0f 4e 14 3f 02 64 88 be
       0.38845477 0.42703348 0.5793161 -0.266388
000080 e4 2d 33 bf 46 b5 31 bf 4c d3 0a bf 5a 65 4f be
       -0.699919 -0.69417226 -0.54228663 -0.20253506
000090 05 4f d4 be 80 fb 0f 3f 6e fe 43 bf 4e 09 2d 3d
       -0.41466537 0.56243134 -0.76560104 0.0422452
0000a0 4d c2 21 bf 2a cb 8a 3e 6f c0 22 3e 8c fb 65 3f
       -0.63187104 0.27108127 0.1589372 0.89836955
0000b0 3e 60 b0 3e f5 8a f6 3e 81 86 f2 be f1 de f3 bd
       0.34448427 0.4815289 -0.47368243 -0.11907757
0000c0 59 29 a3 be 35 1c 1c be 69 e4 91 3e ed 6e a2 3e
       -0.31867483 -0.15245135 0.28494576 0.31725255
0000d0 7f ea e4 be 66 1c 9f bd e1 86 cb be 8e 58 09 3f
       -0.44710156 -0.077690884 -0.39751342 0.5365075
0000e0 84 75 0c bf 03 44 13 3f c8 f7 50 3f 03 da 28 3f
       -0.54866815 0.5752565 0.81628084 0.6595766
0000f0 e7 7c 9c be 58 87 0d bf 70 4e e0 3e f9 a4 8f 3e
       -0.30564043 -0.55284643 0.43809843 0.28055552
000100 3e 8c 75 be a1 e4 b0 bd 3b 1c 1b bf dc d6 8a be
       -0.2397928 -0.086373575 -0.6058995 -0.2711705
000110 7a e3 32 3f c4 b4 f8 3e 30 30 36 bf db cb a7 3d
       0.6987835 0.48575413 -0.7116728 0.08193179
000120 00 79 0f 3d fa 23 25 bf 9e 2a 19 3e 49 3b 9d be
       0.035027504 -0.6450802 0.14957663 -0.30709293
000130 64 21 ec be b5 95 06 bf eb 42 bf bb da 3f 14 3f
       -0.46119225 -0.52572185 -0.0058368347 0.5790993
000140 e5 e1 d3 be 50 12 2f bf 55 0a 44 3f e0 f1 2e bf
       -0.4138328 -0.6838732 0.76578265 -0.6833782
000150 1e d9 d6 3d 5e 80 44 3f 70 5c 81 3e e6 f8 a1 3e
       0.104906306 0.7675837 0.25265837 0.31635207
000160 56 9f 18 bf fe a4 64 bd c8 ac d5 3e 3e 4f f7 3e
       -0.5961813 -0.05582141 0.41733384 0.48302644
000170 84 2c e5 3e 23 77 ab 3e c8 9c 8a be 53 c9 21 3f
       0.44760525 0.33489332 -0.2707274 0.6319782
000180 c0 19 a7 3e 5e c3 42 3f 62 aa f9 3e bc de 20 bf
       0.32636833 0.76079357 0.48762804 -0.62839866
000190 76 7b bc be 6d 94 29 3f fa 4f 80 be 63 9a 92 3f
       -0.36812943 0.66242105 -0.25061017 1.1453365
0001a0 ab 22 3b 3f 92 e7 ed 3e 19 54 e9 be eb 68 03 3e
       0.73099774 0.46465737 -0.45571974 0.12832992
0001b0 9c b3 b6 3e 0f f9 c0 be 1e a7 18 3f 16 ed f2 bc
       0.35683906 -0.37690017 0.5963 -0.029654067
0001c0 93 53 d3 bd 0b dd 0e bf ad 4c 19 3f fd 20 38 bf
       -0.10318675 -0.55806035 0.5988262 -0.71925336
0001d0 40 5c bf bd 8b dc 82 3e 75 ea ca be 33 b6 c8 3e
       -0.09343767 0.25558886 -0.39632002 0.39201507
0001e0 34 6f f8 be f9 89 8e 3d 76 3e 6d 3e 98 9f d5 bd
       -0.4852234 0.0695991 0.23168358 -0.10430831
0001f0 44 d6 ec 3d 95 42 1e 3f d4 51 c7 bd 4a 6b 98 3f
       0.115643054 0.61820346 -0.09732404 1.1907742
000200 8f 56 a5 3f be 62 6f 3f 49 1e 91 3e ef 8f e5 3d
       1.291704 0.93510044 0.28343418 0.11209094
000210 01 bf 28 bf 93 99 5c 3f 87 ee 7c 3d 4a 39 01 3e
       -0.6591645 0.86171836 0.061750915 0.1261951
000220 1b bd c7 be 31 89 7a 3f ce f4 7e 3e 3f 78 d8 be
       -0.39011464 0.9786559 0.24898073 -0.4227924
000230 f8 c7 fd 3e 3c 4c af 3f 25 86 86 be a2 e3 5f 3e
       0.49566627 1.369514 -0.2627422 0.21864179
000240 0f 17 89 3a 9c e1 5d be 8d 22 18 3f db b3 b5 3e
       0.0010459143 -0.21668094 0.5942772 0.3548878
000250 2c 6c e3 bc e9 36 91 3e cf e9 df be c6 58 b9 3f
       -0.027761541 0.28362206 -0.4373307 1.4480217
000260 d2 d4 9e be 88 83 35 bf 01 08 6c 3f 50 92 cc bd
       -0.31021744 -0.70903826 0.92199713 -0.099888444
000270 59 ca 0f be 61 fb 35 3f 5a 51 89 3e 98 f5 c1 3e
       -0.14042033 0.710867 0.2681988 0.37882686
000280 70 89 35 3e 02 8a 7f 3e 4d 87 ab 3e 0d e3 8c be
       0.1772821 0.2495499 0.33501664 -0.27516976
000290 8f c9 04 bf 21 1d f9 be be 1b 2b 3f 2a e8 72 bd
       -0.51870054 -0.48655036 0.66839206 -0.05930344
0002a0 98 cc 3c be a7 2b c1 be 3f a0 64 3f 0c e4 cf be
       -0.18437421 -0.37728617 0.89307016 -0.40603673
0002b0 0d 04 be be 6a ff b2 bc bc 52 bd 3d 29 3f 57 3d
       -0.37112466 -0.021850307 0.09244296 0.05255047
0002c0 b0 a1 fb be bd 4b 84 be 34 78 63 bf df 57 3c be
       -0.49146795 -0.25839034 -0.8885529 -0.18392895
0002d0 ff 6a b5 be 7a 83 bb 3f 6a 6c 3d be 84 6a 8f 3e
       -0.35433194 1.4649498 -0.18498388 0.28010952
0002e0 01 f3 80 be 8d 40 08 3f fd 55 00 bf 62 ad 1a 3f
       -0.25185397 0.53223497 -0.5013121 0.6042081
0002f0 5a 90 00 bf 9a ae 8a 3e 71 46 4c be e7 d7 39 3d
       -0.50220263 0.27086335 -0.19948746 0.045371916

action_out.bias f4 [3]
000000 e3 ed 11 bd bf 5b e2 3c fe 28 2f be
       -0.035627257 0.027631639 -0.17105481
