Assets/Python/maddpg/model/simple_twoagent1117_collider/agent_0/critic_params.pkl (torch, 51915 bytes, 7 tensors)

fc1.weight f4 [64, 60]
000000 08 2f 54 bd 4d f0 1d c0 28 97 e9 3e fc d3 32 3d
       -0.051802665 -2.4677918 0.45623136 0.043659195
000010 e4 31 fb 3c a7 1d eb 3d 85 c4 42 3f 87 12 44 bf
       0.030663438 0.11480265 0.76081115 -0.7659077
000020 87 70 3c be 9c 1c a3 bd df cb 07 3f d5 5f 89 bd
       -0.18402301 -0.07964441 0.5304546 -0.06707732
000030 0f 66 3a 3e b2 d2 ac be 40 b0 30 be 5a 84 b6 be
       0.18202995 -0.33754498 -0.17254734 -0.3564785
000040 ae d0 ea 3e fa db 87 3f d7 3f 9e be 24 2d aa 3f
       0.45862335 1.0614007 -0.3090808 1.3295026
000050 5c 54 ea 3e 7e 4b 84 bd 6c 17 0d 40 ad 17 1f bf
       0.45767486 -0.064597115 2.2045546 -0.621455
000060 85 bf b1 be da b8 60 3c 73 0b 53 bf c6 cf 27 3f
       -0.3471643 0.013715947 -0.82439345 0.6555141
000070 75 32 4b bf e6 93 a9 3e b4 bf f3 be 16 78 38 3f
       -0.79373866 0.3312065 -0.47607195 0.72058237
000080 f3 3a 7e 3e ae a5 42 3d 9d 7f 86 bd ff 8c b0 bc
       0.24827175 0.047521286 -0.06567309 -0.021551607
000090 89 00 20 bd 3d 2f 49 bf 94 76 17 be 65 fc 99 3c
       -0.03906301 -0.78587705 -0.14791328 0.018797109
0000a0 ea 75 ad 3f c4 05 1e bf 7a 08 21 bd 74 40 1f be
       1.355161 -0.6172755 -0.039314725 -0.1555193
0000b0 5c ee 7e be 85 b2 03 be 63 f9 29 3e 92 4f f1 bd
       -0.24895614 -0.12861069 0.1659904 -0.11782755
0000c0 2a d1 41 3e d3 b7 1d bd 04 83 d4 be 6b 7d bc be
       0.18927446 -0.038505387 -0.41506207 -0.36814436
0000d0 54 b9 48 3f 17 9c b1 3e b5 d2 3e 3d 29 9d 21 bd
       0.7840779 0.346894 0.046587665 -0.03945652
0000e0 95 45 c4 3d 7b 42 37 bd 24 52 dd b8 10 19 ad 3a
       0.09583584 -0.044741135 -0.00010553401 0.0013206322
0000f0 f6 66 30 3e 02 81 1d 3e 69 1d f3 3e 7e 34 d1 bc
       0.17226776 0.15381244 0.47483376 -0.025537726
000100 e6 0b 90 3c 91 df b9 bc fd 9e 3d 3d 4d a2 ea 3f
       0.017583799 -0.022689613 0.0462942 1.833078
000110 07 23 92 3e 35 a0 59 bf fd 17 48 40 2c 3e 5d bf
       0.2854235 -0.8501008 3.1264641 -0.8642299
000120 8a e9 10 bf b9 9e 2a c0 f3 2f 16 bd c0 2c 0c 3f
       -0.5660635 -2.6659377 -0.03666682 0.54755783
000130 23 02 69 3f f4 6b 5a bf ce df 99 3f a7 70 8a bd
       0.91018885 -0.85320973 1.2021425 -0.06759768
000140 72 e0 ab bf 89 d7 52 3e f7 7b 32 40 96 12 07 3d
       -1.342787 0.20590033 2.7888162 0.03297671
000150 bb c1 89 be b0 0c 5d c0 b6 f4 9c 3f 8f 15 52 3d
       -0.26905617 -3.4538994 1.226218 0.05129009
000160 a8 11 13 be 50 23 b3 3d 9d 6e 77 3e b8 f9 df 3d
       -0.14362204 0.0874697 0.2416329 0.10936302
000170 e1 1f a7 3b 61 b1 3e 3c 4a d5 c1 be 5e d0 8a be
       0.005100236 0.01163897 -0.3785804 -0.27112097
000180 f2 6f 33 be 22 b5 c2 bd 07 9a 19 3e 85 53 35 3e
       -0.17523172 -0.095072046 0.15000163 0.17707641
000190 4a f8 26 3f d3 77 d0 be a8 98 cd bd 76 f4 f1 bd
       0.6522261 -0.4071642 -0.100388825 -0.11814205
0001a0 97 b8 6e be f5 a3 23 be 5d da 5b 3e cd 22 39 bd
       -0.23312603 -0.15980513 0.21470018 -0.045199204
0001b0 91 18 4b 3d 74 8b 1c bd 5e 4b aa 3e c8 a6 7a bd
       0.049583975 -0.03821893 0.33260626 -0.06119421
0001c0 d2 6b 43 be b0 cd 03 3e 37 95 04 3d d2 89 e3 bb
       -0.19084099 0.12871432 0.032368865 -0.0069439197
0001d0 1a b4 42 3c eb 5a d0 bb d3 f2 4e 3c 73 5b 5b 3b
       0.01188376 -0.0063584945 0.012631136 0.0033471256
0001e0 40 67 69 3f 6d 90 15 c0 b5 cf d3 3e 5f 7d 05 3c
       0.9117317 -2.33694 0.41369405 0.008147567
0001f0 4c 33 9f 3e 39 d6 7e bb 6b 7a 12 bf b4 e5 9c 3e
       0.31093824 -0.003888501 -0.57218045 0.30644
000200 9a 19 2e bf 0c 39 28 bf a8 a8 d1 3f 46 44 e1 be
       -0.68007815 -0.65712047 1.6379595 -0.439974
000210 27 f0 4a bf 19 c4 53 bd 1e 20 15 bf 87 32 22 3f
       -0.79272693 -0.051700685 -0.5825213 0.6335835
000220 d5 44 2b bf 5e f8 15 be 62 e2 51 3f 8a af 5c 3f
       -0.66901904 -0.14645526 0.8198606 0.8620535
000230 0a 27 c9 3e 6f 47 2c 3f 98 fb a9 bf 7e b2 b1 bd
       0.39287597 0.672965 -1.3279905 -0.08676623
000240 2f 32 b3 bd 3b 0c a1 3e 5b ce ee be ce e1 3c be
       -0.08749806 0.31454644 -0.46641812 -0.18445513
000250 2d b3 ca be 3e 98 a7 3f cc 40 2c be 79 6e 6b 3d
       -0.39589825 1.3093336 -0.16821593 0.0574784
000260 8f 3e 0f bf 35 39 3b 3e cb 36 70 3e 9d 3b 00 bf
       -0.5595483 0.18283542 0.23458402 -0.5009096
000270 a2 6c 0b be 7f 3f 48 be 88 fc cb 3e 0a 67 40 3f
       -0.13615659 -0.19555472 0.39841104 0.75157225
000280 78 0e 69 3d 27 10 df 3c 7c 5a 9f bd 4a 41 a9 be
       0.056898564 0.027229382 -0.077809304 -0.33057624
000290 30 a3 e5 be 48 43 14 be 75 46 35 be 58 47 d4 3c
       -0.44851065 -0.14478791 -0.17702658 0.025912926
0002a0 66 03 a8 3c aa 14 39 bf c4 59 82 bf fc d3 5f be
       0.020509433 -0.72297156 -1.0183644 -0.2185821
0002b0 ff 23 4f 3f 6f b8 3f be f4 35 90 3b 9a 18 4c 3d
       0.809143 -0.187227 0.004400963 0.04982815
0002c0 9b ec 06 bc 5c d3 bb bb d1 1b 68 3d 92 53 93 bc
       -0.008235122 -0.005731983 0.056667153 -0.017984185
0002d0 1c 14 57 3f 74 69 d3 3e 9f 11 b5 bf d3 9f 26 3e
       0.8401506 0.41291392 -1.4146003 0.16271906
0002e0 91 fa 8e 3e 65 86 d2 3d 4d e5 03 c0 7e 6d 31 bf
       0.27925542 0.1027954 -2.0608704 -0.69307697
0002f0 b1 be ce bf c6 65 94 be c5 82 92 bf 24 37 cf be
       -1.6151944 -0.28983897 -1.1446158 -0.40471756
000300 37 3a 26 be 08 45 45 3f b9 57 31 bf 40 71 58 3e
       -0.16233145 0.7705846 -0.6927448 0.21136951
000310 d6 fe dd 3f a9 00 d2 3f 45 c9 b6 be 43 5a d1 3e
       1.7343395 1.6406451 -0.3570043 0.40889177
000320 11 c2 1b be 04 4e 4a 3f ca 86 03 bf 8a e0 1c bc
       -0.15210749 0.7902529 -0.51377547 -0.009575019
000330 e7 fe 59 3e e0 8e ab bf 6d 90 9d 3f b0 1c 93 3e
       0.21288644 -1.3402977 1.23097 0.28732824
000340 86 87 4b 3e e1 9d 73 3d 6b db c1 be 16 6b 7a be
       0.19875917 0.059476737 -0.37862715 -0.24454913
000350 9f 1d c6 3b e8 bb aa 3d 2e 2b 42 bf 5f 5f a4 be
       0.0060460116 0.083366215 -0.75847137 -0.32104012
000360 9e 00 a4 3e 63 c2 20 bf df aa 07 3f da b4 07 bf
       0.3203172 -0.6279661 0.52995104 -0.5301033
000370 b7 e8 81 3e 2a 5d 8a bd 72 4d fa be 57 b2 c4 3e
       0.2537286 -0.06756051 -0.4888721 0.38417313
000380 51 a0 0f bf d3 de 06 3e 81 11 94 bb e4 10 a4 3e
       -0.56104 0.13170938 -0.004518688 0.32044137
000390 20 82 8a 3e af cc ff 3d cd 2c 8c bc d7 d2 58 3d
       0.27052402 0.12490212 -0.017111206 0.052935448
0003a0 e5 f4 39 bf b3 3d a2 be 5a e7 f1 bc 1f ac 2d bd
       -0.72639304 -0.31687698 -0.029529262 -0.042400476
0003b0 44 31 08 3d 25 02 12 bc 47 c3 3f 3d ba 43 1f 3d
       0.03325011 -0.008911644 0.04681709 0.03888295
0003c0 3c 56 83 3f 85 88 5b 3e f5 f1 06 bf 33 a3 1c 3e
       1.0260692 0.21438797 -0.5271295 0.1529663
0003d0 f2 79 34 3e 5d 16 18 3d 1d f0 ed 3e 98 24 0a c0
       0.17624643 0.037130702 0.46472254 -2.1584835
0003e0 fd 64 c0 3d 4b 59 8f bf 35 08 16 be 85 c3 1d bf
       0.09394262 -1.1199125 -0.14651568 -0.61626464
0003f0 22 02 71 be 20 64 8c bf 31 d0 52 3f 61 05 3a 3e
       -0.2353597 -1.0968056 0.82348925 0.18166114

fc1.bias f4 [64]
000000 6b 13 0c 3f 8b 46 a2 bf 6d f6 d5 3c 0b 0f 87 bf
       0.5471713 -1.2677778 0.026118482 -1.0551466
000010 c2 33 0e 3f fd aa a2 3f b7 4f 26 3d c0 7a 6d 3d
       0.55547726 1.2708431 0.040603366 0.05797839
000020 cb 85 87 3e 33 e2 b4 be 5e 94 4b bf 6e 0e 2d 3e
       0.26469263 -0.35328826 -0.79523265 0.16900036
000030 cd 16 70 3f cb f2 cb 3e bd 24 8a 3e 95 77 4d bf
       0.9378479 0.39833674 0.26981154 -0.8026059
000040 e3 92 93 be c6 fd 58 bf 19 ec bd 3e 43 b3 94 bf
       -0.28823003 -0.8476223 0.3709419 -1.1617206
000050 48 41 6e 3e 3f 27 34 3e 06 c7 bc bf fa d3 dc bf
       0.2326709 0.17593096 -1.4748237 -1.725219
000060 77 75 65 bf 43 93 ca be 61 98 59 3f 5b 65 c5 be
       -0.8963236 -0.39565477 0.84998137 -0.3855389
000070 a1 ff 49 bf 91 a1 24 3e fb 7c 96 be 8e c1 de bd
       -0.78905684 0.16077258 -0.29392228 -0.108767614
000080 64 33 b0 bf a0 b8 b8 bd bc fb d0 bf f7 0c da 3e
       -1.3765683 -0.090195894 -1.6326823 0.42588016
000090 4b de 14 3f 5e ec e4 bf d9 1e d4 3e 54 dd 69 bf
       0.5815169 -1.7884634 0.41429785 -0.91353345
0000a0 19 d1 30 bf cf bd 15 bf c5 68 4e bf 20 94 39 3f
       -0.6906906 -0.5849275 -0.80628616 0.72491646
0000b0 14 c8 e8 be 44 84 86 3d 01 ff 83 bf 3e 13 5a bf
       -0.45465147 0.065681964 -1.0312196 -0.8518561
0000c0 61 d7 7e bf fe 10 4d 3f 4c ec 66 3f b5 9a 9d 3e
       -0.9954739 0.80104053 0.9020431 0.30782095
0000d0 03 02 c4 bf 1e c4 81 bf c5 5c 59 bd 82 e6 83 bf
       -1.5313114 -1.0137975 -0.053066988 -1.030472
0000e0 dc a7 79 3c 6e 88 d5 bf 2f f5 a6 be 9b 6f 98 bf
       0.015237775 -1.668226 -0.32608935 -1.1909059
0000f0 78 48 f7 be 2f e0 e9 be 92 7d ba 3d 61 8d c8 3e
       -0.48297477 -0.4567885 0.09105982 0.39170364

fc2.weight f4 [64, 64]
000000 fe 37 cb bd 88 40 14 be c5 fe 13 be 7f 4e 78 bd
       -0.09922789 -0.14477742 -0.14452656 -0.060621735
000010 8c ed d8 bd 28 0d 84 bd d9 f2 4f 3d 33 3c 46 be
       -0.105921835 -0.06447822 0.050768707 -0.19358902
000020 bd 90 c9 bc d1 fb d8 bc 5e 5f 00 be 35 01 3f ba
       -0.02460515 -0.026487263 -0.1253638 -0.00072862516
000030 4a dd 60 3d 3b 28 05 be fe fd 7d bd b0 e4 30 3a
       0.054898538 -0.13003628 -0.062009804 0.0006747944
000040 74 ec 87 3d 7a ec ff bd d4 0f 08 3c 1e 63 24 3d
       0.06636897 -0.12496276 0.008304555 0.040133588
000050 77 53 2c be a2 87 36 3d f6 bf 63 3d 4a a5 c7 bd
       -0.16828714 0.044562943 0.05560299 -0.09748323
000060 89 38 21 be 26 bb e7 3c d9 86 bc bd e1 f9 b6 bd
       -0.15744223 0.028287482 -0.09205408 -0.08934379
000070 60 9c 43 be c5 30 e9 bc 40 04 53 be 6d 79 a2 bb
       -0.19102621 -0.028465638 -0.2060709 -0.0049583227
000080 e4 1c de bd 99 04 93 bd bf 7f 30 39 74 34 20 bd
       -0.10845354 -0.07178611 0.00016832257 -0.039112523
000090 37 3a bc bd 2e 4c c7 bd bc 54 b6 bd 26 a0 bd bd
       -0.09190791 -0.09731327 -0.089028805 -0.092590615
0000a0 c6 f2 a1 bd 3f 24 06 be 66 3b 1c be 90 67 43 bd
       -0.079076335 -0.13099764 -0.15257034 -0.047706187
0000b0 0a 27 5c bd f4 17 fc bd d3 91 67 ba 76 02 09 be
       -0.053748168 -0.12309256 -0.000883368 -0.13379845
0000c0 6e 3b e5 bd b2 0c 4a 3c b4 ff 94 3d 84 d0 f0 bd
       -0.11192976 0.012332128 0.07275334 -0.11758521
0000d0 f9 a6 af 3d 8b 15 f8 bd 68 86 44 bd 87 4d 08 be
       0.085767694 -0.12113484 -0.047979742 -0.13310824
0000e0 e3 1c 41 be b1 e4 37 3c 6f 7e 37 be fa c2 1f bd
       -0.18858676 0.011223958 -0.17919324 -0.039004304
0000f0 66 96 98 3c 1f fc eb bc 77 b7 37 3a 77 c2 5a 3d
       0.018626403 -0.028806744 0.00070082344 0.053408112
000100 fb 78 32 bf cd 32 ac 3e 2d 2f a2 bf 6b 1c 51 3f
       -0.6971585 0.33632508 -1.2670647 0.8168399
000110 74 8c 58 be 66 e4 b7 3e 33 71 e1 be eb 27 b4 3e
       -0.21147329 0.35916442 -0.44031677 0.35186705
000120 7e 0b 2f bf da f3 32 3f de 84 2c bf 47 95 17 bf
       -0.6837691 0.6990334 -0.6739024 -0.59212154
000130 bc b8 de be f6 3c 34 3f 74 5f 00 be ff 50 2e 3e
       -0.43500316 0.7040552 -0.12536412 0.17023085
000140 7d 9b b3 bf db d0 5c bf 1f 4e cf be fa de 8c bf
       -1.4031826 -0.8625619 -0.4048929 -1.1005547
000150 93 2a 5e 3e 6b b0 a9 be e3 14 35 3f cf 81 59 3e
       0.21695928 -0.3314241 0.70734996 0.21240924
000160 8a d9 97 3e 21 0b 0b bf 92 86 88 bf 8c d4 47 bf
       0.29658157 -0.54313856 -1.0666068 -0.78058696
000170 00 69 ec bf 57 49 71 be 5a 85 17 be eb d8 dc bf
       -1.8469543 -0.23563133 -0.14796963 -1.7253698
000180 6d 55 4b 3f 40 c6 80 bf 6e 02 ff be de 8c 05 c0
       0.79427224 -1.0060501 -0.4980654 -2.0867229
000190 ac e3 4a bf c3 12 92 be 16 d8 a3 bf 19 30 6a 3e
       -0.7925365 -0.2852994 -1.2800319 0.2286991
0001a0 68 7c 8e be e4 06 0c bf b7 5f 4e be 07 63 6b 3e
       -0.2782929 -0.54698014 -0.201537 0.22986995
0001b0 50 b3 c1 bd d3 78 9f 3e 96 57 8b be d8 ba 73 bf
       -0.09458029 0.3114687 -0.2721526 -0.95206976
0001c0 57 68 96 bf 26 9f a4 be e4 f0 55 3e d1 37 6a bf
       -1.1750592 -0.3215267 0.20892674 -0.9149142
0001d0 30 ea a2 bd a5 ce 5a 3f 71 4a ad 3e 27 13 1b bf
       -0.07954824 0.85471565 0.33845857 -0.605761
0001e0 f6 e1 26 bd 0e a1 2f be 2e ed 97 3d 20 56 dc bf
       -0.040742837 -0.17151281 0.07418285 -1.7213783
0001f0 0a b7 cf 3e 42 87 2e bf 6e 01 6b bf a6 33 b7 bf
       0.40569335 -0.6817514 -0.91799057 -1.4312637
000200 c3 78 31 bf 1d 13 7b be e8 3f 2f bf 88 6b 7e 3e
       -0.6932489 -0.2451901 -0.6845689 0.24845707
000210 00 1f 92 bd 47 73 17 bf d1 4a 2a 3e 5f 0d 61 be
       -0.07134819 -0.59160274 0.16630103 -0.21977757
000220 e4 6f 22 be 51 f4 db bf 6a 1a 03 bf 94 a2 77 3e
       -0.15862995 -1.7183934 -0.5121218 0.24183112
000230 7d fd 87 be 47 61 7d 3e 41 f6 36 3f 3f fa 1b bf
       -0.26560584 0.2474414 0.71469504 -0.6092872
000240 9f 54 a3 3e e3 e4 02 3f 1b 86 30 c0 82 3e 46 bf
       0.31900498 0.51130503 -2.7581851 -0.7743913
000250 01 30 9f 3f 04 1b 34 bf c7 5c 2b 3f 48 3d 22 bd
       1.2436525 -0.7035372 0.6693844 -0.039609224
000260 af 0e a4 be 04 d7 62 bf 6b 51 13 3f dc 25 24 c0
       -0.32042453 -0.8860934 0.5754611 -2.5648108
000270 24 33 11 bf 21 1f 9d 3d f2 e4 4d 3f 18 5d 48 3f
       -0.5671866 0.07671953 0.8042747 0.7826705
000280 11 31 90 be 21 e4 b7 3e c7 16 ba 3e a3 29 90 3e
       -0.28162435 0.35916236 0.36345503 0.28156766
000290 60 75 d2 bd 19 a8 3a 3f ea f2 89 bf d0 56 73 bc
       -0.10276294 0.72912747 -1.0777256 -0.014852241
0002a0 ce 66 ba bf 85 49 53 bf d6 cc 85 3e 43 78 52 be
       -1.4562624 -0.82534057 0.2613284 -0.20553689
0002b0 9d 38 8e bf ab b8 9e bf 36 54 02 bf 6f df 87 3d
       -1.1111027 -1.2400106 -0.50909746 0.066344135
0002c0 cb 68 83 3e cd 2d ba 3e 4a 6b 5e 3e 13 fb 8d bf
       0.25665888 0.36363068 0.21720615 -1.1092247
0002d0 8d 2b 82 be 57 60 b8 be 17 7d d9 3e 63 33 c6 bd
       -0.25423852 -0.36011 0.42478248 -0.0967777
0002e0 ad ae a1 3e 84 d1 9c 3f 8e 3a b6 be 77 f7 70 3f
       0.3157858 1.2251439 -0.3559155 0.941276
0002f0 55 22 87 bf f1 78 77 3d 68 39 16 3f 7e 82 7a bf
       -1.0557352 0.060418073 0.58681345 -0.97855365
000300 c4 10 5e 3f 75 ff bd bf 48 76 18 3f 2d 5c a3 3f
       0.8674433 -1.4843584 0.5955548 1.2762505
000310 71 81 80 3f d1 5c 95 3e db 15 22 bf d3 be c1 3e
       1.0039502 0.29172376 -0.633146 0.378409
000320 47 04 1b 3f 53 6e 06 3e cc 2f 8d bf ae 7c 06 bf
       0.605534 0.13128023 -1.1030211 -0.52533996
000330 b7 91 05 bf c0 3d 72 c0 d9 24 46 3e dd 7a 1a be
       -0.5217547 -3.785019 0.19349994 -0.15085931
000340 2b 55 ee bf 5b 4d c8 bf c9 7f 11 bf 03 20 34 3f
       -1.8619741 -1.5648607 -0.5683561 0.70361346
000350 f1 5a 6c 3e d1 22 1b 3f 23 83 50 3e b1 60 9b bf
       0.23081566 0.606 0.20362525 -1.2138883
000360 c0 0a 8f be 51 9c 35 3f 13 81 f2 be 10 00 dc bc
       -0.2793789 0.70941645 -0.473641 -0.026855499
000370 08 03 98 bf 1c 4d 8d 3d f6 55 e9 bf 34 d3 8f be
       -1.1875925 0.06899473 -1.8229358 -0.28090823
000380 64 37 33 3f 45 a8 6a bf ed 44 b8 bf 35 f5 6b c0
       0.70006394 -0.9166301 -1.4396034 -3.6868412
000390 1f e6 57 bf 2d 17 e3 bf 14 57 92 bd 12 b5 4f bf
       -0.8433551 -1.7741448 -0.07145515 -0.81135666
0003a0 b3 e7 68 be 37 04 a3 bf a8 0a 0f bd 58 a8 aa bf
       -0.22744636 -1.2735661 -0.034922272 -1.3332624
0003b0 f7 d0 1b be 8e 2e bf bf 7e ad 93 bf cc 70 72 bf
       -0.15216433 -1.4936082 -1.1537321 -0.94703364
0003c0 9d 18 24 3f 37 12 cd bf 7c 7c 3b 3e 0d 3d fa 3e
       0.64100057 -1.6021184 0.18309206 0.48874703
0003d0 b9 b8 1d c0 f8 17 c8 3e 69 7e f4 bf b0 dd c4 3f
       -2.4643996 0.39080787 -1.9101077 1.5380154
0003e0 12 36 1f bf 94 70 4c bf 41 8e 92 3f de 81 05 3f
       -0.6219188 -0.7985928 1.1449662 0.52151287
0003f0 c9 1f 2c 3f 20 0c 82 bf 68 cc 00 bf 8f df 9d bf
       0.67236 -1.015995 -0.503119 -1.233385

fc2.bias f4 [64]
000000 75 29 02 be 5d de a3 bf ee cf 6c bb d8 c1 41 3f
       -0.12711127 -1.2802235 -0.0036134678 0.7568641
000010 98 61 32 bf 92 85 92 bd 1c 1c 59 be f2 1a d8 3e
       -0.69680166 -0.07154383 -0.21202129 0.42208058
000020 e6 f2 36 bf b5 8b 7c be 3b e4 ec 3e 34 88 3d bf
       -0.71464384 -0.24662669 0.46267876 -0.74035954
000030 5a b6 09 3f cf ba f5 be f4 cf 91 3f 4a 95 06 bf
       0.5379387 -0.47994086 1.1391587 -0.5257155
000040 5a b0 70 3f df 4e 6b 3f c0 ca eb be e9 6a d1 bd
       0.9401909 0.9191722 -0.46053123 -0.102254696
000050 f6 ac 94 3e 52 1b c0 3c 8a 57 a8 be 7b c1 c8 3e
       0.2903821 0.023450527 -0.32879287 0.39210114
000060 3a d1 b2 be 91 ad dc be ac a8 20 bf 05 6c 3b be
       -0.34925252 -0.4310117 -0.6275737 -0.18302925
000070 e0 6e f8 be 34 b2 39 3e 66 13 08 3f 97 3a 56 3d
       -0.4852209 0.18134385 0.531546 0.05230197
000080 3a 6e 89 be 35 77 35 bf 98 8c 80 be 1b b9 f5 3f
       -0.2684191 -0.7088502 -0.25107265 1.9197115
000090 c8 9b 30 be e8 a5 f5 be f5 82 d7 be 34 73 db 3e
       -0.17246926 -0.4797814 -0.420921 0.4286133
0000a0 f3 ae 7d bf 78 71 f2 be 3a ea 83 bf 99 34 8b bf
       -0.99095076 -0.47352195 -1.0305855 -1.0875427
0000b0 69 d3 6b be 8f 3a 3a 3f a8 a4 f4 bf 11 cd 6f 3f
       -0.23029865 0.72745603 -1.9112749 0.9367228
0000c0 a9 78 ed be 35 22 3c bf 49 58 95 bf 78 85 a5 3e
       -0.4638112 -0.73489696 -1.1667567 0.3232839
0000d0 bc e9 5a be a1 7d 10 bf bf 0b a1 3e 5c 94 95 be
       -0.21378225 -0.56441694 0.31454274 -0.29214752
0000e0 8e 79 21 bf 91 51 49 3f 62 98 21 bf ae 67 76 be
       -0.630761 0.78640085 -0.6312314 -0.24062988
0000f0 e4 1c aa be ce 53 31 bf bd b6 df 3e a0 be a3 bf
       -0.33225167 -0.692685 0.43694106 -1.2792549

fc3.weight f4 [64, 64]
000000 21 0f db bd c9 e7 20 be 8e 7b 87 3c c2 5b 0a 3e
       -0.10696245 -0.15713419 0.016538408 0.13511565
000010 db 87 83 bf 5f 75 9f 3d 59 53 9e 3d f9 cc 96 be
       -1.0275835 0.07786059 0.07730741 -0.29453257
000020 b8 c4 30 be 54 cc 0e bf 3b 7b 91 bf 4a 45 0c 3f
       -0.17262542 -0.5578053 -1.1365732 0.54793227
000030 46 bb 06 bd 1a 8e 01 3e 02 df 40 bf b2 8f 5f 3e
       -0.03289344 0.12651864 -0.7534028 0.21832159
000040 c0 a0 41 bd 4d ee 91 be 84 86 95 3e 02 ea 71 3d
       -0.047272444 -0.28502122 0.2920419 0.059061058
000050 f4 3f e0 3e ee da ef 3e a8 b7 33 3f cc b2 11 bf
       0.43798792 0.46846718 0.7020211 -0.5691345
000060 8a 5d 1c bf 29 68 d0 be 17 57 20 be 94 de 99 bf
       -0.6108023 -0.40704468 -0.15658222 -1.202105
000070 b1 c0 23 3f a3 e2 39 3d 54 fa 73 be 81 92 38 bf
       0.639659 0.045382153 -0.23825961 -0.7209855
000080 94 d2 d0 3e 59 f9 44 be 6e 7f d9 be df 9d 56 be
       0.40785658 -0.19235744 -0.42480034 -0.2095866
000090 31 42 76 3e 64 1c 80 be 34 c9 ac 3c 60 8d a2 3e
       0.24048688 -0.2502166 0.021092035 0.31748486
0000a0 91 fc 1a 3f 66 64 b5 bf 29 c8 39 3f 52 89 20 bf
       0.60541636 -1.4171264 0.72571045 -0.62709534
0000b0 f3 05 56 bf c4 df 81 be 37 d2 b9 bf b6 ef 16 be
       -0.8360283 -0.25366032 -1.4517277 -0.1473988
0000c0 97 9d 0a bd ce 31 88 bf b9 e3 8c bf dd a9 23 bf
       -0.033841696 -1.0640199 -1.1006995 -0.63931066
0000d0 99 24 78 3d 17 a1 dd 3d 45 42 39 3d a0 81 ee 3e
       0.060581777 0.10821741 0.045229215 0.4658327
0000e0 75 71 4c be 7c 0e 37 be a7 45 b3 bf 9f 09 4b bf
       -0.19965155 -0.17876619 -1.4005631 -0.79311556
0000f0 9a 64 1e be ec ab d7 be 6a f2 03 3e b4 ef ed be
       -0.15468064 -0.42123353 0.12885442 -0.4647194
000100 7b 66 17 be 9e 92 bc 3f 43 65 9a 3e e0 2e a2 3f
       -0.14785187 1.4732244 0.30155382 1.2670555
000110 0c 24 a1 bd fe ce 0b 3f 11 ca 10 3e cb 86 81 3f
       -0.078682035 0.5461272 0.14139582 1.011926
000120 04 84 33 be 1f ad b3 3d 93 d8 09 3e 0f af 7c be
       -0.17530829 0.087732546 0.13461523 -0.24676155
000130 fd a4 00 bf 0b f7 ed bf a5 ef 78 bf 37 2c 37 bf
       -0.5025175 -1.8591017 -0.9724067 -0.7155184
000140 36 02 c0 be 54 ab 7d 3d 39 65 b9 bf 16 63 02 40
       -0.37501687 0.06193097 -1.4484016 2.0372977
000150 86 e4 49 bf 83 d5 41 bf 3a c9 93 bf c7 b2 95 bf
       -0.78864324 -0.7571642 -1.1545784 -1.1695184
000160 f7 b0 b3 be 6c 46 2d 3f d3 a3 a3 3f 92 55 74 be
       -0.3509595 0.6768558 1.278437 -0.23860767
000170 6b 6e b2 bf b4 e4 d7 3d 13 40 34 3e 7d 83 a2 3e
       -1.3939947 0.105416685 0.17602567 0.31740943
000180 39 b3 e1 3e 80 c9 a9 3f 4c b9 06 3f 6a 7f 59 bf
       0.4408205 1.3264618 0.5262649 -0.84960043
000190 33 23 33 bf fd 29 16 3f 9a fc 19 bf 69 ec b0 bf
       -0.69975585 0.5865782 -0.60151064 -1.3822147
0001a0 6d 24 93 bf c5 92 5b be 07 08 c7 3e dd 59 c3 bd
       -1.1495491 -0.21442707 0.38873312 -0.095386244
0001b0 88 28 43 3f fa 52 0c 3f f8 c5 2f bf 2a 6b 00 bd
       0.7623372 0.5481411 -0.6866145 -0.0313522
0001c0 d2 d6 45 be 62 87 8b bf a0 f9 3c 3f 2d 39 99 3e
       -0.19320229 -1.090069 0.738184 0.29926434
0001d0 61 2e c7 bc 69 41 02 3e 36 f2 d3 be 2a 9b 97 bd
       -0.024314107 0.12720264 -0.4139573 -0.07402642
0001e0 a1 8c 58 bf e8 da 1e 3e 50 ec 03 bf 16 10 e9 be
       -0.8458958 0.15513194 -0.5153246 -0.45520085
0001f0 cf e8 b0 be 74 ce 33 3e 00 1d 3a bf ef 30 07 3e
       -0.3455262 0.17559224 -0.727005 0.1320226
000200 bb a7 bf bd f6 7e 72 be 0b f8 df 3d 96 a0 97 3f
       -0.09358164 -0.23681244 0.10935982 1.1845882
000210 b6 b4 1b bf cc aa a3 be 26 9b c4 bd 96 26 c8 bf
       -0.6082262 -0.31966245 -0.09599905 -1.5636775
000220 78 d8 91 3d 92 75 8c be e0 54 39 bf c8 7c e5 bc
       0.07121366 -0.2743345 -0.72395134 -0.028013602
000230 b4 21 e2 3e a1 d7 e1 be d2 61 8e 3e cb fb b9 3d
       0.44166338 -0.44109824 0.27809006 0.09081229
000240 0c 0c 0d bf 64 74 b4 3d d2 71 86 bf 3f b7 d6 3e
       -0.5509651 0.08811262 -1.0503485 0.4193668
000250 b9 cb 25 be 9b fc 65 bd 7a 11 7b 3f 3e 46 a0 bd
       -0.16190995 -0.056149106 0.9807354 -0.07825898
000260 77 8b d5 3f a7 32 47 3f f9 d6 90 be f9 b8 12 bf
       1.6683186 0.77811664 -0.2828901 -0.57313496
000270 03 29 d9 3e 07 62 cd be 8d 61 2b 3d 5f 12 48 3d
       0.42414102 -0.4011385 0.04184108 0.048845645
000280 4a 79 03 bf 60 20 7c 3f 97 9f b7 3f 53 e3 1c be
       -0.5135695 0.984869 1.4345578 -0.15321092
000290 0b 4b 4a bf 97 8f cf 3d 27 c9 06 bf 75 ca 10 3f
       -0.79020756 0.101348095 -0.52650684 0.56558925
0002a0 1b 3d 5a be f6 b9 c1 bd 96 b0 03 bf 24 8c e8 be
       -0.21312372 -0.09459297 -0.51441324 -0.4541942
0002b0 ce e6 20 3e 78 9e e9 bd b1 a4 ce bf 4a 90 73 3e
       0.15713045 -0.11407179 -1.614401 0.2378551
0002c0 1f 01 91 be 00 f6 06 40 b4 5d 7a bf 06 2b 29 bf
       -0.28321168 2.1087646 -0.9779923 -0.66081274
0002d0 0e 68 60 bc 9d d7 ae bd 04 f3 aa bd 4b b5 0e 3f
       -0.013696684 -0.08537219 -0.08347133 0.5574538
0002e0 43 e8 a8 bf 80 e3 46 bd 27 5b 91 bf 5b a2 a8 3e
       -1.3195881 -0.048556805 -1.1355942 0.32936367
0002f0 15 38 1d be e9 61 f4 be fa 05 a7 be f0 53 42 bf
       -0.15353425 -0.4773095 -0.32621747 -0.7590933
000300 da 1c b3 bd 84 35 51 be ba f3 f8 bd c3 10 db bc
       -0.087457374 -0.20430571 -0.12155862 -0.026741391
000310 16 20 95 bd 90 01 6a bd 48 d1 96 3d a8 26 30 be
       -0.072815105 -0.057130396 0.07364136 -0.17202246
000320 1b e9 e0 3d 03 40 bc 3d bc 27 63 be a7 dc fe bd
       0.10981961 0.09191897 -0.22183126 -0.1244443
000330 6b 4e ef bd b6 1a 9c bd c0 ab 53 bd ac a4 18 be
       -0.11684879 -0.07622282 -0.051677465 -0.14906567
000340 50 20 75 bc d0 8e 35 be a2 52 da bd f4 6b 95 3d
       -0.014961317 -0.1773026 -0.10660292 0.07295981
000350 f7 5f 12 3e 40 cb b8 bd b7 38 a1 be 84 78 be bd
       0.1429442 -0.09023142 -0.31488582 -0.0930033
000360 da 00 e3 bd ff d6 04 be e3 98 07 be b2 15 d3 bd
       -0.11084147 -0.1297264 -0.13241915 -0.103068724
000370 f2 eb 21 be 22 ae 4d 3d ce 81 90 bd c5 1b a0 be
       -0.15812662 0.050214894 -0.07056008 -0.31271186
000380 ea 9e 1d 3d ec 1b 81 bd 58 1c 08 be a5 21 67 bd
       0.03848163 -0.06304154 -0.13292062 -0.05642857
000390 db a4 2a 3c a9 a8 3b 3c f4 fc 2a be 4e 96 0d bd
       0.010415281 0.011453786 -0.16698056 -0.03456717
0003a0 e8 a3 18 bd 51 2c 3c bd 7d 2e 96 bd 4d bb 42 bd
       -0.03726569 -0.0459407 -0.07333086 -0.047541905
0003b0 13 fd 7c be 2c 33 16 ba 7a 74 5b be 00 d1 d5 bb
       -0.24705915 -0.0005729671 -0.21431151 -0.006525159
0003c0 24 cd 5a bd 0b 10 ae be 65 91 f9 bd 9d 52 16 be
       -0.053418294 -0.33996615 -0.12185935 -0.14679952
0003d0 32 c6 ee bd ae 3f 44 3d bc 13 1c 3d eb 54 a4 bd
       -0.116588965 0.047912292 0.038104758 -0.08024009
0003e0 59 7f f6 bd 4e a3 e0 bc c9 d3 a2 be a4 f8 33 bd
       -0.120360084 -0.02742162 -0.31802204 -0.043938294
0003f0 ca 5f ab bd d9 f8 35 3d 5e fb 72 bd f0 93 11 bd
       -0.0836788 0.044426773 -0.059321754 -0.035541475

fc3.bias f4 [64]
000000 21 5c 86 3f 0b 57 a8 3f 89 9b 5c 3f f5 cd a6 be
       1.0496866 1.3151563 0.8617483 -0.32579008
000010 77 9d 5d bf 65 f9 b1 3e 9c 30 c5 3e 75 d7 2e 3d
       -0.865684 0.34760585 0.3851365 0.042685945
000020 9a c3 cd ba f3 95 f4 3f 5d 8b 73 3f fb 16 cc 3e
       -0.0015698553 1.9108261 0.95134526 0.39861283
000030 de f8 89 be 1e e9 e6 be e7 5a 1f bd af 5e 57 bd
       -0.26947683 -0.4509973 -0.03890505 -0.05258053
000040 67 a5 b4 be a7 cb 67 3e 4d 1d 15 be d7 d1 40 bc
       -0.35282442 0.22636281 -0.14561959 -0.01176878
000050 c2 05 c8 b9 b3 c3 5e 3f 16 bb b0 3e e5 3a 5c 40
       -0.00038151263 0.87017363 0.34517735 3.4410946
000060 c6 a2 03 40 6f b1 96 3f 79 6b 80 be bc 21 e6 be
       2.05681 1.1772898 -0.25081995 -0.44947612
000070 91 b4 20 be 64 7e cd 3c ae bd b6 3f f3 d4 68 be
       -0.1569388 0.025084682 1.4276636 -0.22737484
000080 b5 98 4f 40 b6 29 d4 bd 11 fb 33 3d b4 06 95 3f
       3.2436955 -0.10359518 0.043940607 1.1642671
000090 10 56 1e 3f d9 51 8a 3f 5f 2f c5 3f 74 53 f7 be
       0.6185007 1.0806228 1.5405082 -0.48305857
0000a0 41 31 a6 3e a9 fa 8e be 3a cd 8a 3d c4 7a 7e bf
       0.32459453 -0.27925614 0.06777425 -0.99406075
0000b0 73 37 40 be 9e ef 81 40 7d 9c d6 3e 29 d3 60 be
       -0.18771152 4.0605 0.41916266 -0.21955551
0000c0 2a d5 1d bd 59 b2 64 be bc 23 4f be e5 57 9f be
       -0.038533367 -0.22333659 -0.20228475 -0.31121746
0000d0 33 dc 83 3d 84 b0 18 bc 9f a9 85 3b ff 7d 38 bf
       0.06438484 -0.009319428 0.0040790583 -0.72067255
0000e0 be 05 18 40 68 dd db 3e a2 b3 1d bf 19 84 5b be
       2.3753505 0.42942357 -0.6160222 -0.2143711
0000f0 3e af 0b bf b3 47 79 be e1 58 fd be 15 7c 85 40
       -0.54564273 -0.24343757 -0.49481872 4.1713967

q_out.weight f4 [1, 64]
000000 b8 b0 8f 3f 6b fa 05 3f bc bf 77 3f 2c 46 96 3b
       1.1225805 0.5233523 0.9677694 0.004586002
000010 44 22 73 bf 96 f4 fb bf 1f 53 01 40 08 73 59 3f
       -0.9497416 -1.9684017 2.0206983 0.8494115
000020 dd bb 01 40 45 f2 c4 3f d9 b2 bf 3f a5 5b ab bf
       2.0270913 1.5386435 1.4976455 -1.3387343
000030 36 9d 19 c0 f9 08 22 c0 f8 07 bb 3f eb 5b 02 c0
       -2.4002204 -2.5317976 1.4611807 -2.0368602
000040 40 a5 97 bf 55 8e 95 3f d8 87 82 3f 5c c4 8d bf
       -1.1847305 1.1684061 1.0197706 -1.1075549
000050 a9 4f 34 bf 89 71 85 3f e6 e6 c9 bf 95 1a 8b 3f
       -0.7043405 1.0425273 -1.577359 1.0867487
000060 96 bb ae 3e d1 51 89 3f db 42 a0 3c 80 07 98 bf
       0.34127492 1.0728093 0.01956313 -1.1877289
000070 4e 94 24 bf 15 59 78 3f d5 ee 5b 3e bb c2 79 bf
       -0.64288795 0.9701093 0.21477826 -0.9756276
000080 6d 20 a7 3e 26 2c 9f 3f 68 61 dd 3f 69 a3 2c 3f
       0.32641926 1.2435348 1.7295351 0.67436844
000090 46 38 ca bf 78 b5 49 3f 9f dd 69 3f a9 ab 94 bf
       -1.5798423 0.78792524 0.9135379 -1.1614887
0000a0 69 5b 53 3f 53 30 91 be f6 5a eb bf a8 93 8b bf
       0.82561356 -0.2835718 -1.8387134 -1.0904436
0000b0 e0 9c 92 bf 36 95 98 3f 95 47 14 c0 41 93 05 c0
       -1.1454124 1.1920536 -2.316869 -2.0871127
0000c0 60 ec 1a 3f 97 3f 15 c0 6a 52 b8 bf 96 b9 ab 3b
       0.6051693 -2.3320062 -1.4400151 0.0052406294
0000d0 e8 8c 86 bf 1e 3a 97 3f 83 54 12 c0 6a 58 d3 3f
       -1.0511751 1.1814611 -2.2864082 1.6511357
0000e0 71 b0 58 3f 87 90 b4 bf 02 24 b6 bf f7 2b 9f 3b
       0.8464423 -1.4106606 -1.4229739 0.004857536
0000f0 88 ba a9 bf b7 3d f0 bd f8 3e 47 3f e2 9a d9 3f
       -1.326005 -0.11730521 0.7783046 1.7000391
